Source_combined/ckps/seizure/source/Except_S4_sort/source_C.pt (torch, 1763 bytes, 3 tensors)

fc.bias f4 [2]
-0.0051938603 0.00518522
00000000: 4231 aabb c7e8 a93b

fc.weight_g f4 [2, 1]
1.7381861 1.7759551
00000000: e27c de3f 7f52 e33f

fc.weight_v f4 [2, 50]
0.11327292 0.09138205 0.031929635 -0.014803115 0.10534293 -0.049938414 -0.11819984 -0.04108108
-0.14164917 0.14055035 -0.019496787 -0.13369666 -0.20206048 0.12738223 0.026221244 -0.1628092
0.16674483 0.0048733726 0.12453334 0.008974701 0.09262284 -0.12327476 0.118964754 -0.0024491563
-0.15148352 -0.10645109 -0.1279687 0.09845767 0.120175086 -0.00017590211 0.07752833 -0.051800184
0.020252375 0.060248073 0.11926867 -0.08883482 -0.024413358 -0.030123478 -0.15282926 -0.1884386
-0.20193279 0.08385878 0.09284686 0.1140065 0.14383861 0.098987214 0.047258295 0.07718107
-0.008344568 0.05081411 -0.11350461 -0.09364572 -0.033673104 0.015148952 -0.10851777 0.04915027
0.12042027 0.040824153 0.14563291 -0.14326353 0.020787008 0.13572325 0.20581086 -0.13064556
-0.026059635 0.16726178 -0.16962597 -0.0065812105 -0.12722893 -0.009861726 -0.093407445 0.12720701
-0.1214054 0.0006573617 0.15339726 0.108910866 0.13061376 -0.101309456 -0.121063866 -0.00013849365
-0.080836646 0.051569484 -0.020266619 -0.060680345 -0.12079169 0.09128112 0.024556896 0.029528208
0.15679699 0.19101995 0.205288 -0.08459125 -0.09537687 -0.115455136 -0.1478022 -0.10241319
-0.047143348 -0.077560686 0.006574466 -0.05073946
00000000: a2fb e73d 8326 bb3d a6c8 023d c488 72bc
00000010: 09be d73d 398c 4cbd c212 f2bd a244 28bd
00000020: 7b0c 11be 6eec 0f3e bab7 9fbc c7e7 08be
00000030: f1e8 4ebe 7d70 023e efcd d63c 74b7 26be
00000040: 28bf 2a3e d0b0 9f3b 560b ff3d a00a 133c
00000050: 0bb1 bd3d 7a77 fcbd cba3 f33d 0682 20bb
00000060: 7f1e 1bbe 0703 dabd 3a0a 03be 2da4 c93d
00000070: 5b1e f63d 5d72 38b9 2cc7 9e3d 6e2c 54bd
00000080: 4fe8 a53c afc6 763d 2243 f43d 08ef b5bd
00000090: 86fe c7bc 83c5 f6bc 467f 1cbe 0cf6 40be
000000a0: 78c7 4ebe 27be ab3d 7f26 be3d 3d7c e93d
000000b0: 6e4a 133e cfb9 ca3d ea91 413d 1c11 9e3d
000000c0: a8b7 08bc 7522 503d 1b75 e8bd 54c9 bfbd
000000d0: cfec 09bd 4f33 783c 913e debd cb51 493d
000000e0: e79e f63d 3a37 273d cb20 153e adb3 12be
000000f0: 8449 aa3c 09fb 0a3e 15c0 523e f3c7 05be
00000100: 047b d5bc ac46 2b3e 6eb2 2dbe 32a7 d7bb
00000110: 4d48 02be 1493 21bc 674c bfbd 8e42 023e
00000120: 65a3 f8bd cc52 2c3a 2c14 1d3e a90c df3d
00000130: 9dbf 053e 557b cfbd 55f0 f7bd 9b38 11b9
00000140: af8d a5bd 863a 533d 2e06 a6bc f48b 78bd
00000150: a261 f7bd 99f1 ba3d 8b2b c93c 24e5 f13c
00000160: 648f 203e bc9a 433e 0437 523e 2d3e adbd
00000170: f354 c3bd be73 ecbd 7659 17be 02be d1bd
00000180: 6219 41bd 23d8 9ebd 9e6e d73b 2ed4 4fbd
