Source_combined/ckps/seizure/source/Except_S54/source_C.pt (torch, 1763 bytes, 3 tensors)

fc.bias f4 [2]
000000 fd 30 ca 3c 5b 33 ca bc
       0.024681563 -0.024682691

fc.weight_g f4 [2, 1]
000000 b1 fe 9b 3f 04 50 9e 3f
       1.2187101 1.2368169

fc.weight_v f4 [2, 50]
000000 58 13 4b 3e 84 91 52 bc d7 f8 02 bc 02 8f 57 3d
       0.19831598 -0.012852076 -0.007993898 0.052626617
000010 00 53 04 be c6 06 d3 bd a0 41 f7 3c 31 e9 f9 bd
       -0.12922287 -0.10304026 0.03018266 -0.12202681
000020 69 34 f2 3d 01 ed 0c 3e 39 f4 39 3e 89 34 11 bd
       0.11826403 0.13762285 0.1815957 -0.035450492
000030 a8 61 e4 3d 05 45 29 be 61 3c e7 3c 60 ea ac 3d
       0.11151439 -0.16530235 0.028227033 0.08443141
000040 df f8 66 3d 29 ef 57 3d 93 92 8c 3d 02 54 20 bc
       0.056389686 0.052718315 0.06863894 -0.009785654
000050 41 06 86 bd 76 97 ab 3d 37 27 e8 bd 66 9e 5b bd
       -0.065441616 0.08378498 -0.11335605 -0.053617857
000060 a2 01 41 be 13 d2 41 3d fc 9a e1 3d a0 d9 5f 3a
       -0.18848279 0.047319483 0.11015889 0.00085392036
000070 9f de f8 bd ab b0 e2 3d 8e 99 0e be 7d f0 e5 3c
       -0.121518366 0.11068853 -0.13925764 0.028068775
000080 9c 7a 0f be 72 1a 1f be f8 d2 d6 3b 8d 41 2d 3d
       -0.14011616 -0.15537432 0.006555911 0.042298842
000090 e4 ee c9 3d bd 0c 97 bd 53 78 59 3d cf 72 4a 3d
       0.09860018 -0.073754765 0.053093266 0.049425896
0000a0 cf 38 99 3c 3e e7 48 3d ab 41 0b 3e 5a db e9 3d
       0.018703846 0.049048655 0.13599269 0.11418791
0000b0 d2 ea c9 bc 28 b0 10 3e c4 17 44 3d 41 25 dd bd
       -0.024648104 0.14129698 0.047874227 -0.10798121
0000c0 63 2d fb 3c 5d 6b b0 bb 8f a6 60 be 21 68 24 3b
       0.03066129 -0.0053838925 -0.21938537 0.002508648
0000d0 80 91 49 3d 0a 28 51 bd 21 b1 1f 3e e2 fe bd 3d
       0.049211025 -0.051063575 0.15594913 0.09277131
0000e0 45 3f bc 3c 5e 6e aa 3d ba 56 a6 bd a5 e2 c4 bd
       0.022979388 0.08321832 -0.081220105 -0.096135415
0000f0 92 31 38 be db f1 86 3c f6 f5 fd bd ba 94 20 3e
       -0.1798766 0.016472748 -0.12400429 0.15681735
000100 9f 5a a1 bd 97 e4 cb bd d8 71 b6 bc b8 b7 83 bd
       -0.07878613 -0.099557094 -0.022271082 -0.06431526
000110 d9 65 78 bd 03 a6 0f 3d ba be 82 3d 36 c0 71 bd
       -0.060644004 0.03507043 0.063840345 -0.059021197
000120 b5 f3 fd 3d e6 43 b3 3d 41 b4 38 3e 3a f6 6d bd
       0.12399999 0.08753185 0.18037511 -0.058096148
000130 c0 f9 b6 bd b4 e4 dc bc 69 86 12 3e a2 e8 ce bd
       -0.08934355 -0.026964523 0.14309086 -0.10102965
000140 5e c7 28 3e 9e f4 ba bc bd 1b 1c 3e c4 8e 0f 3e
       0.16482303 -0.02282172 0.15244956 0.14019305
000150 6c c6 e4 3c 21 ac 9d bd c8 3b 9d bd 48 2d 4e 3d
       0.027926646 -0.076988466 -0.07677418 0.050336152
000160 ee 7c 70 bc f0 ba 8e bd 0b 13 44 bd 6d 7f 57 bd
       -0.014678223 -0.06969249 -0.047869723 -0.052611757
000170 e5 f6 2f be bc 14 04 be d0 30 63 3d 34 a9 19 be
       -0.17184027 -0.12898535 0.055466473 -0.15005952
000180 1d 67 f6 bc d2 4e d2 3d a3 9e ab bc 9c 6e 28 3d
       -0.030078465 0.1026894 -0.020949667 0.04112111
