Source_combined/ckps/seizure/source/S62/source_C.pt (torch, 1763 bytes, 3 tensors)

fc.bias f4 [2]
0.5371133 -0.53711826
00000000: 4280 093f 9580 09bf

fc.weight_g f4 [2, 1]
1.570437 1.3403951
00000000: 1404 c93f 1192 ab3f

fc.weight_v f4 [2, 50]
0.021359837 -0.056753654 -0.1384632 -0.37226447 0.030842083 0.09977296 -0.044988014 0.22804776
0.032522496 0.24292786 -0.51774687 0.29027185 0.101727046 0.21150066 -0.43257362 -0.25255027
0.070903555 -0.05170807 0.09172177 -0.17940708 0.07742812 0.19026886 0.07068352 -0.16458361
0.03436157 0.23055677 0.031273402 -0.6713869 0.12577884 0.20413172 0.16538931 -0.15411505
-0.036393523 0.06696566 -0.07803479 0.06920081 0.0638447 0.22768845 0.29020578 0.078874946
0.14546052 0.29904902 0.057865452 0.23563695 0.17147292 0.04044713 0.34477058 0.20448214
0.567062 0.24464564 -0.05837323 0.0040369555 0.16935341 0.27858496 -0.03335661 -0.08113616
0.11405549 -0.21888827 0.02801664 -0.2058492 0.4638208 -0.280776 -0.13693391 -0.098837495
0.39588904 0.23388699 -0.05266062 0.12801057 0.0045965235 0.15142152 -0.088992655 -0.08396258
0.045145784 0.12564653 -0.053010624 -0.22923462 -0.008474052 0.6284522 -0.030353926 -0.2330635
-0.10147399 0.18209715 0.03636267 0.012044951 0.11672425 0.029674979 -0.027205998 -0.1347779
-0.25548014 -0.07811263 -0.13732898 -0.23568395 -0.10855319 -0.19880924 -0.23157871 -0.014419816
-0.32187557 -0.14337008 -0.51552176 -0.280639
00000000: d3fa ae3c 8576 68bd 4cc9 0dbe 7399 bebe
00000010: 89a8 fc3c c455 cc3d 5a45 38bd 5a85 693e
00000020: 4f36 053d 15c2 783e 0f8b 04bf 839e 943e
00000030: 4556 d03d a193 583e 4a7a ddbe 454e 81be
00000040: e235 913d d7cb 53bd a0d8 bb3d 7db6 37be
00000050: a292 9e3d d7d5 423e 85c2 903d 9b88 28be
00000060: b8be 0c3d 1317 6c3e 8a18 003d 03e0 2bbf
00000070: 2bcc 003e e807 513e d15b 293e 56d0 1dbe
00000080: 6011 15bd 4b25 893d b4d0 9fbd 27b9 8d3d
00000090: 03c1 823d 2927 693e da95 943e 3089 a13d
000000a0: 9af3 143e f41c 993e 5304 6d3d d04a 713e
000000b0: 9996 2f3e e4ab 253d c585 b03e c463 513e
000000c0: fa2a 113f 6384 7a3e c518 6fbd 7048 843b
000000d0: fb6a 2d3e b0a2 8e3e f1a0 08bd b72a a6bd
000000e0: ed95 e93d 3f24 60be 2783 e53c 22ca 52be
000000f0: eb79 ed3e dfc1 8fbe 6738 0cbe 506b cabd
00000100: f8b1 ca3e 1280 6f3e aab2 57bd 3415 033e
00000110: 6f9e 963b 3e0e 1b3e c841 b6bd 93f4 abbd
00000120: c9ea 383d 7ca9 003e ab21 59bd 7bbc 6abe
00000130: c0d6 0abc 3ee2 203f cca8 f8bc 33a8 6ebe
00000140: 98d1 cfbd ad77 3a3e 06f1 143d 3058 453c
00000150: 200d ef3d f118 f33c 1ddf debc 3803 0abe
00000160: 4bce 82be 84f9 9fbd f89f 0cbe 2257 71be
00000170: 2351 debd a694 4bbe f822 6dbe 1841 6cbc
00000180: e0cc a4be 9bcf 12be 3cf9 03bf eaaf 8fbe
