Source_combined/ckps/seizure/source/Except_S6/source_F.pt (torch, 557199 bytes, 8 tensors)

fc1.weight f4 [100, 1332]
0.020106716 -0.02575585 -0.025433036 -0.015209306 -0.0015758774 -0.019845536 -0.02689858 0.009951019
-0.0025436454 0.017986458 -0.025039636 0.027202591 0.0039814683 -0.006724573 -0.018325347 -0.01584612
0.016445631 0.0094984565 -0.026882108 0.011391956 -0.013590736 0.016312078 0.026562218 0.027955852
-0.005692327 -0.011478761 0.017829442 -0.0090820445 0.02536787 0.003065703 0.022840062 0.015019381
-0.0072764345 -0.009690682 -0.028055701 0.0032070763 -0.018926656 -0.0023554335 0.020587023 0.021268038
0.022886245 -0.024704695 0.010118572 0.020760698 0.020292174 -0.007845439 0.014981827 0.0076734023
0.024383605 0.005493271 0.013359946 0.006170431 0.013616471 0.016383214 0.020068826 -0.01914647
-0.018805278 -0.02501227 -0.023936773 0.017150918 0.013732947 -0.02041982 -0.0061536934 0.0050446773
-0.021984233 0.019174641 0.010552849 -0.021890813 0.0037090671 0.026358308 0.022091137 -0.020114783
0.0016643956 -0.018244013 0.006384445 -0.01989977 -0.0020267447 0.021026762 0.011240581 0.02006666
0.00750821 -0.0047588735 -0.006986663 0.018987758 -0.010049433 -0.0045268014 0.015337366 0.004958663
-0.021912014 0.021710884 0.0056498996 -0.016627027 -0.0055552633 0.004036083 -0.010084669 0.014982335
-0.006493289 0.017499505 -0.017014688 -0.00478879 -0.010100135 -0.016183695 -0.016052362 -0.022616416
-0.015095474 0.0022106378 0.02104946 -0.0009967764 -0.01332379 -0.012446418 -0.009722019 -0.0046420097
-0.012336383 0.022575779 0.012094215 -0.007207954 0.018083736 -0.0023973107 -0.010892508 0.022443196
0.0072988044 -0.0136466315 0.023358693 0.008075116 0.017658882 0.008784567 -0.028069347 -0.018933525
-0.008308034 -0.0023598669 0.009275581 0.018979797 0.017061481 -0.0020386009 -0.00743295 0.025189236
0.011382191 0.0032367175 0.00316112 -0.010928571 0.0032770936 0.023641394 0.014423524 0.01260997
0.017367085 0.015967168 0.026210167 0.021947978 0.008729032 0.022326143 0.024371551 -0.026123334
-0.0060848077 -0.017008085 0.007490484 -0.012872589 0.023258025 0.012433363 0.0066258623 0.012253789
-0.012757237 0.0044097137 0.0007057723 -0.016742097 0.022500433 0.003951845 -0.026638685 -0.02143866
0.017213937 -0.021682391 -0.0074148444 -0.02450727 0.028473282 -0.014564834 0.005223662 0.019014338
0.0122931115 0.017391345 0.011492888 -0.019833267 0.02126627 0.00868961 -0.008882835 -0.021669347
-0.0011484395 0.009822623 -0.016391374 -0.023411794 0.006404211 0.009884541 -0.02177612 0.0041795988
0.017917553 0.015642524 0.02204356 -0.0064858426 -0.023631452 0.009663423 -0.021533804 -0.0007058387
-0.021412667 0.020983148 0.016021483 0.023072595 0.024995338 -0.022493815 0.0042516473 0.021270752
0.008198868 0.02673938 -0.014606719 0.018303927 0.016234884 -0.018903308 -0.020528734 0.012620735
0.0072960444 -0.012617601 -0.015685976 -0.026661485 -0.00321048 0.00035056542 0.0012536736 -0.004399288
-0.023230454 -0.016051386 0.01750644 0.0012498787 -0.011653687 0.0014055257 -0.018351784 0.004436937
0.0024419671 -0.022512974 -0.022282206 -0.024823124 -0.027213586 0.020297496 -0.014366132 0.023026096
0.017013408 0.026465945 -0.021670682 0.00012248864 -0.008177702 0.020938022 -0.0013063997 -0.011604089
-0.008853562 -0.011975483 0.014517227 0.0003319495 0.019637542 -0.008246584 0.009236622 0.016260576
00000000: d7b6 a43c effd d2bc f158 d0bc 7430 79bc
00000010: ac8d ceba 1b93 a2bc 695a dcbc 9909 233c
00000020: 4ab3 26bb 5658 933c ec1f cdbc f8d7 de3c
00000030: fa76 823b cf59 dcbb 0a1f 96bc b9cf 81bc
00000040: fdb8 863c 6a9f 1b3c de37 dcbc 54a5 3a3c
00000050: aeab 5ebc e8a0 853c 0299 d93c ac03 e53c
00000060: b386 babb 6a11 3cbc 0d0f 923c dbcc 14bc
00000070: 48d0 cf3c f6e9 483b 151b bb3c da13 763c
00000080: 286f eebb abc5 1ebc 12d5 e5bc d02d 523b
00000090: 130c 9bbc 9e5d 1abb 1ea6 a83c 4f3a ae3c
000000a0: ef7b bb3c 8061 cabc 5ec8 253c 5712 aa3c
000000b0: c63b a63c 288a 00bc 5676 753c 2a71 fb3b
000000c0: 20c0 c73c e600 b43b ade3 5a3c 5431 ca3b
000000d0: 9e17 5f3c 1736 863c 6167 a43c 0fd9 9cbc
000000e0: 870d 9abc 88e6 ccbc 0d17 c4bc 1580 8c3c
000000f0: 2800 613c 7747 a7bc eca4 c9bb d24d a53b
00000100: 4718 b4bc 2314 9d3c dbe5 2c3c 5d54 b3bc
00000110: d213 733b 61ed d73c 79f8 b43c c2c7 a4bc
00000120: d927 da3a 7874 95bc 9b34 d13b d804 a3bc
00000130: 22d3 04bb 5140 ac3c 6a2a 383c d662 a43c
00000140: 6e07 f63b 53f0 9bbb 61f0 e4bb 378c 9b3c
00000150: 61a6 24bc 9055 94bb 9349 7b3c 487c a23b
00000160: d380 b3bc 06db b13c cb22 b93b 6735 88bc
00000170: ed08 b6bb 1e41 843b 2b3a 25bc 7878 753c
00000180: a8c5 d4bb 1f5b 8f3c 6362 8bbc 48eb 9cbb
00000190: 097b 25bc ab93 84bc 3e80 83bc 1046 b9bc
000001a0: 0253 77bc 59e0 103b eb6f ac3c 44a6 82ba
000001b0: 074c 5abc 10ec 4bbc 1a49 1fbc 001c 98bb
000001c0: 8a1e 4abc d7f0 b83c d026 463c b330 ecbb
000001d0: 5824 943c 331c 1dbb 7d76 32bc cbda b73c
000001e0: cf2a ef3b 1f96 5fbc bb5a bf3c 7e4d 043c
000001f0: 5ca9 903c 25ed 0f3c b0f1 e5bc 7b1a 9bbc
00000200: 6c1e 08bc ffa7 1abb 9bf8 173c 857b 9b3c
00000210: 85c4 8b3c 0c9a 05bb 1b90 f3bb a859 ce3c
00000220: 5f7c 3a3c 1c1f 543b cb2a 4f3b c00d 33bc
00000230: 82c4 563b 99ab c13c a550 6c3c 0c9a 4e3c
00000240: 6b45 8e3c 94cd 823c b4b6 d63c 3fcc b33c
00000250: 3704 0f3c 51e5 b63c d9a6 c73c 9a00 d6bc
00000260: 1163 c7bb 8a54 8bbc bc72 f53b 8de7 52bc
00000270: 9d87 be3c 4eb5 4b3c c31d d93b 1ec4 483c
00000280: bb03 51bc 5c7f 903b 9403 393a b926 89bc
00000290: d452 b83c 7b7e 813b 5f39 dabc 21a0 afbc
000002a0: 3e04 8d3c 459f b1bc 39f8 f2bb 78c3 c8bc
000002b0: cd40 e93c 57a1 6ebc 412b ab3b f5c3 9b3c
000002c0: 0c69 493c 4b78 8e3c ab4c 3c3c 6079 a2bc
000002d0: 9a36 ae3c de5e 0e3c 4f89 11bc ea83 b1bc
000002e0: 3c87 96ba 11ef 203c 3447 86bc 17ca bfbc
000002f0: 6ada d13b c5f2 213c d563 b2bc 04f5 883b
00000300: d5c7 923c c024 803c b294 b43c 3187 d4bb
00000310: bf96 c1bc 5553 1e3c a967 b0bc 0908 39ba
00000320: 9e69 afbc dae4 ab3c 7c3f 833c bd02 bd3c
00000330: 06c3 cc3c f344 b8bc 6751 8b3b 0040 ae3c
00000340: 8b54 063c 8b0c db3c 0551 6fbc 1ef2 953c
00000350: 05ff 843c 1cdb 9abc e02b a8bc 33c7 4e3c
00000360: a813 ef3b 0eba 4ebc e07f 80bc 3069 dabc
00000370: eb66 52bb 18cc b739 4e52 a43a e727 90bb
00000380: cb4d bebc 327e 83bc aa69 8f3c f8d2 a33a
00000390: 1bef 3ebc 9e39 b83a 7b56 96bc ba63 913b
000003a0: 6909 203b 216d b8bc 2c89 b6bc dd59 cbbc
000003b0: 07ef debc ef46 a63c ed5f 6bbc 39a1 bc3c
000003c0: b45f 8b3c 1ccf d83c b786 b1bc 4b70 0039
000003d0: c5fb 05bc 3786 ab3c 803b abba 141f 3ebc
000003e0: 880e 11bc d134 44bc aad9 6d3c 8209 ae39
000003f0: e9de a03c ae1c 07bc 3355 173c e634 853c

fc1.bias f4 [100]
-0.0161701 -0.020050151 -0.008253338 -0.016302057 -0.0119867325 -0.021987155 0.0076749027 -0.008739559
-0.0069569373 0.007367579 -0.01450909 -0.0095811365 -0.025357813 0.003713639 -0.0043175924 -0.0027686642
-0.008453414 0.018469917 -0.0056600682 -0.014238822 -0.0045951908 0.02479199 0.025340242 -0.001004437
0.0039447197 0.02145801 -0.019303689 -0.006134818 0.012863803 0.02244429 -0.008752864 -0.027908808
0.034727212 0.005412114 -0.022714263 -0.0040871897 0.02442733 -0.00035426012 -0.010603209 7.1799645e-05
0.0033138792 0.017811548 0.014581219 0.015934257 -0.013223336 0.019276578 -0.024094202 -0.001975185
0.010532029 0.020730622 -0.010631296 -0.0010037039 0.019318847 0.019266257 0.020098113 0.00078837166
0.006689517 -0.025442427 0.0072347578 0.022876019 -0.019097842 -0.021299867 0.02714039 -0.0020712318
0.026808178 -0.01281529 -0.010035051 0.004665773 0.02402614 -0.012343227 -0.02246447 0.0039164447
-0.025505766 -0.015972042 0.017280683 0.024693897 -0.008161891 -0.010458902 -0.02451841 0.008263614
0.0038941202 0.02483734 -0.016899163 0.01442723 0.016405944 -0.011144465 -0.0026264526 -0.01200905
-0.009040847 -0.015924174 -0.01720737 -0.0036711134 0.005009982 -0.022335524 -0.0025889457 0.008977454
0.02355114 0.0014563188 -0.00932884 0.0191106
00000000: 2877 84bc 3740 a4bc 0239 07bc e48b 85bc
00000010: 0064 44bc 681e b4bc c07d fb3b 5e30 0fbc
00000020: 05f7 e3bb bb6b f13b 89b7 6dbc 33fa 1cbc
00000030: 30bb cfbc 8660 733b 977a 8dbb 7a72 35bb
00000040: 3080 0abc 394e 973c 1878 b9bb f349 69bc
00000050: 4193 96bb 9218 cb3c 5796 cf3c 50a7 83ba
00000060: b542 813b b5c8 af3c c522 9ebc 9506 c9bb
00000070: b3c2 523c 16dd b73c 2c68 0fbc 03a1 e4bc
00000080: 1f3e 0e3d 1a58 b13b 4313 babc d5ed 85bb
00000090: d31b c83c fdbb b9b9 15b9 2dbc 2493 9638
000000a0: ab2d 593b 86e9 913c 11e6 6e3c 8f88 823c
000000b0: b1a6 58bc eae9 9d3c 3461 c5bc 1b72 01bb
000000c0: 888e 2c3c 44d3 a93c e32e 2ebc b78e 83ba
000000d0: 8f42 9e3c 45d4 9d3c cca4 a43c baaa 4e3a
000000e0: bc33 db3b a36c d0bc 8c11 ed3b 7d66 bb3c
000000f0: 1473 9cbc 0f7d aebc 8655 de3c 81bd 07bb
00000100: d39c db3c 39f7 51bc 0e6a 24bc 57e3 983b
00000110: 78d2 c43c 3f3b 4abc 6807 b8bc 8555 803b
00000120: 78f1 d0bc cdd7 82bc 3890 8d3c db4a ca3c
00000130: 74b9 05bc d15b 2bbc d5da c8bc 1c64 073c
00000140: 7f34 7f3b ad77 cb3c 1d70 8abc 3060 6c3c
00000150: c265 863c 4697 36bc 9020 2cbb 9bc1 44bc
00000160: 1020 14bc 6a73 82bc 78f6 8cbc 1097 70bb
00000170: c62a a43b fdf8 b6bc 4dab 29bb 2c16 133c
00000180: 52ee c03c f3e1 be3a fed7 18bc d58d 9c3c

ln1.weight f4 [100]
0.9924694 0.9933658 0.9936547 0.9920303 0.99323744 0.9921166 0.9927234 0.9930138
0.9934166 0.99311537 0.99444747 0.99189854 0.9928506 0.99455786 0.9925889 0.9934292
0.99399257 0.99661124 0.99295604 0.9932529 0.99224055 0.9937599 0.99529266 0.9927847
0.9941137 0.9920945 0.99470717 0.994218 0.9945542 0.9929082 0.9936827 0.9952656
0.9962876 0.99257725 0.99245805 0.9937616 0.9932918 0.9957472 0.9932851 0.99289507
0.99501836 0.9932481 0.9927494 0.9922285 0.98963463 0.99311936 0.99323493 0.9917069
0.9928554 0.991516 0.99178916 0.99277765 0.99354374 0.9931835 0.99317294 0.99401087
0.9922143 0.9932518 0.99260104 0.9923115 0.99174744 0.99275094 0.99305123 0.9927419
0.99231166 0.99398905 0.9915927 0.9931147 0.99193835 0.994027 0.9937495 0.99153155
0.9933297 0.9960659 0.9914333 0.9916968 0.99340355 0.9939344 0.9930349 0.9930312
0.9925157 0.99226874 0.9925376 0.99366814 0.99232215 0.9922992 0.9961043 0.9927252
0.9932838 0.99213475 0.9935808 0.9914064 0.9934535 0.99261945 0.99585694 0.9950584
0.9922114 0.9940431 0.99275845 0.99235094
00000000: 7912 7e3f 394d 7e3f 2860 7e3f b3f5 7d3f
00000010: cf44 7e3f 5afb 7d3f 1f23 7e3f 2736 7e3f
00000020: 8d50 7e3f cf3c 7e3f 1c94 7e3f 10ed 7d3f
00000030: 752b 7e3f 589b 7e3f 4e1a 7e3f 6051 7e3f
00000040: 4c76 7e3f ea21 7f3f 5e32 7e3f d245 7e3f
00000050: 7a03 7e3f 0c67 7e3f 80cb 7e3f 2327 7e3f
00000060: 3c7e 7e3f e8f9 7d3f 21a5 7e3f 1285 7e3f
00000070: 1b9b 7e3f 3b2f 7e3f fd61 7e3f bac9 7e3f
00000080: b40c 7f3f 8b19 7e3f bb11 7e3f 2967 7e3f
00000090: 5f48 7e3f 4ae9 7e3f ef47 7e3f 5f2e 7e3f
000000a0: 86b9 7e3f 8245 7e3f d324 7e3f b002 7e3f
000000b0: b258 7d3f 123d 7e3f a544 7e3f 81e0 7d3f
000000c0: c62b 7e3f fed3 7d3f e5e5 7d3f ad26 7e3f
000000d0: e258 7e3f 4641 7e3f 9540 7e3f 7f77 7e3f
000000e0: c201 7e3f c045 7e3f 1a1b 7e3f 2008 7e3f
000000f0: 29e3 7d3f ed24 7e3f 9b38 7e3f 5524 7e3f
00000100: 2308 7e3f 1176 7e3f 05d9 7d3f c43c 7e3f
00000110: acef 7d3f 8e78 7e3f 5e66 7e3f 03d5 7d3f
00000120: db4a 7e3f 2dfe 7e3f 93ce 7d3f d7df 7d3f
00000130: b24f 7e3f 7c72 7e3f 8937 7e3f 4b37 7e3f
00000140: 8215 7e3f 5305 7e3f f216 7e3f 0961 7e3f
00000150: d308 7e3f 5207 7e3f b100 7f3f 3d23 7e3f
00000160: d947 7e3f 8bfc 7d3f 505b 7e3f cfcc 7d3f
00000170: f852 7e3f 4f1c 7e3f 7bf0 7e3f 26bc 7e3f
00000180: 9101 7e3f 9c79 7e3f 6b25 7e3f b60a 7e3f

ln1.bias f4 [100]
-0.0004664703 0.00092094904 -7.095152e-05 -0.0017924752 -0.0005140237 -0.0008127645 -0.0002487874 -0.00020534164
0.00094973616 -0.00025189272 0.0011452954 -0.0007321134 -0.000562878 0.00035126985 -0.00039823068 0.00090805575
0.001001106 0.00019971527 -0.00013264667 0.00023457248 -0.00029543787 2.912806e-05 0.0011418293 -7.43538e-05
-0.00041841282 -0.0009996499 0.0018453288 0.00017677408 0.001735847 -0.0011863147 0.00013940461 4.1464064e-05
0.0021963501 -0.0014369068 -0.0013406588 -0.00043874525 0.00022591106 -0.0013435129 0.00080683915 -0.00041044166
0.00016321204 -0.0006191043 -0.0009661915 -0.00036468724 -0.0014188944 -0.0005255588 -0.00061084237 -0.0014566958
-0.0008438793 -0.000867053 -0.0017797644 -0.00021471136 5.0542953e-05 0.00095143734 -0.00041058724 0.0012296194
-0.0014518567 -0.0002782323 -0.00038272192 -0.0017566114 -0.0021024407 -0.0013965569 0.00031890968 -0.00038572602
-0.0011428572 0.0010814412 -0.001595137 -0.00048278054 -0.0012790025 -0.00014370392 0.0009128498 -0.0014201374
-0.0014816752 0.0019127982 -0.0024235495 -0.0014433303 0.00056857575 0.00049635925 0.0003595683 0.0005165923
-0.00080955855 -0.00041358356 -0.0009076508 -0.001551514 -0.0013843479 -0.00067635166 0.0029932843 -0.0010112152
-0.0016904422 -0.0015319516 -0.000100389334 -0.003032782 0.0008153516 -0.00092725817 0.0016506288 0.0017070723
-0.0012544881 -0.00017371673 -0.0020356958 -0.0006457376
00000000: 9590 f4b9 d86b 713a cfcb 94b8 7df1 eaba
00000010: 8cbf 06ba b40f 55ba ae6f 82b9 fa50 57b9
00000020: b7f7 783a 7810 84b9 bd1d 963a 4ceb 3fba
00000030: 1a8e 13ba a42a b839 9ec9 d0b9 970a 6e3a
00000040: 8b37 833a a96a 5139 1217 0bb9 92f7 7539
00000050: 00e5 9ab9 0858 f437 6fa9 953a 64ee 9bb8
00000060: 6b5e dbb9 af06 83ba f6de f13a 6e5c 3939
00000070: 5c85 e33a 1e7e 9bba 242d 1239 b3e9 2d38
00000080: a4f0 0f3b 9756 bcba 0bb9 afba 6407 e6b9
00000090: 8ae2 6c39 d018 b0ba 0f82 533a 8c30 d7b9
000000a0: e623 2b39 634b 22ba 0448 7dba 7e33 bfb9
000000b0: 32fa b9ba a7c5 09ba f020 20ba 9aee beba
000000c0: c837 5dba f14a 63ba fc46 e9ba 2424 61b9
000000d0: 15fe 5338 e169 793a 1644 d7b9 2e2b a13a
000000e0: 3a4c beba b5df 91b9 11a8 c8b9 193e e6ba
000000f0: 1ac9 09bb ac0c b7ba 5533 a739 453b cab9
00000100: edcb 95ba 25bf 8d3a ea13 d1ba b51d fdb9
00000110: 34a4 a7ba 3aaf 16b9 504c 6f3a e723 baba
00000120: c534 c2ba dbb6 fa3a 6ad4 1ebb 212e bdba
00000130: 790c 153a 1b1e 023a 7184 bc39 ec6b 073a
00000140: 8e38 54ba 3fd6 d8b9 6aef 6dba 2c5c cbba
00000150: 0273 b5ba 314d 31ba fa2a 443b c08a 84ba
00000160: d491 ddba c4cb c8ba 1d88 d2b8 a4c1 46bb
00000170: 52bd 553a 3e13 73ba e959 d83a d7bf df3a
00000180: a36d a4ba bb27 36b9 4f69 05bb b746 29ba

fc2.weight f4 [50, 100]
0.023178877 -0.09521918 -0.016369399 -0.06795168 -0.11123171 -0.037414953 0.10642346 -0.11826826
-0.21823876 0.01733568 -0.1417421 0.15157688 0.02235768 0.14955106 -0.04940256 0.22418873
-0.06362623 -0.02980644 -0.006755308 -0.1848342 0.08869358 0.0029476327 0.046109743 -0.20480874
-0.013048935 -0.05561295 -0.05021634 0.14169258 0.15144739 0.043609075 -0.123037495 0.07587843
0.02985412 0.304305 0.010820386 -0.014858921 -0.061240237 0.0534212 0.0650905 -0.042297874
0.08175076 0.10108 0.12073117 -0.0168368 -0.0469135 -0.12905668 -0.111728445 0.0068839253
-0.02537522 0.00030283578 0.006106752 0.22835928 -0.005162918 -0.017344056 0.008415427 -0.08990656
0.1363372 -0.060047764 0.07431811 -0.07219653 0.01613037 0.036376823 0.16930054 0.0056659807
-0.1084565 -0.031309564 -0.093301974 -0.17056125 0.19404788 -0.030390808 -0.18859743 0.112990744
-0.07938648 -0.109152794 0.08332982 0.034689613 0.06322629 0.06329582 -0.021628551 -0.007558332
-0.1118783 0.0035698912 -0.032001805 0.11888887 0.050879892 -0.0073860628 0.2337993 -0.044753015
0.09466016 -0.10827616 0.07556596 0.09211027 0.051359605 -0.03287155 -0.059982266 -0.05878876
0.036554694 0.14950855 0.061878715 0.016406056 -0.019930197 0.1295225 -0.070802696 -0.16173418
-0.10830571 -0.14165553 0.12826227 -0.12391797 0.025827598 0.17352347 0.1949136 0.20417894
0.0324501 0.043918613 -0.0045099505 -0.14932668 0.042862233 0.029638946 -0.05576489 -0.13645741
0.03246454 0.0024550762 0.12606154 -0.12164829 -0.018444307 -0.061246883 -0.0027857886 -0.15289415
0.043038875 -0.0064706607 -0.058590747 -0.027174393 0.08246273 0.08229812 -0.063997366 -0.11707576
-0.04875131 -0.16432993 -0.07419498 -0.054304764 -0.1105666 0.094980635 -0.17158969 -0.00079875323
0.1274112 -0.06884578 0.15555957 0.09352317 -0.17224887 0.012590246 0.12214223 0.090401836
-0.027659481 -0.28292012 0.034074333 -0.1007504 0.022000719 -0.09717149 0.11354629 -0.020920994
0.1749369 0.15726715 0.12480169 -0.053557962 -0.066664666 -0.111399636 -0.1212764 0.032712307
-0.21751058 0.19659916 0.10887799 -0.13335498 -0.013805838 0.0974226 0.07623629 -0.14309655
-0.03224609 -0.06729108 0.13189813 0.030633423 -0.004085548 -0.027159246 0.14031187 0.07803738
0.022666385 0.13328098 -0.22019163 0.018073002 -0.031837378 -0.057645127 -0.12798864 -0.028958702
-0.03085503 0.03279998 0.004199855 0.031867366 0.239861 0.17698002 0.004363247 0.21525705
-0.008607836 0.12538925 0.0132382205 -0.14815168 -0.014367343 -0.033237908 -0.0073303306 0.25161058
0.13686872 0.0151311755 0.07967436 -0.04552214 -0.0448867 0.015906757 0.050152622 -0.089051515
-0.08576401 -0.14017496 0.047034115 -0.17562443 -0.041632604 0.09931388 0.08359217 0.014945559
0.21438429 0.016619284 0.053999342 -0.09254099 -0.11116333 0.006130586 0.009291187 -0.11222238
-0.08906948 -0.07102784 -0.010098832 -0.03958282 -0.04248068 -0.23580456 0.111684576 -0.09851051
0.28016406 -0.07108237 -0.058632527 -0.055508167 -0.12758651 -0.08000543 -0.07140273 0.06493137
-0.042735 0.0072622355 -0.1250088 -0.074948125 0.09160867 0.22623813 -0.1100021 0.086908996
00000000: a1e1 bd3c 4602 c3bd 1e19 86bc 402a 8bbd
00000010: 73cd e3bd 6c40 19bd 8bf4 d93d a136 f2bd
00000020: fb79 5fbe 8e03 8e3c d724 11be f836 1b3e
00000030: 7427 b73c ea23 193e 575a 4abd bb91 653e
00000040: 784e 82bd a32c f4bc a15b ddbb 2d45 3dbe
00000050: fba4 b53d 122d 413b 92dd 3c3d 62b9 51be
00000060: 33cb 55bc 68ca 63bd a6af 4dbd dc17 113e
00000070: 0615 1b3e 6e9f 323d 15fb fbbd 2666 9b3d
00000080: a190 f43c ddcd 9b3e fd47 313c d572 73bc
00000090: 0bd7 7abd 30d0 5a3d 2b4e 853d 8940 2dbd
000000a0: f16c a73d 0803 cf3d e741 f73d 54ed 89bc
000000b0: 5f28 40bd 6f27 04be e2d1 e4bd 8d92 e13b
000000c0: b2df cfbc eec5 9e39 261b c83b 04d7 693e
000000d0: b22d a9bb 1f15 8ebc dce0 093c ee20 b8bd
000000e0: fb9b 0b3e a5f4 75bd 1834 983d c6db 93bd
000000f0: d623 843c ddff 143d 1f5d 2d3e b1a9 b93b
00000100: 711e debd 753e 00bd 1b15 bfbd 9ca7 2ebe
00000110: 7db4 463e 25f6 f8bc af1f 41be b167 e73d
00000120: 6195 a2bd 808b dfbd d3a8 aa3d b216 0e3d
00000130: c97c 813d 3da1 813d 5c2e b1bc e2ab f7bb
00000140: 7320 e5bd d6f4 693b 5314 03bd 027c f33d
00000150: 6f67 503d c906 f2bb 1569 6f3e f04e 37bd
00000160: 30dd c13d e4bf ddbd 53c2 9a3d 4fa4 bc3d
00000170: 735e 523d 52a4 06bd f7af 75bd 7ccc 70bd
00000180: 60ba 153d c518 193e 8974 7d3d fe65 863c
00000190: a744 a3bc 8ca1 043e 0101 91bd a59d 25be
000001a0: 62cf ddbd 260e 11be 2f57 033e b4c8 fdbd
000001b0: 6694 d33c 23b0 313e 6e97 473e 4914 513e
000001c0: 65ea 043d 01e4 333d 35c8 93bb 18e9 18be
000001d0: 4f90 2f3d 60cd f23c ba69 64bd 7ebb 0bbe
000001e0: 8af9 043d 58e5 203b 4716 013e bd22 f9bd
000001f0: 8418 97bc 03de 7abd c791 36bb 4990 1cbe
00000200: 8849 303d d607 d4bb dafc 6fbd d59c debc
00000210: 38e2 a83d eb8b a83d 0d11 83bd 6bc5 efbd
00000220: 74af 47bd 1b46 28be 8af3 97bd ac6e 5ebd
00000230: be70 e2bd 3585 c23d 35b5 2fbe 6c63 51ba
00000240: 1578 023e 04ff 8cbd 024b 1f3e 1389 bf3d
00000250: 0262 30be 5247 4e3c b525 fa3d 9924 b93d
00000260: 2396 e2bc e8da 90be 8791 0b3d 3a56 cebd
00000270: da3a b43c d901 c7bd f58a e83d 8162 abbc
00000280: a922 333e a40a 213e 0798 ff3d 985f 5bbd
00000290: 7c87 88bd 7e25 e4bd c35f f8bd 57fd 053d
000002a0: 18bb 5ebe 4a51 493e 6cfb de3d 358e 08be
000002b0: e231 62bc 8085 c73d c621 9c3d e787 12be
000002c0: 7a14 04bd e8cf 89bd 4e10 073e f2f2 fa3c
000002d0: 10e0 85bb 117d debc eaad 0f3e 10d2 9f3d
000002e0: dbae b93c cf7a 083e ea79 61be d50d 943c
000002f0: e967 02bd 4c1d 6cbd 740f 03be cd3a edbc
00000300: b0c3 fcbc 4659 063d f09e 893b 5b87 023d
00000310: 1f9e 753e 403a 353e 92f9 8e3b 586c 5c3e
00000320: e207 0dbc 0a66 003e 1fe5 583c 13b5 17be
00000330: 0165 6bbc 7924 08bd 4533 f0bb 1ad3 803e
00000340: 5027 0c3e c0e8 773c 502c a33d 6c75 3abd
00000350: 1edb 37bd e34e 823c d66c 4d3d a460 b6bd
00000360: 0ba5 afbd 068a 0fbe d8a6 403d e4d6 33be
00000370: f386 2abd 1365 cb3d 5f32 ab3d 38de 743c
00000380: 8e87 5b3e 2a25 883c 6a2e 5d3d 2186 bdbd
00000390: 9aa9 e3bd 15e3 c83b 103a 183c d9d4 e5bd
000003a0: 0f6a b6bd 0b77 91bd 9275 25bc 9821 22bd
000003b0: 3900 2ebd c076 71be e2ba e43d e1bf c9bd
000003c0: aa71 8f3e a293 91bd a928 70bd 885c 63bd
000003d0: 0aa6 02be e3d9 a3bd 983b 92bd bdfa 843d
000003e0: e50a 2fbd 0cf8 ed3b 4f02 00be 677e 99bd
000003f0: 549d bb3d f8aa 673e c848 e1bd 58fd b13d

fc2.bias f4 [50]
-0.00074207387 0.00055347465 0.0043353913 -0.0040038866 0.0008234543 -0.00016352185 0.0009641852 -0.0010247396
-0.0014213576 0.0012692405 -0.00019150684 -0.0008693405 -0.00025825782 0.00029625584 -0.0015958493 0.0022015225
-0.0010543936 -0.0007445106 -0.0010302683 0.0021964172 -0.00026706667 -0.00072151684 0.0013965326 -0.00018627128
0.0012405723 0.00065719255 0.0005303516 -0.0033130501 0.00021577641 0.00090363424 -0.0022858987 -0.0009044022
0.0031606667 -0.0010440124 -0.00018634525 0.0008031713 -0.0002640736 -0.0008492433 4.707916e-05 -0.0016604522
0.00019376162 0.00038478573 0.0021946195 -0.0018189423 0.00020493126 -0.0014528435 0.00076742773 -9.972672e-05
0.0033465158 -0.00053341174
00000000: bc87 42ba 0e17 113a e60f 8e3b 0933 83bb
00000010: 15dd 573a 1077 2bb9 60c1 7c3a 8e50 86ba
00000020: d94c baba a55c a63a 3acf 48b9 74e4 63ba
00000030: c766 87b9 c952 9b39 d12b d1ba 6b47 103b
00000040: 9433 8aba 432b 43ba 110a 87ba c4f1 0f3b
00000050: 1505 8cb9 2d24 3dba dc0b b73a d151 43b9
00000060: b39a a23a 7247 2c3a 4b07 0b3a c21f 59bb
00000070: 0a42 6239 dee1 6c3a 04cf 15bb 6715 6dba
00000080: 3023 4f3b 3ed7 88ba ac65 43b9 ea8b 523a
00000090: 5c73 8ab9 c19f 5eba dd76 4538 88a3 d9ba
000000a0: 7d2c 4b39 11bd c939 9bd3 0f3b 9369 eeba
000000b0: d1e2 5639 576d beba 342d 493a 6024 d1b8
000000c0: 3851 5b3b a8d4 0bba

ln2.weight f4 [50]
0.993119 0.99296093 0.99412405 0.9911145 0.99336255 0.9942843 0.9941205 0.99331033
0.9931033 0.99223495 0.9922292 0.9930289 0.99377453 0.9936013 0.9975934 0.993943
0.9937755 0.99321836 0.993127 0.9931813 0.9922965 0.9930198 0.9950705 0.99277693
0.9933633 0.99291086 1.0094243 0.99105185 0.99297583 0.9965257 0.9913397 0.9928944
0.99927515 0.99204516 0.9914217 0.9933673 0.99286777 0.9937851 0.9930012 0.99228334
0.99267054 0.9949548 0.9931147 0.9918683 0.99336326 0.9933673 0.992203 0.99311393
0.9991347 0.9927774
00000000: 0c3d 7e3f b032 7e3f ea7e 7e3f aeb9 7d3f
00000010: 024d 7e3f 6a89 7e3f ae7e 7e3f 9649 7e3f
00000020: 053c 7e3f 1c03 7e3f bc02 7e3f 2437 7e3f
00000030: 0268 7e3f a85c 7e3f 4862 7f3f 0c73 7e3f
00000040: 1268 7e3f 8f43 7e3f 923d 7e3f 2141 7e3f
00000050: 2507 7e3f 8c36 7e3f f1bc 7e3f a126 7e3f
00000060: 0f4d 7e3f 682f 7e3f d134 813f 93b5 7d3f
00000070: aa33 7e3f 4f1c 7f3f 70c8 7d3f 542e 7e3f
00000080: 7fd0 7f3f acf6 7d3f d0cd 7d3f 524d 7e3f
00000090: 952c 7e3f b368 7e3f 5435 7e3f 4806 7e3f
000000a0: a81f 7e3f 5cb5 7e3f c43c 7e3f 15eb 7d3f
000000b0: 0e4d 7e3f 524d 7e3f 0401 7e3f b73c 7e3f
000000c0: 4bc7 7f3f a926 7e3f

ln2.bias f4 [50]
-0.00033492054 0.00035345432 0.0018401411 -0.0022170946 0.00037913947 4.8054895e-05 0.0006621557 -0.00073180057
-0.00077912974 0.00050122075 -0.00022960016 -0.00031292162 -0.00047808708 0.00052727904 -0.0013889123 0.0009425973
-0.00015100618 -0.0005495266 -0.00031560916 0.00093029643 -0.0003273152 -0.0002530075 0.00027988735 -0.00036038936
0.00040920207 -0.00029882224 0.0006350218 -0.0013420023 -0.00035321183 0.0005229382 -0.0010970926 -0.0002667292
0.0024231893 -0.0008458023 -0.00043776075 0.00024666538 -3.4305114e-05 0.0003973714 -0.00030874918 -0.0011082414
-0.0007738744 0.0007088252 0.0013598857 -0.001853569 -5.0160328e-05 -0.00039382104 -7.681919e-05 -0.00012262425
0.0017866582 -0.0010291878
00000000: 4698 afb9 d64f b939 e430 f13a ad4c 11bb
00000010: 3dc7 c639 8d8e 4938 8494 2d3a 4ed6 3fba
00000020: 833e 4cba 5b64 033a d3c0 70b9 a10f a4b9
00000030: c3a7 fab9 1939 0a3a 2a0c b6ba a218 773a
00000040: 6a57 1eb9 1b0e 10ba 5878 a5b9 23df 733a
00000050: 819b abb9 18a6 84b9 d8bd 9239 a4f2 bcb9
00000060: 2c8a d639 3eab 9cb9 9777 263a 20e6 afba
00000070: 4a2f b9b9 ca15 093a 52cc 8fba cad7 8bb9
00000080: 5fce 1e3b d5b8 5dba 4183 e5b9 de52 8139
00000090: d6e2 0fb8 4956 d039 9ddf a1b9 6942 91ba
000000a0: d5dd 4aba 74d0 393a 313e b23a 74f3 f2ba
000000b0: 3e63 52b8 c479 ceb9 fd19 a1b8 b294 00b9
000000c0: 4d2e ea3a d0e5 86ba
