Source_combined/ckps/seizure/source/Except_S20_sort/source_F.pt (torch, 557199 bytes, 8 tensors)

fc1.weight f4 [100, 1332]
-0.024460156 -0.019491056 0.011810105 0.008006628 -0.026004918 -0.03490623 -0.02722832 0.010398675
0.0074108574 -0.029704222 -0.01784513 0.013400717 0.003892838 0.018449668 0.014084287 -0.010248632
-0.021727225 0.009498389 0.018585945 0.00953515 0.009674047 -0.0074703665 -0.007859819 -0.0072423974
-0.021329101 0.00019281215 0.0033354273 -0.017643169 0.002874536 -0.014469582 -0.022847123 0.01324956
-0.023643525 0.0021089679 -0.0023222049 -0.017906064 -0.003378068 -0.0067190863 0.0077180336 -0.011709264
0.0033245853 0.0007655406 0.013688267 -0.0070377938 -0.009065043 0.0071487315 0.04936671 0.023343924
-0.0028102496 -0.0207608 -0.00878655 -0.02219767 -0.021917868 -0.042771142 -0.017623765 0.010162852
0.030898582 0.01421453 0.0020873789 -0.035135064 0.02146685 0.012292224 0.017888974 0.01792884
0.02284054 -0.01572284 0.03478796 -0.008427253 0.02527291 -0.0009532934 0.0053237765 -0.021744652
0.008388749 0.0100406185 0.015827978 0.004742749 -0.0070417803 0.019393537 -0.0015051948 -0.018173927
0.03758231 0.012664911 -0.0035757981 -0.010153039 0.0039038223 -0.010711319 -0.007202335 0.0013466296
0.0052121626 -0.027920194 -0.0008782332 0.00067508046 -0.01706681 0.010004622 0.010664319 -0.018670494
0.0069948146 0.021916553 0.006912901 0.016355352 -0.0138392495 -0.009666469 -0.006850272 -0.013175528
0.023643397 -0.0032401169 -0.01827029 -0.0072856634 -0.01151553 0.02088697 0.017446134 -0.00464327
-0.0253962 -0.023911165 -0.0056548156 -0.017178686 0.0044224234 -0.0074081467 0.013948037 -0.037963312
0.0021601147 0.0058411295 0.002884781 0.008546456 -0.009935262 0.019886322 -0.0011093915 -0.03457992
-0.02844146 0.002238329 0.032553244 -0.01651848 0.0077053593 -0.011998051 -0.0028798797 0.02878286
0.034439996 0.0030233564 0.019758519 -0.008331866 0.022345953 0.024372933 0.0060462486 -0.0133817205
0.034617517 0.00523471 -0.011758835 -0.0051631564 -0.021222943 0.011313485 -0.027045764 -0.018828597
-0.010993353 -0.019452212 -0.005418076 0.008466046 -0.007652198 0.017840121 -0.027201049 -0.0040515293
0.0139645105 0.0053904555 0.0041318713 -0.004936821 0.013056394 0.006792505 -0.031536248 -0.0014555363
-0.011272453 0.034620497 -0.017704722 0.020295229 -0.021627834 -0.001047898 -0.015038913 -0.015399392
-0.017439831 0.01822663 0.016383091 0.0043202722 -0.010934025 0.02500122 -0.0054482277 0.008398682
0.023845533 0.012651604 -0.0067007947 -0.01826622 0.0033981751 0.02361582 -0.01993352 0.0005722588
-0.011857521 -0.0071017686 0.0034529734 0.0013134436 0.019096063 0.012628754 0.0064620133 -0.019762214
-0.027805597 -0.018790854 -0.0029963457 0.0015143492 0.015886765 0.0028293824 -0.032106373 0.00904725
0.0011313832 -0.020620093 0.014508856 0.016384678 -0.025659801 -0.013997898 0.008335407 -0.02100787
0.0034534207 -0.009752034 0.0022917148 0.0065495158 -0.017884076 -0.0015416164 -0.0138899945 0.023312517
0.02574025 -0.016831398 0.0050678295 -0.006816877 0.007301945 0.024616 -0.010698069 0.04651427
0.026381075 0.023996254 -0.027426394 -0.014393017 -0.004229131 0.00792479 0.00523647 -0.016062234
-0.014951013 0.01753134 -0.021579638 0.008960774 0.014922563 0.024445448 -0.0025451938 0.0019195135
0.017852392 0.0046896804 -0.006749807 0.009478299 -0.0020820934 -0.018119037 -0.013420594 0.020672835
00000000: aa60 c8bc b5ab 9fbc 2c7f 413c 3b2e 033c
00000010: 4408 d5bc d6f9 0ebd ed0d dfbc 345f 2a3c
00000020: c7d6 f23b 4556 f3bc f32f 92bc ae8e 5b3c
00000030: fc1e 7f3b c223 973c c8c1 663c e1e9 27bc
00000040: 4bfd b1bc 229f 1b3c 8d41 983c 5139 1c3c
00000050: e57f 1e3c fac9 f4bb 78c6 00bc a251 edbb
00000060: 5eba aebc 9e2d 4a39 2f97 5a3b 6888 90bc
00000070: b662 3c3b d311 6dbc e429 bbbc af14 593c
00000080: 11b0 c1bc 9c36 0a3b 2230 18bb bdaf 92bc
00000090: 9462 5dbb c82b dcbb 8fe7 fc3b 36d8 3fbc
000000a0: 49e1 593b 8fae 483a c144 603c 4b9d e6bb
000000b0: 8c85 14bc e83f ea3b bf34 4a3d c23b bf3c
000000c0: 2a2c 38bb 8e12 aabc 76f5 0fbc e3d7 b5bc
000000d0: 1a8d b3bc cb30 2fbd b75f 90bc 1782 263c
000000e0: 061f fd3c 0fe4 683c 68cc 083b c9e9 0fbd
000000f0: 3fdb af3c 5365 493c e68b 923c 81df 923c
00000100: 161c bb3c 2fcd 80bc d27d 0e3d 7612 0abc
00000110: 2209 cf3c 70e6 79ba 1373 ae3b d721 b2bc
00000120: f770 093c 6881 243c ada9 813c 1069 9b3b
00000130: bcbe e6bb 32df 9e3c f549 c5ba 7de1 94bc
00000140: e9ef 193d 7d80 4f3c f057 6abb ef58 26bc
00000150: 45d7 7f3b 877e 2fbc 9101 ecbb 6481 b03a
00000160: caca aa3b e4b8 e4bc 3b39 66ba e2f7 303a
00000170: b2cf 8bbc 6dea 233c 65b9 2e3c ddf2 98bc
00000180: c234 e53b 588a b33c 9e85 e23b a9fb 853c
00000190: 05be 62bc 1c60 1ebc 3f78 e0bb 2bde 57bc
000001a0: ccaf c13c 2458 54bb 93ab 95bc 93bc eebb
000001b0: a2ab 3cbc 271b ab3c 32eb 8e3c 9226 98bb
000001c0: b10b d0bc 59e1 c3bc 084c b9bb 51ba 8cbc
000001d0: fae9 903b 0ac0 f2bb 4f86 643c 6b7f 1bbd
000001e0: b690 0d3b f266 bf3b 980e 3d3b 6f06 0c3c
000001f0: 82c7 22bc a4e8 a23c 0069 91ba ada3 0dbd
00000200: 11fe e8bc eeb0 123b 8d56 053d c351 87bc
00000210: 3d7d fc3b 7993 44bc 5dbc 3cbb 08ca eb3c
00000220: f410 0d3d 8123 463b 9edc a13c 6182 08bc
00000230: dc0e b73c bfa9 c73c 9c1f c63b 013f 5bbc
00000240: 19cb 0d3d ee87 ab3b 21a8 40bc b22f a9bb
00000250: bddb adbc 325c 393c 148f ddbc 6e3e 9abc
00000260: 771d 34bc 3f5a 9fbc 1e8a b1bb 2cb5 0a3c
00000270: 4abf fabb 7225 923c bcd4 debc b1c2 84bb
00000280: 67cb 643c 6ba2 b03b a664 873b 0ec5 a1bb
00000290: 7cea 553c a993 de3b 272c 01bd b2c7 beba
000002a0: 18b0 38bc 39ce 0d3d 7e09 91bc 2e42 a63c
000002b0: db2c b1bc 9f59 89ba c665 76bc bb4d 7cbc
000002c0: fadd 8ebc 0350 953c d535 863c 1291 8d3b
000002d0: a024 33bc 5ccf cc3c 0c87 b2bb a09a 093c
000002e0: b557 c33c ac48 4f3c 5792 dbbb 0aa3 95bc
000002f0: ebb3 5e3b f775 c13c 9f4b a3bc a303 163a
00000300: 0c46 42bc f4b5 e8bb 484b 623b db27 ac3a
00000310: 596f 9c3c d5e8 4e3c 4cbf d33b 5ee4 a1bc
00000320: 90c8 e3bc 47ef 99bc 575e 44bb 217d c63a
00000330: f624 823c 296d 393b f981 03bd eb3a 143c
00000340: ec4a 943a 78eb a8bc 8eb6 6d3c 2939 863c
00000350: 8134 d2bc 7157 65bc 3b91 083c b218 acbc
00000360: c952 623b ffc6 1fbc 9830 163b 529d d63b
00000370: a081 92bc 1010 caba dc92 63bc e4f9 be3c
00000380: 37dd d23c 00e2 89bc 0910 a63b 1c60 dfbb
00000390: 2745 ef3b 7ea7 c93c f446 2fbc bf85 3e3d
000003a0: 201d d83c cb93 c43c 51ad e0bc b0d0 6bbc
000003b0: 8694 8abb fad6 013c b296 ab3b f294 83bc
000003c0: 18f5 74bc e29d 8f3c c8c7 b0bc 36d0 123c
000003d0: c47d 743c d241 c83c 44cd 26bb 2f98 fb3a
000003e0: 2e3f 923c e4ab 993b 7c2d ddbb de4a 1b3c
000003f0: bb73 08bb 606e 94bc 0de2 5bbc 145a a93c

fc1.bias f4 [100]
-0.047320902 0.013786199 -0.013261462 3.461489e-05 -0.024613392 -0.022840524 0.023744645 0.0058088596
-0.03108326 0.0018657915 0.013935642 0.021608062 -0.011731214 0.003574008 -0.0029814292 0.00035001044
-0.0057669156 0.00097617117 0.0005556799 -0.006348706 -0.023156947 -0.024921173 -0.030346137 0.016737508
-0.0271852 -0.01547071 0.0012328041 0.0013486212 0.014848836 -0.0076627685 -0.02388376 0.02638715
-0.0043149022 0.0037145098 0.0011460973 0.024895983 0.01594285 -0.036668908 -0.019474633 0.024745654
0.023822125 0.0024056823 0.03735689 0.04808716 0.007242958 0.0011304468 0.007573292 -0.011983653
0.032711487 -0.014681269 -0.00530429 -0.0036587387 0.019458633 -0.02924564 -0.0051614204 0.0217148
-0.042851932 -0.032066792 0.0035275517 0.0015107163 0.0142327845 0.016830277 0.006011994 0.02001616
-0.009070302 -0.024532005 0.028935699 -0.030870935 0.019137152 0.019452147 0.019124389 0.019181896
0.005214801 -0.008582451 -0.0015964668 0.008269085 -0.014232881 0.0003387518 0.007039169 0.0058631618
0.017487075 0.024454935 0.0038164076 -0.004555515 -0.022608358 0.0034341528 -0.018116215 0.009187368
-0.00078617386 -0.01181954 -0.034748737 0.026842114 -0.03595511 0.012212155 -0.013145556 -0.0015784386
-0.027802616 0.016078532 0.02070975 0.017555747
00000000: 90d3 41bd 82df 613c 9a46 59bc 752f 1138
00000010: 06a2 c9bc 0d1c bbbc 2184 c23c 3f58 be3b
00000020: 52a2 febc 938d f43a 5252 643c 6403 b13c
00000030: 4734 40bc e739 6a3b 1564 43bb 9b81 b739
00000040: 65f8 bcbb bde5 7f3a 0cab 113a ce08 d0bb
00000050: a3b3 bdbc 7d27 ccbc 7698 f8bc 191d 893c
00000060: 7fb3 debc dc78 7dbc 0b96 a13a 38c4 b03a
00000070: 8848 733c f617 fbbb e0a7 c3bc dd29 d83c
00000080: 0664 8dbb 226f 733b a538 963a a9f2 cb3c
00000090: 949a 823c 2332 16bd 4489 9fbc 66b7 ca3c
000000a0: 9e26 c33c a7a8 1d3b 8a03 193d 0bf7 443d
000000b0: 5656 ed3b 802b 943a 6129 f83b 1557 44bc
000000c0: 7bfc 053d b589 70bc 9ccf adbb 73c7 6fbb
000000d0: b667 9f3c 8d94 efbc 2221 a9bb 3ce3 b13c
000000e0: 8285 2fbd 7858 03bd 7f2e 673b 3a03 c63a
000000f0: a030 693c a6df 893c 4300 c53b eef8 a33c
00000100: 9b9b 14bc 58f7 c8bc 8f0a ed3c 0be5 fcbc
00000110: 84c5 9c3c 1c5a 9f3c c0aa 9c3c 5a23 9d3c
00000120: ece0 aa3b 699d 0cbc 8940 d1ba 0e7b 073c
00000130: 0831 69bc 7f9a b139 d4a8 e63b c41f c03b
00000140: 0e41 8f3c b755 c83c b21c 7a3b 6e46 95bb
00000150: 2a35 b9bc 860f 613b 7568 94bc 9d86 163c
00000160: 3c17 4eba bea6 41bc b154 0ebd fee3 db3c
00000170: aa45 13bd 7e15 483c 7560 57bc 9ce3 ceba
00000180: 50c2 e3bc 20b7 833c 7ea7 a93c 12d1 8f3c

ln1.weight f4 [100]
0.9281422 0.9293325 0.92463094 0.9222725 0.91279733 0.9202758 0.8930464 0.91990435
0.9265726 0.92102736 0.9270205 0.9146189 0.92819816 0.9297525 0.93030906 0.9227218
0.92543423 0.91830367 0.92205185 0.9214437 0.91521263 0.9036781 0.92339593 0.9220158
0.93095595 0.91586417 0.92436 0.9281431 0.9179339 0.9208803 0.9297591 0.9192318
0.9182405 0.92929953 0.9207471 0.92561233 0.9198659 0.93772316 0.92705554 0.94568145
0.9452437 0.923666 0.9209735 0.9223055 0.92719144 0.9205482 0.92435163 0.92771643
0.9199562 0.9226301 0.9298569 0.9192455 0.9175067 0.9146514 0.92441386 0.92281306
0.92596966 0.9246315 0.93159974 0.9214692 0.92383885 0.9274449 0.92666835 0.92466
0.9133688 0.93194103 0.92654747 0.94614804 0.92031753 0.9212651 0.91812927 0.92593366
0.915688 0.925743 0.9218578 0.9252451 0.9153757 0.919325 0.91806155 0.9264083
0.91838986 0.93231034 0.9235286 0.9277194 0.9186232 0.9230855 0.92062813 0.9210751
0.926726 0.9261416 0.9327773 0.9191747 0.9252958 0.9153887 0.9268342 0.9110675
0.92569 0.92324895 0.92395264 0.9246444
00000000: ba9a 6d3f bce8 6d3f 9db4 6c3f 0d1a 6c3f
00000010: 16ad 693f 3297 6b3f b09e 643f da7e 6b3f
00000020: dd33 6d3f 73c8 6b3f 3751 6d3f 7724 6a3f
00000030: 659e 6d3f 4304 6e3f bc28 6e3f 7f37 6c3f
00000040: 42e9 6c3f f315 6b3f 970b 6c3f bce3 6b3f
00000050: 604b 6a3f 7357 673f ad63 6c3f 3a09 6c3f
00000060: 2153 6e3f 1376 6a3f dba2 6c3f c99a 6d3f
00000070: b7fd 6a3f d0be 6b3f b104 6e3f c652 6b3f
00000080: cf11 6b3f 93e6 6d3f 15b6 6b3f eef4 6c3f
00000090: 557c 6b3f a00e 703f 8353 6d3f 2e18 723f
000000a0: 7efb 713f 6075 6c3f ebc4 6b3f 371c 6c3f
000000b0: 6b5c 6d3f 0ca9 6b3f 4fa2 6c3f d37e 6d3f
000000c0: 4082 6b3f 7c31 6c3f 1a0b 6e3f ac53 6b3f
000000d0: b8e1 6a3f 9826 6a3f 63a6 6c3f 7a3d 6c3f
000000e0: 590c 6d3f a6b4 6c3f 527d 6e3f 68e5 6b3f
000000f0: b480 6c3f 076d 6d3f 233a 6d3f 85b6 6c3f
00000100: 8ad2 693f b093 6e3f 3732 6d3f c236 723f
00000110: ee99 6b3f 08d8 6b3f 850a 6b3f fd09 6d3f
00000120: 876a 6a3f 7efd 6c3f dffe 6b3f dddc 6c3f
00000130: 1056 6a3f e258 6b3f 1506 6b3f 1829 6d3f
00000140: 991b 6b3f e4ab 6e3f 5f6c 6c3f 057f 6d3f
00000150: e42a 6b3f 554f 6c3f 49ae 6b3f 94cb 6b3f
00000160: ea3d 6d3f 9e17 6d3f 7eca 6e3f 084f 6b3f
00000170: 30e0 6c3f ea56 6a3f 0245 6d3f b83b 693f
00000180: 05fa 6c3f 0b5a 6c3f 2988 6c3f 7fb5 6c3f

ln1.bias f4 [100]
-0.012985269 -0.03684647 -0.006179747 -0.0043800436 -0.023814712 -0.015382671 -0.023522994 -0.0049933684
-0.009185846 -0.010278276 -0.011409238 -0.01728682 -0.005703985 -0.0036630258 -0.012179791 -0.00596615
-0.004496474 -0.016756997 -0.00946379 -0.005204488 -0.02166677 -0.027920224 -0.01818647 -0.013490904
-0.015156329 -0.018684521 -0.005910946 -0.0029768124 -0.011836075 -0.008119835 -0.010447621 -0.0068965643
-0.022016414 -0.005031243 -0.012794292 -0.0050802184 -0.010274065 -0.013558049 -0.004057222 -0.0063500004
-0.012610109 -0.0056810905 -0.008309753 0.0014596224 -0.012100017 -0.015062325 -0.0075208126 -0.008618851
-0.008014567 -0.005617206 -0.0032691876 -0.0032941438 -0.0051036878 -0.023152487 6.115957e-05 -0.0073243086
-0.01152927 -0.01170529 -0.015823396 -0.0063782516 -0.002366919 -0.015664857 -0.0012728415 -0.014349388
-0.01349584 -0.011114082 -0.0021976342 -0.010487955 -0.006242412 -0.008779653 -0.0207478 -0.009746083
-0.021528488 -0.014308497 -0.00848879 -0.0003362111 -0.015321945 -0.017443258 -0.0067752954 -0.010014191
-0.015110471 0.0050583044 -0.016889306 -0.0021616435 -0.0052742697 -0.0043066638 -0.0088713635 -0.014260685
-0.0057734237 -0.009523367 -0.013327236 -0.010062646 -0.011678214 -0.025959948 -0.0030363426 -0.016253922
-0.010326515 -0.009852815 -0.0027516766 -0.004295992
00000000: 2ac0 54bc 53ec 16bd 7a7f cabb 7886 8fbb
00000010: 1217 c3bc 9907 7cbc 4bb3 c0bc 699f a3bb
00000020: 3b80 16bc 3766 28bc d0ed 3abc 179d 8dbc
00000030: 7fe8 babb 600f 70bb bf8d 47bc b27f c3bb
00000040: 2857 93bb f845 89bc 030e 1bbc 698a aabb
00000050: 837e b1bc f4b8 e4bc cbfb 94bc f408 5dbc
00000060: 4052 78bc 4810 99bc 9cb0 c1bb a016 43bb
00000070: 19ec 41bc 0e09 05bc 802c 2bbc 93fc e1bb
00000080: c45b b4bc 20dd a4bb 269f 51bc f677 a6bb
00000090: 8d54 28bc 9422 5ebc 72f2 84bb aa13 d0bb
000000a0: a19a 4ebc 7128 babb a125 08bc cd50 bf3a
000000b0: 263f 46bc f8c7 76bc 2671 f6bb 1536 0dbc
000000c0: 884f 03bc 8a10 b8bb de3f 56bb 90e2 57bb
000000d0: d63c a7bb 49aa bdbc cb42 8038 c100 f0bb
000000e0: 43e5 3cbc 8bc7 3fbc 11a0 81bc a700 d1bb
000000f0: 501e 1bbb 9653 80bc 79d5 a6ba b219 6bbc
00000100: a81d 5dbc d717 36bc 2f06 10bb acd5 2bbc
00000110: 268d ccbb 89d8 0fbc 4af7 a9bc 09ae 1fbc
00000120: 835c b0bc 306e 6abc 9114 0bbc 7d45 b0b9
00000130: e508 7bbc 2ae5 8ebc 4c03 debb 9012 24bc
00000140: e991 77bc 22c0 a53b 715b 8abc 5caa 0dbb
00000150: c8d3 acbb ea1e 8dbb 3259 11bc a6a5 69bc
00000160: fd2e bdbb e507 1cbc 7b5a 5abc ccdd 24bc
00000170: fb55 3fbc f5a9 d4bc 60fd 46bb f226 85bc
00000180: 8b30 29bc b46d 21bc 7955 34bb 65c5 8cbb

fc2.weight f4 [50, 100]
-0.11065255 0.12839228 0.01975446 0.050274678 0.01454191 -0.013094534 0.12021048 0.08148318
-0.12848786 -0.09907505 -0.12649672 0.027010899 0.021955729 0.061946798 0.0008089398 0.028831657
0.0027671598 0.058042593 0.20477909 0.07503403 -0.025559817 -0.14864929 0.089291096 -0.02643919
-0.12813789 0.026526911 -0.0082092825 -0.12328414 -0.03957994 -0.083559595 -0.1181324 0.14021708
-0.14776833 0.04256687 -0.07465236 -0.038104292 -0.100849785 0.025931451 -0.05178161 0.0144738145
0.10938711 -0.00085299223 0.08700519 0.1268281 0.09348588 -0.04392797 0.028440941 0.094050914
-0.18688743 0.041053686 0.114670895 0.105728336 0.018176954 0.23166348 0.065359645 0.035318464
0.013338521 -0.083608285 0.059400592 -0.058816932 0.10087108 0.051525824 0.11001744 -0.047386147
-0.028913822 0.041027993 -0.011011618 -0.17498589 -0.123659365 -0.02828004 0.008924497 0.13638845
-0.07607256 0.10068664 -0.07127052 0.10748879 0.096262574 -0.16386178 0.034316227 0.038498957
-0.08108161 -0.07275178 0.052059926 0.080820166 0.013121355 0.08601224 0.013834621 -0.20022862
-0.07772728 -0.0112530505 0.0813833 -0.0067752344 -0.061911143 0.087443635 -0.12282101 -0.070526235
-0.0491051 -0.07157629 -0.035332005 0.11286463 0.043032512 0.06407465 -0.07839619 0.08097042
0.08474257 -0.0045790435 -0.0656468 0.026413707 0.04905431 0.061416525 0.039794374 -0.054658376
-0.012529734 -0.06751337 0.046828967 0.0060273297 0.04153511 -0.0033843878 0.01820328 -0.03762215
-0.10856043 -0.047674395 0.092198625 -0.07878544 -0.014937981 0.12918493 -0.027037367 -0.063327976
0.009654396 -0.15817492 0.052619018 0.12863903 -0.1380779 0.12464276 0.020490592 -0.11423911
0.09268347 0.056022853 -0.0014965391 -0.037309565 -0.20985922 -0.02988664 -0.1477691 -0.07436657
0.14726406 0.053380705 -0.1566064 0.048070643 -0.017737571 0.21839966 -0.13471355 -0.12846549
-0.050842296 0.099845 0.031192265 -0.10747425 0.2719614 -0.141702 -0.0396318 0.15933764
-0.19759317 -0.09451007 0.12562597 0.19481906 -0.23380816 -0.004083118 0.11420277 0.28921664
-0.20581591 -0.04585479 -0.10201919 -0.10198711 -0.034782995 0.030245267 0.014024511 0.11805567
-0.008928092 -0.14567131 -0.09223127 -0.036671698 0.17491007 0.16636503 0.049831815 0.21016765
0.092211634 -0.111983515 -0.13726008 0.054562327 -0.19719508 0.016893381 0.17182042 -0.067061715
0.0021439272 -0.10337039 0.0920525 0.19294475 0.07904647 0.19135576 0.018174483 0.27374116
-0.045720473 0.14837548 -0.0850835 -0.04553006 0.16627088 0.12095588 0.14719678 0.030715626
0.05114754 0.13184719 -0.010893133 -0.04065495 0.057140116 -0.070600145 -0.06444371 0.104028806
0.027882185 -0.13352321 0.13175921 -0.07603788 0.001991725 0.14235996 -0.088948056 -0.028882597
-0.2137744 0.2473009 0.05421077 -0.05415178 0.10096967 0.09817973 -0.023865798 -0.025991116
-0.10154291 -0.075126454 0.08340015 -0.0667315 -0.059018806 -0.062252227 0.008113569 -0.030774929
-0.17297255 0.08977929 0.17212075 -0.14951028 0.031049877 -0.0025739267 0.117471956 0.044475365
0.06141517 0.013457504 -0.1214324 -0.020664858 -0.19040884 -0.019614771 0.22753082 0.15711571
00000000: ce9d e2bd 4479 033e 1bd4 a13c d2ec 4d3d
00000010: 3141 6e3c 758a 56bc ea30 f63d a7e0 a63d
00000020: 5292 03be dce7 cabd 5b88 01be f645 dd3c
00000030: 80dc b33c edbb 7d3d 080f 543a 5e30 ec3c
00000040: 3d59 353b 12be 6d3d 9cb1 513e 71ab 993d
00000050: d262 d1bc 8537 18be 40de b63d 0097 d8bc
00000060: 9436 03be f74e d93c 3a80 06bc 657c fcbd
00000070: 931e 22bd 4b21 abbd 66ef f1bd 1195 0f3e
00000080: 9550 17be 995a 2e3d 56e3 98bd 3f13 1cbd
00000090: 558a cebd 326e d43c f418 54bd 9423 6d3c
000000a0: 5906 e03d 579b 5fba c72f b23d 3adf 013e
000000b0: 8675 bf3d d1ed 33bd fafc e83c c49d c03d
000000c0: 6b5f 3fbe e927 283d 93d8 ea3d 1988 d83d
000000d0: d6e7 943c 3139 6d3e 47db 853d 18aa 103d
000000e0: d089 5a3c d23a abbd 094e 733d 06ea 70bd
000000f0: 7f95 ce3d be0c 533d d350 e13d fa17 42bd
00000100: aedc ecbc f80c 283d 136a 34bc 802f 33be
00000110: 1f41 fdbd 8bab e7bc 0e38 123c 6aa9 0b3e
00000120: eecb 9bbd cc34 ce3d 47f6 91bd 1523 dc3d
00000130: 5025 c53d 62cb 27be 2c8f 0c3d 15b1 1d3d
00000140: 1d0e a6bd e3fe 94bd ca3c 553d 0b85 a53d
00000150: f4fa 563c 2f27 b03d 9baa 623c bb08 4dbe
00000160: 7b2f 9fbd b75e 38bc 4aac a63d c902 debb
00000170: 8a96 7dbd a615 b33d 9589 fbbd 0f70 90bd
00000180: 6e22 49bd 9796 92bd 4bb8 10bd 9225 e73d
00000190: dc42 303d 9239 833d 2f8e a0bd d2d3 a53d
000001a0: 838d ad3d cd0b 96bb d471 86bd 8f61 d83c
000001b0: 2ced 483d e58f 7b3d 6dff 223d 76e1 5fbd
000001c0: 8349 4dbc 7344 8abd bbcf 3f3d e880 c53b
000001d0: b820 2a3d 9bcc 5dbb 0c1f 953c af19 1abd
000001e0: ee54 debd 3a46 43bd a2d2 bc3d 435a a1bd
000001f0: 6fbe 74bc 0e49 043e 787d ddbc 19b2 81bd
00000200: 792d 1e3c 9bf8 21be 0a87 573d f3b9 033e
00000210: 4b64 0dbe b444 ff3d e3db a73c 32f6 e9bd
00000220: d5d0 bd3d 3878 653d 8527 c4ba ead1 18bd
00000230: 56e5 56be d4d4 f4bc c850 17be 804d 98bd
00000240: 64cc 163e baa5 5a3d 6e5d 20be b9e5 443d
00000250: 624e 91bc 29a4 5f3e 59f2 09be 758c 03be
00000260: 0340 50bd 897b cc3d ec86 ff3c 761b dcbd
00000270: 863e 8b3e 541a 11be f454 22bd 6829 233e
00000280: dd55 4abe 7f8e c1bd 18a4 003e a67e 473e
00000290: 686b 6fbe adcb 85bb 24e3 e93d 3414 943e
000002a0: 68c1 52be 3bd2 3bbd 70ef d0bd 9ede d0bd
000002b0: 9d78 0ebd ecc4 f73c 10c7 653c 2cc7 f13d
000002c0: 2247 12bc dc2a 15be c0e3 bcbd 1035 16bd
000002d0: a01b 333e 985b 2a3e 721c 4c3d 3036 573e
000002e0: 74d9 bc3d 9d57 e5bd e88d 0cbe bf7c 5f3d
000002f0: 82ed 49be fd63 8a3c b1f1 2f3e a757 89bd
00000300: 2181 0c3b dbb3 d3bd 0586 bc3d 4f93 453e
00000310: 1ee3 a13d c4f2 433e a7e2 943c cd27 8c3e
00000320: 6445 3bbd beef 173e 4240 aebd ba7d 3abd
00000330: ea42 2a3e b7b7 f73d c1ba 163e 569f fb3c
00000340: 1580 513d f302 073e 1c79 32bc ce85 26bd
00000350: c10b 6a3d cf96 90bd 10fb 83bd 0e0d d53d
00000360: 2e69 e43c 4fba 08be e3eb 063e bfb9 9bbd
00000370: 9a87 023b cfc6 113e 662a b6bd 329b ecbc
00000380: ade7 5abe 723c 7d3e 1d0c 5e3d 42ce 5dbd
00000390: 30c9 ce3d 7412 c93d 3582 c3bc 52eb d4bc
000003a0: bbf5 cfbd e6db 99bd b3cd aa3d 86aa 88bd
000003b0: b4bd 71bd 31fc 7ebd c6ee 043c b41b fcbc
000003c0: b71f 31be 34de b73d 6c40 303e 3919 19be
000003d0: 505c fe3c 53af 28bb 2395 f03d cd2b 363d
000003e0: 798e 7b3d dd7c 5c3c 8db1 f8bd 5949 a9bc
000003f0: 89fa 42be 28af a0bc d7fd 683e f1e2 203e

fc2.bias f4 [50]
0.007810491 0.005272494 -0.029042771 -0.0014914821 0.019052893 -0.0031406125 -0.0085078515 -0.022592127
0.020124843 -0.0031600923 0.0058045974 -0.004389329 -0.011672409 -0.0012792584 0.0189733 0.006706246
0.0072713844 0.0070529105 -0.01964137 0.015581978 -0.00801847 -0.0055196495 -0.017678196 -0.006287051
-0.025554461 0.015234679 -0.0048877834 -0.023511685 0.008566674 -0.002017559 0.0011417211 0.038507033
-0.0044964002 0.005416805 -0.00432053 0.009776281 -0.023077061 0.0131479185 0.0040850765 -0.014125997
-0.0007025585 -0.015018252 0.015940273 0.0108215045 0.0033167384 0.0022252288 0.008436647 -0.00636176
-0.006189414 0.022416702
00000000: 26ef ff3b e3c4 ac3b 1beb edbc d67d c3ba
00000010: d014 9c3c bcd2 4dbb 8464 0bbc 2013 b9bc
00000020: dbdc a43c 8d19 4fbb 7e34 be3b 5cd4 8fbb
00000030: a23d 3fbc caac a7ba e56d 9b3c 12c0 db3b
00000040: cb44 ee3b 1a1c e73b f0e6 a0bc 8d4b 7f3c
00000050: e75f 03bc 2dde b4bb ddd1 90bc 9b03 cebb
00000060: 9757 d1bc e09a 793c b329 a0bb 949b c0bc
00000070: 3c5b 0c3c 0639 04bb cea5 953a 8db9 1d3d
00000080: 8a56 93bb 747f b13b 3c93 8dbb b22c 203c
00000090: 1b0c bdbc 5e6a 573c 1bdc 853b ba70 67bc
000000a0: e72b 38ba 1d0f 76bc 2d95 823c ae4c 313c
000000b0: a35d 593b 25d5 113b dd39 0a3c 5076 d0bb
000000c0: 91d0 cabb 3ba3 b73c

ln2.weight f4 [50]
0.9270084 0.9222468 0.9305641 0.9340117 0.92472553 0.94121116 0.92532414 0.936869
0.92472696 0.938105 0.92996025 0.9490564 0.9361449 0.92100734 0.9239614 0.9287101
0.92638606 0.9471994 0.9177811 0.9286083 0.9213298 0.94797873 0.95650274 0.9565076
0.9621821 0.93143594 0.92846215 0.9198678 0.9360328 0.95147026 0.94353974 0.92456025
0.9346494 0.92824495 0.9213073 0.9243944 0.97495115 0.9395556 0.9419868 0.94565004
0.94378245 0.91900414 0.92436236 0.93493724 0.91993105 0.9279821 0.92295223 0.94347394
0.9276229 0.92561704
00000000: 6c50 6d3f 5e18 6c3f 7339 6e3f 641b 6f3f
00000010: d0ba 6c3f 37f3 703f 0be2 6c3f a6d6 6f3f
00000020: e8ba 6c3f a627 703f e011 6e3f 5cf5 723f
00000030: 31a7 6f3f 23c7 6b3f bc88 6c3f f2bf 6d3f
00000040: a327 6d3f a97b 723f b4f3 6a3f 46b9 6d3f
00000050: 45dc 6b3f bcae 723f 5ddd 743f afdd 743f
00000060: 9151 763f 9672 6e3f b2af 6d3f 757c 6b3f
00000070: d89f 6f3f 8e93 733f d28b 713f fbaf 6c3f
00000080: 2f45 6f3f 76a1 6d3f ccda 6b3f 1da5 6c3f
00000090: 6696 793f b786 703f 0c26 713f 1f16 723f
000000a0: ba9b 713f db43 6b3f 03a3 6c3f 0c58 6f3f
000000b0: 9a80 6b3f 3c90 6d3f 9946 6c3f 8287 713f
000000c0: b278 6d3f 3df5 6c3f

ln2.bias f4 [50]
-0.0016673337 -0.003933858 -0.010690093 -0.0006133863 0.00024863752 -0.004726578 -0.00506098 -0.014466079
-0.0028215894 -0.0028685844 -0.00022450458 -0.003113115 -0.010835066 -0.0028100226 -0.0020768414 -0.0055891583
-0.005530535 -0.006995228 -0.0051343073 -0.0011423884 -0.0013024182 -0.009886411 -0.022403352 -0.004075026
-0.020900145 -0.001116215 -0.010114882 -0.0035188093 -0.008940907 0.0013256692 -0.011444519 0.0013321118
-0.010246953 -0.0036088622 -0.002680395 -0.0009790449 -0.03159593 0.0025447146 0.0011262429 -0.020357532
-0.0027356304 -0.003693187 -0.0022735724 -0.0070254174 -0.00034784758 -0.0013211499 -0.0005412907 -0.00621366
-0.0029971346 0.0011312132
00000000: 6f8a daba 98e7 80bb 8025 2fbc a8cb 20ba
00000010: 905b 8239 69e1 9abb 94d6 a5bb 2203 6dbc
00000020: 6aea 38bb dcfe 3bbb fd68 6bb9 6705 4cbb
00000030: 9085 31bc 5b28 38bb 9e1b 08bb 4225 b7bb
00000040: 7d39 b5bb 3a38 e5bb b13d a8bb 32bc 95ba
00000050: e7b5 aaba 9dfa 21bc 3c87 b7bc cc87 85bb
00000060: c836 abbc f64d 92ba e4b8 25bc d39b 66bb
00000070: e27c 12bc 14c2 ad3a cb81 3bbc 419a ae3a
00000080: d6e2 27bc a982 6cbb 91a9 2fbb 4c53 80ba
00000090: bc6a 01bd 3ac5 263b 719e 933a d7c4 a6bc
000000a0: 4348 33bb 6509 72bb 3700 15bb 7935 e6bb
000000b0: 505f b6b9 6f2a adba 67e5 0dba f59b cbbb
000000c0: 936b 44bb 3745 943a
