Source_combined/ckps/seizure/source/Except_S77_sort/source_F.pt (torch, 557199 bytes, 8 tensors)

fc1.weight f4 [100, 1332]
00000000: eb24 ed3c a9db b4bc 8646 96bc 5214 88bc
00000010: 9e8e 003d 2c95 963c d2ed 55bb 359d 19bc
00000020: e1dc 32bc 30e3 27ba 17b0 aebc cdbb 763c
00000030: c6f3 483c 6d33 5cbc 8e21 aabc f8ca 36bc
00000040: be0b 773c 94b9 e63c c403 a4bc ff5f 2bbc
00000050: d9be 9e3c 83e8 46bc f933 babc f18b 4cbc
00000060: 25d9 263a c900 873c 541d b7bc 66ad 8b3a
00000070: 61bd 00bc 738d a93b 4a82 86bb a0ec 25bb
00000080: 6313 eebb 808c aabc 7873 e93a 569a 42bb
00000090: a865 103c 92d2 c6ba 4f08 bc3c de94 9c3c
000000a0: da17 973c 2b61 053c 7f9d 1c3c e93f 823c
000000b0: 7a81 973c 1826 383c 867e d1bb 9f16 973c
000000c0: 5535 8a3b e7bd 063c b1ce 53bc be25 823c
000000d0: 6441 60bc 2c8d 0dbc 3c1c 9c3c 467c 15bb
000000e0: ff83 1f3b ff27 7f3b b5ed af3b b2bd 153c
000000f0: d67a 8bbb 77d0 a3bc 74da abbb 0040 b3bc
00000100: 6767 e4bc 2a0d 123c f370 cebc 9b97 9ebc
00000110: 39bd 843b 52b0 9abb c1cf 263b 6590 aa3c
00000120: b4a2 5a3c 4932 df3b 4a25 af3c 1fc4 7f3c
00000130: 6cc4 403c 35ef 853b 8146 1dbc fff4 b1ba
00000140: effc 713c f05c 9739 53b5 683c 34e5 6f3b
00000150: b0f3 f63b e998 de39 d60d 803c ad80 983c
00000160: 7a98 3fbc cbbf ea3b 4004 713b 7ecf bdbc
00000170: 802b 623c 44c0 5c3c ac16 c33b 0bc2 103d
00000180: 46ec b7bc 8836 cdb9 e374 1b3c ae5b 87bb
00000190: 2d41 1e3c 865e a93b 6cb7 b03c 0db6 ca3b
000001a0: 11f6 0e3c 83ab a43a a1ae abbc 5192 813c
000001b0: 07bd e73c 6c1b a13b 10bc 40bc 40c7 b0bb
000001c0: d6ab 853c 15b0 aa3c 6352 c0bc e6ed b93c
000001d0: a618 fd3b 20e9 81bc 59a3 9fbc 32b3 923c
000001e0: a5fd a5bc 78e8 ad3c b997 b5bb afa3 af3c
000001f0: b0c2 f93a 6e51 4dbc d068 553c 051b 20bc
00000200: 8ddf 363c 723b febc dce2 ba3b 4be5 a8ba
00000210: a5b4 14bd cec2 713b ab18 f03b e345 de3b
00000220: 1c18 743c 5a17 c73c 7b22 fd3b a69b 613c
00000230: 7a3b 2a3c 9c72 873c bdd9 9aba 5fa2 233c
00000240: 6207 29bc a7f4 89bb cf26 c53c 7a96 89bb
00000250: a93f 43bb a34b 9e3c 2442 d5bc a95f f0bb
00000260: 0973 0cbc 2376 1ebc e696 b7bc 8552 54bc
00000270: 789e cfbb 2daf 99bb e9c9 0d3c 177e 453c
00000280: e6a8 87bc 92e3 edbb 6478 4e3c 5b70 1abb
00000290: e44e 3bbc dbdc 73bc 8a29 82bc 9733 f0bb
000002a0: bf1a b03c 7af8 9b3c 53ba ad3a 515d 75bc
000002b0: 4dfb a43c 9c93 763c 6639 953b b459 603c
000002c0: a0b9 8cbc 36c0 a43c 3856 81bc 553a c43c
000002d0: 8454 a2bc adc7 d93b 061e 0c3b 57a1 3a3c
000002e0: c9c2 073c 106a b33b fc36 d3bc 62c5 833b
000002f0: 8f9e 3b3b 1562 96ba 22af bbbc c0b5 813c
00000300: c8ff 763b 8fad 0c3c 4e20 053c b19b a23c
00000310: 5f4f 9fbb 09a8 423c 59a6 68bc e94d 95bc
00000320: 5f4d 0c3d 4925 79bc 4d12 dc3c 4000 c2bc
00000330: 0d35 1fbc 542d 07bb d0a2 07bc cf39 51bc
00000340: bed2 5d3c f65d 073c 11b7 4b3c 9f8c c13c
00000350: e505 f13c f521 993c e39e 2b3c 320a ea3c
00000360: 4717 be3b dc1f 9f3c 3abc 883c 2a21 563c
00000370: 2bde 8abc 2a4d 393c f1e3 a73b 186e b4bc
00000380: bd7f 283c ca65 3d3c 5f50 71bb 43a2 d03c
00000390: 6570 4e3c f76e b63b 739e 223c 284d 253c
000003a0: 0362 29ba 65c5 86bc 3fb2 ab3c ad48 c8bc
000003b0: 9316 cc3b 16ca 53bc 0268 be3c 5c95 86bb
000003c0: 09bd 203b 35a3 8cbc 532a 9f3c facd 29bc
000003d0: d2c8 4ebc c901 a63b 880a ffbc 9abd bebb
000003e0: a0b8 5dbc 44e4 83bc ddf8 a5bc e9e9 a33c
000003f0: 55a6 8e3c 8296 833c 23f4 943c 7cb0 1b3c
0.028948268 -0.022077398 -0.018344175 -0.016611252 0.03138601 0.018381678 -0.0032642973 -0.00937586
-0.010916919 -0.0006404398 -0.0213242 0.015059424 0.012265151 -0.013439995 -0.020767953 -0.01115679
0.015078483 0.028164662 -0.020021327 -0.010459899 0.019378113 -0.012140396 -0.02272986 -0.0124845365
0.00063647545 0.016479867 -0.022352852 0.0010656535 -0.007857651 0.0051743328 -0.004104887 -0.0025318041
-0.0072654947 -0.020818949 0.0017810902 -0.0029694042 0.008813299 -0.0015168956 0.02295318 0.019113954
0.01844399 0.008140842 0.009559034 0.015899615 0.018494356 0.011239551 -0.0063932566 0.018443404
0.0042177835 0.008223987 -0.012927697 0.015887138 -0.013687465 -0.008639615 0.019056432 -0.0022809668
0.002434015 0.0038933752 0.005368913 0.009139465 -0.0042565865 -0.019996865 -0.0052445475 -0.021881104
-0.027881337 0.008914271 -0.025200343 -0.0193594 0.0040508774 -0.004720726 0.002545342 0.020820806
0.0133444555 0.0068114144 0.021380085 0.015610724 0.011765581 0.0040873536 -0.009599329 -0.0013577043
0.014769777 0.00028870208 0.014203387 0.0036605122 0.007536374 0.00042457067 0.015631597 0.018616045
-0.011694068 0.007163977 0.0036776215 -0.023170229 0.0138043165 0.013473574 0.0059536304 0.035341304
-0.022451531 -0.00039141276 0.009488317 -0.004130802 0.009659094 0.005168739 0.021571837 0.006186253
0.008725659 0.0012563322 -0.020957293 0.01581684 0.028288377 0.004916599 -0.011763588 -0.005394846
0.01631729 0.020835916 -0.023476785 0.022696447 0.0077238856 -0.015858233 -0.01948707 0.017907713
-0.020262549 0.021229014 -0.0055417684 0.021440355 0.0019055214 -0.012531621 0.0130254775 -0.009772067
0.011161697 -0.031034205 0.0057033133 -0.0012885717 -0.03630509 0.0036889794 0.0073271594 0.0067832335
0.014898326 0.024303127 0.0077250577 0.01377002 0.010390157 0.016534142 -0.0011814159 0.009987443
-0.010316702 -0.004210073 0.024066357 -0.0041988464 -0.0029792583 0.019323176 -0.026032515 -0.0073356223
-0.008572348 -0.009671721 -0.022410821 -0.012959127 -0.0063360296 -0.004690072 0.008654096 0.012053988
-0.01656003 -0.0072597945 0.012601946 -0.0023565504 -0.011432383 -0.014884199 -0.015888948 -0.0073303687
0.021497129 0.019039381 0.0013254381 -0.014975862 0.02013936 0.015049841 0.0045539616 0.013693262
-0.017178357 0.020111185 -0.015788183 0.023953596 -0.01981569 0.0066461177 0.00213802 0.0113910055
0.0082861865 0.00547529 -0.025783055 0.0040213326 0.0028628444 -0.0011473323 -0.022910658 0.015833735
0.0037689079 0.0085863015 0.008125378 0.01984963 -0.0048617567 0.011880883 -0.014199817 -0.018225627
0.034253474 -0.015206643 0.026864195 -0.02368176 -0.009717238 -0.0020626383 -0.008278564 -0.01277013
0.013539014 0.008262148 0.012433783 0.023626624 0.029421756 0.01869295 0.010474893 0.028569315
0.0058011147 0.019424371 0.016691316 0.01306943 -0.016951641 0.011309901 0.0051236083 -0.022025153
0.010284361 0.011559913 -0.0036821587 0.025467997 0.012600039 0.0055674273 0.009925473 0.010089196
-0.0006461443 -0.016451547 0.020959018 -0.024448717 0.006228277 -0.012926599 0.023242954 -0.0041071605
0.0024526736 -0.017167667 0.019429361 -0.01036405 -0.0126211215 0.005066131 -0.031132951 -0.005820942
-0.013532788 -0.016100056 -0.020260269 0.020008998 0.017413298 0.016062979 0.01818282 0.009502526

fc1.bias f4 [100]
00000000: 64b7 8a3c f235 113b af64 cc3c 0d61 95bc
00000010: 69c7 b93c 2baf c33c 97e0 04bd a55e e8bc
00000020: 113b 30bc f389 7d3c 7ca3 f33c 4f19 533c
00000030: 3024 39ba 0caf d7bc e797 403c 5061 3d3c
00000040: 1925 c43b fe06 9cbc ec07 873b bd23 fcbb
00000050: e821 c23c 1166 383c 2be7 943a bc2a beba
00000060: 7ce6 4cbc 4702 c4bc 8e08 d93c f40a 433c
00000070: e83d 7d3c 92a7 c1bb e006 a23b f733 c439
00000080: 331a ac3c c12b 9cbc 331b c23c 02bf d63c
00000090: f7a1 653c 1c2a 7b3b 823e acbb 23fd ac3a
000000a0: 7f0d a83c 2b68 a3bc a038 c93c 92f6 8fbc
000000b0: 4d02 e73b 2fe4 ebbc dd3b 3c3c 3216 373c
000000c0: d0bf 123d 9004 813c 6441 4a3b b594 1abd
000000d0: 6681 813c 6182 653c 4d2e e5bc 4515 46bb
000000e0: a3c9 873c 4ec9 8b3c 38dd c839 2e7d 913c
000000f0: 5d95 a53c 8e0c 97bc a0f4 8a3b 9da8 b73c
00000100: dfda 95bc 0363 083d 76b4 783c ee87 193d
00000110: 919a 4bbc 3efd 14bc e945 6a3c 3e38 bf3b
00000120: 8841 793b 919d 83bc 35e0 7d39 1745 81bc
00000130: 225c 43bc aaaa d03b 8277 1b3c 8cb4 1f3d
00000140: e8f6 79bc 3f39 d23c e190 f2bc 7360 1ebc
00000150: 0725 0bbd 7774 55bd 7ee5 20bc d647 523c
00000160: 36ff aebc d14a a13c ebad 793c b80e 5cbc
00000170: 22a1 2c3c f994 d2b9 9091 91bc 4467 9b3c
00000180: 115c c0bc 18d4 bb3c 8d7d a03c e884 28bd
0.01693315 0.0022157398 0.024950353 -0.018234754 0.022678094 0.023887238 -0.032440748 -0.028365443
-0.01075627 0.015474784 0.029741041 0.012884452 -0.00070625823 -0.026328586 0.011754966 0.011558846
0.0059858677 -0.019046303 0.0041208174 -0.00769469 0.023697808 0.011254803 0.0011360397 -0.0014508585
-0.012506124 -0.023926867 0.026493337 0.011904467 0.015456654 -0.0059098685 0.004944667 0.0003742275
0.021008587 -0.019063832 0.02369461 0.026214126 0.014015666 0.003832466 -0.005256475 0.0013197999
0.020514248 -0.019947132 0.024563134 -0.017573629 0.007049835 -0.02879533 0.011488882 0.011174725
0.035827458 0.015749246 0.003086173 -0.037739474 0.015808772 0.014008136 -0.02797618 -0.003022508
0.01657564 0.017063763 0.00038311793 0.017759886 0.020212824 -0.018438604 0.0042405874 0.022419268
-0.018292842 0.03329755 0.015179744 0.03748315 -0.012426988 -0.009093581 0.014298894 0.005835562
0.0038033444 -0.016066344 0.00024211484 -0.015780015 -0.011923822 0.006368001 0.009488942 0.038990542
-0.015256621 0.025662063 -0.0296101 -0.00966655 -0.03397086 -0.052113023 -0.00982034 0.01283451
-0.021361928 0.019688996 0.015239219 -0.013431244 0.010536464 -0.00040165315 -0.017769605 0.01897014
-0.0234814 0.022928283 0.019591117 -0.041142374

ln1.weight f4 [100]
00000000: ba7a 6b3f 4587 6e3f b312 6b3f f7c2 6d3f
00000010: 0761 6a3f dea3 703f 590e 6a3f b803 6c3f
00000020: b872 6d3f edd3 6c3f 1411 6b3f 6ffc 6f3f
00000030: 29c8 6d3f 260f 6c3f 3962 703f b81b 6a3f
00000040: 387f 6e3f cccc 6c3f 7bff 6f3f 189c 6d3f
00000050: 30c3 6b3f 5bda 6c3f 2f9d 6c3f b199 6b3f
00000060: ff64 6a3f 36f7 6b3f a043 6c3f 59fc 6b3f
00000070: 810d 6c3f 0d50 6e3f f6ef 6b3f caab 6f3f
00000080: bdde 6c3f cfd9 6c3f e12d 6e3f eb17 6d3f
00000090: 9c5c 6a3f 01b1 6b3f c117 6e3f 9822 6e3f
000000a0: e99d 6c3f 36ec 6a3f dc5e 6a3f 124f 6b3f
000000b0: bd22 6f3f b1d1 693f dcdd 6c3f 0495 6d3f
000000c0: 23b0 683f 856b 6c3f 1a86 6c3f eb50 6a3f
000000d0: c087 6a3f a3ed 693f 03c4 6d3f 7cd7 6d3f
000000e0: 7616 6b3f 9894 6d3f 2d7b 6b3f 8191 6d3f
000000f0: ea17 6b3f ee86 6d3f a506 6d3f 1a10 693f
00000100: 6012 713f 1870 6c3f 5cf4 6c3f 1f98 6b3f
00000110: 493b 6e3f fd9f 6c3f 3b4b 6b3f f2bc 6c3f
00000120: 0c18 6a3f 5bd2 6c3f 4833 6d3f 5b9f 6e3f
00000130: a335 6c3f b20c 6e3f 8bad 6a3f f630 6b3f
00000140: a856 6c3f f6e0 6b3f 0eeb 6b3f 40d7 6c3f
00000150: 7fdd 6d3f 4ded 683f 9799 6f3f 2be4 6b3f
00000160: 0d16 6c3f 3c1e 6b3f a362 6a3f 8886 6c3f
00000170: 41d5 693f dea7 6c3f 3210 6d3f ab7a 6d3f
00000180: fdda 6d3f 5adb 6e3f 2428 6e3f dab9 693f
0.9198414 0.93175155 0.9182541 0.9287562 0.915543 0.9400004 0.9142814 0.92193174
0.9275317 0.92510873 0.91822934 0.9374456 0.92883545 0.92210615 0.93899876 0.91448545
0.9316287 0.92499995 0.9374921 0.92816305 0.9209471 0.92520684 0.92427343 0.9203139
0.9156036 0.9217409 0.9229069 0.92181927 0.92208105 0.930909 0.92163026 0.93621504
0.9252737 0.9251985 0.93038756 0.9261462 0.9154756 0.9206696 0.93004996 0.93021536
0.9242845 0.9176668 0.91550994 0.91917527 0.9341238 0.9133559 0.9252603 0.92805505
0.90893763 0.9235156 0.9239212 0.9152972 0.9161339 0.9137823 0.92877215 0.9290693
0.9183115 0.9280486 0.91984826 0.92800146 0.91833365 0.9278401 0.92588264 0.91040194
0.94168663 0.9235854 0.9256036 0.92028993 0.9305921 0.9243162 0.9191167 0.9247581
0.9144294 0.92508477 0.92656374 0.9321191 0.92269343 0.9298812 0.91671056 0.91871583
0.92319727 0.9214014 0.9215554 0.92515945 0.929161 0.9098709 0.93593735 0.9214503
0.92221147 0.9184301 0.9155676 0.9239278 0.91341025 0.92443645 0.9260284 0.927653
0.92912275 0.93303454 0.9303 0.9129921

ln1.bias f4 [100]
00000000: 701a 1abc d4de 05bb 4037 ddbb 2b10 5abc
00000010: dd6e 28bc a38e a4bc b001 8cbc 5ddc 1ebc
00000020: 34a4 cdbb 1a7d 82bb 8de9 0cbc 5aba eabb
00000030: 752b b6bb 65fc 5dbc fa4b 9c3b ac2f 93bc
00000040: 8968 33ba 68d9 20bb e3a8 b03a 987a dcba
00000050: 4a5e 5aba eabc 1bbc e986 e7bb 596d 5fbc
00000060: 14fa 04bc 4bdc 85bc 479a 24bc 9959 9abc
00000070: c471 a8ba f7cb d8ba 176d 8bbc b9fe 77bb
00000080: 53d4 b2bb 3549 84bc fd8d 67bc 9052 8cbb
00000090: e128 74bc 78ef d2bb 81f0 a8bb 240b 7fbb
000000a0: f05d 94bb 5815 5cbc e778 2ebc 82d0 91bc
000000b0: 3f8e 72bb 5bd7 cfbc 6717 a3bb 54df aabb
000000c0: 15c7 4dbc 0d72 2dbc 9a54 40bc eac0 75bc
000000d0: ae0e 68bc 560b b1bc 14c4 1abc 725d 9dba
000000e0: d4af 71bc 2837 91bb 1d7a 0cbc adbe 7dba
000000f0: 6cb7 3ebc 55b3 08bc 12e8 e8bb d547 96bc
00000100: d81d 4bbb 618e 02bc 67da b0bb a0f2 91bb
00000110: f9b3 2bbc 6e8d 37bc e0e0 ecbb 8600 29bb
00000120: 119f a2bc 2aeb a3bb 2018 45bc 7e2a 1b3b
00000130: ecad 20bc 755b 76bb 848b 0abc 17ea 32bc
00000140: 8d04 91bc b436 1abc 7ac5 09bc 3e8e 7ebb
00000150: 0f87 2dbc bd21 9dbc 4565 e8bb ea02 d0ba
00000160: 9595 4abc 7010 3fbc 58f8 26bc c2dc 67bc
00000170: 418b 50bc 2392 27bc 3f52 30bc 30a0 37bb
00000180: 62a8 cfbb e94a 92bc 0e9c dcb9 b560 9bbc
-0.009405717 -0.0020427005 -0.006750971 -0.013309519 -0.010280338 -0.020087546 -0.017090648 -0.009696093
-0.006275678 -0.0039821984 -0.008600605 -0.007163328 -0.0055593797 -0.013548945 0.0047697993 -0.017967068
-0.0006843885 -0.0024543647 0.0013478067 -0.0016821204 -0.000833009 -0.00950549 -0.007065643 -0.01363691
-0.008116264 -0.016340395 -0.010046548 -0.018841552 -0.0012851288 -0.0016540278 -0.017019792 -0.0037841036
-0.00545744 -0.01614819 -0.014132974 -0.004282303 -0.014902324 -0.0064372383 -0.0051556234 -0.0038916552
-0.0045278 -0.013432823 -0.010648943 -0.01779962 -0.0037011055 -0.025371244 -0.004977155 -0.005214611
-0.012559672 -0.010586274 -0.011738921 -0.014999608 -0.014163656 -0.02161185 -0.009446163 -0.0012005998
-0.014751393 -0.004431624 -0.008574036 -0.0009679597 -0.011640411 -0.008343537 -0.007107743 -0.018344799
-0.003099313 -0.007968516 -0.0053971293 -0.004453972 -0.010479921 -0.011203153 -0.0072289556 -0.0025787666
-0.01985124 -0.005002399 -0.012029678 0.002367645 -0.009807091 -0.0037591134 -0.008456115 -0.010920069
-0.017702365 -0.009412456 -0.0084088985 -0.0038842107 -0.0105912825 -0.019181127 -0.0070921504 -0.0015870009
-0.012364765 -0.011661634 -0.010191046 -0.014151754 -0.012728513 -0.010227713 -0.0107617965 -0.0028019063
-0.0063372115 -0.017857986 -0.0004207794 -0.018967012

fc2.weight f4 [50, 100]
00000000: 0ecd e5bd a2a3 4dbc b640 4e3e eb0c e6bd
00000010: 1ff6 c73d 37c7 92bd 4ae8 cc3d e4f2 babc
00000020: b9c1 123d 4e6b 883c b636 313c 5276 9abd
00000030: d371 f0bd fe4f 3d3d 128b 1cbd 3e0c babd
00000040: 74d8 96bd b26f de3d 1639 12bd 95a3 22be
00000050: 3895 f53d c3b8 84bb 606d 433d afc0 4d3b
00000060: ddf5 01bd 73c9 16be 20f9 cb3c 7c26 3c3d
00000070: f9ea 033d ae52 393e cef9 7cbd e983 c9bc
00000080: 0e49 0abe 0405 773d c63a c9bd f160 3dbe
00000090: 0c6e 153e 150a b33c 1bb2 8dbd 6dcd 233c
000000a0: 0ea9 803d cbef a2bd 1a0e c63d 8869 d23d
000000b0: 006a 873c 8b3f 1e3b e455 68bd 7587 813e
000000c0: fd16 823d 0fef 893d b57e 26be e5e5 7e3d
000000d0: 0534 c8bd 3d3a 98bc 5321 47bd f9e8 77be
000000e0: 8f3e 503e a564 373d 7f3d 053e 4071 87bd
000000f0: ab74 1ebd a5ca 063e 7c89 233d bb05 4b3e
00000100: 22c2 d8bb 1541 89bd 3ada 98bd 1a48 b53d
00000110: 567b 243e fb11 f53d 9168 3f3d eae3 ae3d
00000120: dbb6 bd3c 435b fa3d 057d ec3d f9a4 a7bd
00000130: 37fc 5b3d 8434 98ba 52d6 2fbd 0a91 af3d
00000140: 59ab 8a3d fb88 88bd 9ec2 69bd 325c 02bc
00000150: 28d3 a0bd 15c1 8b3d 99c5 453e e193 e63c
00000160: 1096 8fbd 0db4 6bbd 10cf 05be da3b eaba
00000170: 4f50 85bd eb9b 5bbe 9aef 14bd 4427 a3bc
00000180: 0f4e 533e 6b66 5abe 1800 eb3c ecfe 84bd
00000190: 7986 3cbd 8f0b 06bd 81d5 88bd 3e27 36bd
000001a0: 9747 14bd a9ec 92bc 7961 a43d 633c 6b3e
000001b0: b80c bbbd 70bc 613c ff39 0b3d c3bb b53d
000001c0: 4280 b9bd 7a3c 9c3d 80c8 6f3d d087 65ba
000001d0: 2124 293d 846e 553e 1c7b 8ebd ab1e 493e
000001e0: 09b1 333c 7061 f0bd ae91 52be b8d6 86bc
000001f0: 9f20 37bd 2412 8dbe 1d03 fa3c 4b54 e03d
00000200: 7353 2f3d 2078 debc 21df 123e 30cf d6bc
00000210: f3f6 5dbd e376 313d 2a0a 373d 3e5a b63d
00000220: a478 c1bd 4e7e dfbd 5124 583e 109b 0bbe
00000230: 294d 94bd a1b5 5bbd bcca bd3d 7a07 79bd
00000240: 8ee6 933a 5208 83be b4fb 72be e64f 393d
00000250: af32 783c 0432 77be 45e1 a1bd 21e9 363d
00000260: 5532 b23c ecd4 94bd e93f 37be 0e38 173e
00000270: 4f03 19be 6fb7 613e 930e f63d 0cb8 09be
00000280: 7871 283d 6f0b 963d 5ab7 083e e531 14be
00000290: a295 32be fc37 e13d 6d42 6b3d 8208 e33b
000002a0: d106 733d 3eb7 d3bd fd57 a03d 6761 3a3e
000002b0: 2410 82bc ece0 bf3d 6988 933c 2c79 a93e
000002c0: cd3e 02bd aed5 2a3d 243e 8ebd b14b c83b
000002d0: 53e3 61bc 5e74 3e3e 492f 873d 62c7 b1bc
000002e0: 89c8 06bd 6263 bcbb b059 4f3a 93bc 1ebd
000002f0: 41d0 2bbe 43c6 42be 7282 0abd b19a cbbd
00000300: 56c0 343d 01df 13bd fd20 26bd 6113 483d
00000310: 3f46 e93c db3c dcbd 7180 d2bd eca8 35bc
00000320: 4f24 903e e01e b13e 1b30 47be 560e c0bd
00000330: af45 b03d aa01 7cbd dbfa 3e3d 63e5 b13d
00000340: 752c ff3d 496a 02be 63d0 1ebe 6804 4c3c
00000350: 3d24 883d 94a8 efbd e9f9 f43d 5ae5 2bbe
00000360: 5455 e3bd 42ff b5bd fd02 f4bd 8d8e 5abe
00000370: f0e1 79be 8eb5 8a3d d73e da3d 7ffd 4e3d
00000380: 7797 1b3d 923c 3abe 589b fd3d 3adb e53d
00000390: 037e 193c ce6a 1dbd 4d8e ea3c ca45 0a3d
000003a0: 60ab d8bd 562a d1bd b00b 5a3d 7e4a 1d3e
000003b0: 5eab 913d 1eaf 25be a9af 683e 3910 283d
000003c0: f933 ce3c a33b b0bd 4ae1 c93d 2608 a23d
000003d0: 1c68 b83d f839 843c 6d09 813c a862 913d
000003e0: e891 fa3d 9e11 e6bd 6293 be3b df18 f5bc
000003f0: f6b3 0e3e 5bce f4bd e003 d53d 2a1e 923d
-0.11220752 -0.01255122 0.20141873 -0.11232933 0.09763741 -0.071669035 0.10005243 -0.022820897
0.03582928 0.01665273 0.010816267 -0.07542099 -0.1174046 0.046218865 -0.038218565 -0.09084366
-0.07365504 0.10861148 -0.035698973 -0.15882714 0.11991352 -0.0040503456 0.04771173 0.0031395366
-0.031728614 -0.14725284 0.024899065 0.04593514 0.03220651 0.18097946 -0.06176167 -0.024599032
-0.1350443 0.060307518 -0.09825663 -0.18494011 0.14592761 0.021855393 -0.069187365 0.009997708
0.062822446 -0.07955893 0.096706584 0.10274035 0.016530037 0.0024146761 -0.056722537 0.25298658
0.06352041 0.0673505 -0.16259272 0.062230963 -0.09775547 -0.018582458 -0.048615765 -0.24209966
0.20336364 0.044773716 0.1301174 -0.066133976 -0.038685482 0.1316324 0.039926037 0.19826405
-0.0066149393 -0.067018665 -0.074634984 0.08851643 0.16062674 0.1196632 0.04673058 0.08539565
0.023158481 0.12224438 0.11547283 -0.08185763 0.053707328 -0.001161233 -0.042929 0.08572586
0.06770963 -0.06666752 -0.057070367 -0.007956551 -0.07852775 0.06823937 0.19313659 0.028146686
-0.07011044 -0.057544757 -0.1306727 -0.001787062 -0.06509458 -0.21446197 -0.036361314 -0.019916184
0.20635246 -0.21328132 0.028686568 -0.06493935 -0.04602668 -0.032725867 -0.06681348 -0.044471018
-0.036201086 -0.017935114 0.08026404 0.22972254 -0.09133285 0.013777837 0.033990856 0.08873703
-0.09057666 0.076287225 0.05854082 -0.00087558944 0.04129422 0.2084294 -0.06957075 0.19640605
0.010967501 -0.11737335 -0.20563385 -0.016459808 -0.044708844 -0.27552903 0.030519063 0.109535776
0.042804193 -0.02715689 0.1434293 -0.026221842 -0.054190587 0.04332627 0.044687428 0.08903931
-0.094468385 -0.109127626 0.21107604 -0.1363337 -0.0724128 -0.05364001 0.09267184 -0.060798146
0.0011283921 -0.25592285 -0.2372883 0.045242213 0.015148803 -0.24140173 -0.07904295 0.044655923
0.021752516 -0.07267174 -0.17895474 0.14767477 -0.14942668 0.2204263 0.120144986 -0.13449115
0.041123837 0.073263995 0.13351193 -0.14472158 -0.17439893 0.10997006 0.057436395 0.0069285044
0.059332673 -0.10337685 0.078292824 0.18201219 -0.015876837 0.09369072 0.018009381 0.3310026
-0.031798173 0.041707687 -0.06945446 0.0061125387 -0.0137871085 0.18599078 0.06600816 -0.021701518
-0.03290609 -0.005749152 0.0007909788 -0.038754057 -0.16778661 -0.19020943 -0.03381581 -0.099416144
0.04412874 -0.036101345 -0.040558804 0.048846606 0.028475879 -0.10753795 -0.102784045 -0.011087637
0.281527 0.34593868 -0.19451945 -0.09377734 0.08607041 -0.061525024 0.046625953 0.0868633
0.124596514 -0.12735857 -0.1550918 0.012452222 0.06647537 -0.117020756 0.11961729 -0.1678671
-0.111002594 -0.08886577 -0.119146325 -0.21343441 -0.24402595 0.0677291 0.10656517 0.05053472
0.037986245 -0.18187168 0.12383145 0.11223455 0.009368422 -0.038431935 0.028632307 0.033757962
-0.10579562 -0.10213153 0.053233802 0.15360448 0.07112764 -0.16180083 0.22723259 0.041031096
0.025171267 -0.08605125 0.098574236 0.079117104 0.09004232 0.016140923 0.015751565 0.07098895
0.12234861 -0.11233829 0.0058159092 -0.029919086 0.13935837 -0.11953422 0.1040113 0.071346596

fc2.bias f4 [50]
00000000: ba15 cbbb 8519 923c 1663 cd3b 8382 ccbb
00000010: ee71 193b a291 243c 0f65 9dbb 347d 83bc
00000020: 9a49 ec3b a9ca 90bb 5463 253c b95d e53b
00000030: 46cb 88ba c828 413c ba84 8fba 1054 c53c
00000040: 3c00 de3a 2e3d 37bc 78e5 673c b75f 403c
00000050: f783 7a39 c78c a93b 29ed febb 4353 b3ba
00000060: d80f 7ebc 9de1 61bc b38f 6a3b 7989 96bb
00000070: 718e 8fbc 5304 8dbc 28d4 5d3b 20c2 b53b
00000080: 9c48 bfba 9ed1 313c d2e1 8ebb b82b 833c
00000090: 5e9e 363c a201 28b9 543b 61bc 03a7 64bb
000000a0: bc13 193b f9d8 cb3b 10ba e1bc 1385 69bc
000000b0: d985 a0bc 6c75 c73c f51f c43b d3f9 3f3c
000000c0: e26a 6cbc 3c1b 41bb
-0.0061976584 0.017834434 0.0062679155 -0.006241144 0.0023413855 0.010044487 -0.004803307 -0.016050912
0.0072109224 -0.00441869 0.010094482 0.006999698 -0.0010436557 0.011789508 -0.001094959 0.024087936
0.0016937326 -0.01118402 0.014153831 0.01174157 0.00023891019 0.0051742527 -0.0077797365 -0.001368143
-0.015506707 -0.013786701 0.0035791218 -0.0045940247 -0.017523976 -0.017213976 0.0033848379 0.005546823
-0.0014593783 0.010853199 -0.004360416 0.016012058 0.011146156 -0.00016022337 -0.013747055 -0.0034889586
0.002335771 0.0062209335 -0.027554542 -0.014252919 -0.019595074 0.024347983 0.005985255 0.011717278
-0.01442978 -0.0029465696

ln2.weight f4 [50]
00000000: 9b7c 703f 8e0a 6e3f f746 6e3f ba2f 6d3f
00000010: 82c7 713f 3d79 6c3f ddce 723f 6fe8 7b3f
00000020: 4c25 703f a050 6c3f d894 713f a15b 6c3f
00000030: 4c93 6f3f 3b9b 743f e42c 6f3f 0da4 6c3f
00000040: 483e 733f edfc 6e3f 4697 6c3f bc70 6f3f
00000050: acf9 6e3f 2801 703f 2bf2 6b3f b457 6c3f
00000060: 0f1c 6b3f 87da 6a3f dc5f 6c3f cba7 6b3f
00000070: ab6c 7a3f 38b7 6b3f b1ca 6f3f ef1a 6f3f
00000080: 37ec 713f 32d7 703f 534a 6e3f 6890 6c3f
00000090: f899 6c3f 9209 6c3f e862 6b3f c09c 733f
000000a0: ca18 6f3f 1e6a 6e3f 6f7f 713f 5fb4 7c3f
000000b0: 90e6 703f 2b72 6c3f 2346 733f 5347 703f
000000c0: 64cb 6a3f b11f 6c3f
0.9394013 0.92984855 0.93077034 0.9265095 0.9444505 0.92372495 0.948469 0.9840154
0.9380691 0.92310524 0.9436774 0.92327315 0.9358413 0.9554936 0.9342787 0.9243782
0.9501691 0.93354684 0.92418325 0.93531394 0.9334972 0.93751764 0.92166394 0.92321324
0.9183969 0.91739696 0.9233377 0.92052907 0.97822064 0.92076445 0.9366866 0.9340047
0.9450106 0.9407836 0.9308216 0.92407846 0.9242244 0.92202103 0.91947794 0.95161057
0.933972 0.9313067 0.94335073 0.98712724 0.9410181 0.92361706 0.95028895 0.9385883
0.917166 0.9223586

ln2.bias f4 [50]
00000000: d4aa 9bbb 6ca9 78bb b22a aeba eb14 123b
00000010: 7ee8 45bb 7162 9fba 7689 45bc 2fbb f3bc
00000020: cb1a b8bb a71a 32bb 0ce9 7e3b 91f9 5b3a
00000030: 67cf 24bc b493 ff3b a42c 1dbc 6015 17bb
00000040: ce0b 36ba 2fef adbb 1768 e3ba 779b efbb
00000050: 70ef f1bb d958 c0bb 77f3 8abb 616f acb8
00000060: 070f 78bb 9d54 6ebb f70c 73ba 6df4 6abb
00000070: bf7b 7fbc 122b 44bb 3744 aabb 6a1e e0bb
00000080: bf6e 2f3b e2d2 53bb 9425 9bbb b235 0c3a
00000090: be0c feba d8e6 9bbb b4db 8fbb 0da4 ddbb
000000a0: 59fe 28bc 244b 4bba ee39 1bbc 4cc1 babc
000000b0: 4ccc 2bbc 3232 dfb9 fa6c 1abb 18cd 15bb
000000c0: b711 8abb 4af0 d5ba
-0.004750589 -0.003794278 -0.0013287871 0.00222903 -0.003019839 -0.0012160075 -0.012056699 -0.029752342
-0.0056184283 -0.002717653 0.003889623 0.00083913753 -0.010059214 0.00779959 -0.009593163 -0.0023053512
-0.0006944508 -0.005308054 -0.0017349747 -0.007312234 -0.0073832795 -0.0058699665 -0.004240449 -8.222345e-05
-0.0037850754 -0.0036366351 -0.0009271646 -0.0035851256 -0.015593468 -0.0029932898 -0.00519612 -0.006839563
0.002676889 -0.003232174 -0.0047347043 0.00053485774 -0.001938246 -0.0047577433 -0.0043902043 -0.006763941
-0.010314547 -0.0007755032 -0.009474261 -0.02279725 -0.01048572 -0.00042571273 -0.002356349 -0.002285784
-0.0042135376 -0.0016322222
