Source_combined/ckps/seizure/source/Except_S44/source_F.pt (torch, 557199 bytes, 8 tensors)

fc1.weight f4 [100, 1332]
0.008028211 3.162109e-05 -0.02116384 0.003669301 0.0092846975 0.019900965 -0.011109636 0.014744717
0.0056551034 -0.025848696 -0.017640028 -0.022145094 0.0034098087 0.013220302 0.011191631 -0.02288839
0.013999384 0.0092286505 -0.0094094835 0.0009288721 0.0138794845 0.008642746 0.0059335395 0.004631033
-0.0057501956 -0.006034783 -0.0028954286 0.01904627 -0.018368261 -0.01671264 -0.013980567 -0.01687515
0.006540648 0.024224738 0.02268174 0.017167024 -0.013154628 0.013574163 0.0081746 -0.023194054
0.00618694 -0.022816485 -0.022921538 -0.015395575 -0.006962546 -0.00045614465 0.0037008899 0.00095335534
0.004809767 -0.014841221 -0.016769303 0.020730503 0.022800045 0.01779956 0.0005224925 0.010387251
0.017545268 0.016940422 -0.006993856 -0.03044577 -0.014723497 -0.026970228 0.016758434 0.00061295566
-0.01788759 -0.02260942 -0.01151419 0.0082667405 0.020432597 -0.023131447 -0.010311668 0.022338193
0.009268938 0.016676791 0.021300849 -0.010955009 -0.0072039533 0.014847559 0.005695926 -0.0027722113
0.012408199 -0.0036119248 -0.0072039715 -0.004157469 -0.031660043 0.007628535 0.015027624 -0.022161817
0.0028111178 -0.016474659 -0.024682475 0.0081175035 -0.018167933 0.015959237 0.006990539 -0.0142494645
-0.013101896 -0.013495265 0.005980063 -0.004132049 0.009745027 -0.005003735 0.0036115344 -0.0068666395
-0.002198141 -0.0055539277 0.0238907 0.011313876 -0.0050204312 -0.017579786 0.004600865 -0.026253093
-0.023678191 -0.01133144 -0.019024154 -0.009530639 0.008826079 0.017286675 -0.01308116 -0.02284562
0.020535251 0.016292023 0.018396689 0.015910855 0.02684088 9.0004796e-05 -0.0085420115 -0.025141582
0.01623037 -0.003640279 0.0060244645 -0.025970427 0.0020831912 0.021279307 0.016605742 0.006262657
-0.0028496145 0.01554932 0.015531721 -0.022700217 -0.0032779353 0.019007748 0.013325073 0.0016986576
0.0060691833 0.0019998592 -0.011337833 0.009678998 0.0023611884 -0.02253178 0.002129247 0.011445113
-0.004583979 0.022394659 0.013477065 -0.029895179 0.0065145353 0.015757952 0.011711276 0.012308483
-0.0150870755 -0.015236956 -0.005912319 -0.0148930745 0.018679436 -0.005448957 -0.0029403544 0.005530666
-0.012762111 -0.002384582 0.016665308 -0.0031551977 -0.025677303 -0.0055162343 0.010189654 -0.0035837116
0.018386438 0.004456446 0.007866081 -0.017619547 -0.0039059587 0.011646215 0.0046952693 0.01488278
-0.0016447174 0.014330926 0.0009653313 -0.0070815496 -0.018420845 -0.012726488 0.013990636 -0.009686027
-0.011609239 0.0023834691 0.0008883621 0.0035139453 0.010695848 0.0017265182 -0.005797913 -0.008944301
0.0018000539 0.024307594 4.0543882e-06 0.000868162 0.00090816646 0.023011694 -0.020648487 -0.0051628603
-0.021943359 0.01196803 -0.025043964 -0.022337688 -0.008966308 -0.012369194 -0.008977031 0.012675081
-0.0042657256 0.007326418 -0.024298577 -0.015580056 0.0146744205 -0.003274786 0.0049018217 -0.013612002
0.02002418 0.011963063 -0.016180966 0.011629545 -1.2863913e-05 0.01735916 -0.008522372 0.006127499
-0.0060327756 0.009491715 -0.016507847 -0.012400538 -0.025581848 0.024964247 0.014688635 0.010368369
-0.013228989 0.017826801 -0.014641156 0.02286409 0.02705886 0.012823193 -0.008091921 -0.018420832
0.008854066 0.016749395 -0.02464066 -8.8511195e-05 -0.0109053515 0.01371835 0.011168834 0.01752401
00000000: c288 033c e3a0 0438 ca5f adbc a878 703b
00000010: d81e 183c 5907 a33c 3105 36bc d393 713c
00000020: 724e b93b a5c0 d3bc d281 90bc a169 b5bc
00000030: 1977 5f3b f799 583c 1a5d 373c 6f80 bbbc
00000040: ac5d 653c c433 173c 3c2a 1abc 8d7f 733a
00000050: c766 633c 4e9a 0d3c 236e c23b ecbf 973b
00000060: 236c bcbb 6ebf c5bb 3bc1 3dbb ec06 9c3c
00000070: 0979 96bc f2e8 88bc c00e 65bc c13d 8abc
00000080: ef52 d63b f572 c63c 0ecf b93c dca1 8c3c
00000090: 8286 57bc 2b66 5e3c c2ee 053c 7501 bebc
000000a0: d0bb ca3b a3e9 babc f3c5 bbbc b93d 7cbc
000000b0: 1226 e4bb b326 efb9 a18a 723b 98ea 793a
000000c0: 409b 9d3b 9828 73bc c75f 89bc 04d3 a93c
000000d0: 29c7 ba3c 62d0 913c e1f7 083a 4a2f 2a3c
000000e0: 18bb 8f3c a4c6 8a3c b72c e5bb 6869 f9bc
000000f0: d33a 71bc abf0 dcbc fc48 893c c2ae 203a
00000100: ff88 92bc 6437 b9bc 03a6 3cbc 3971 073c
00000110: 4362 a73c 297e bdbc 45f2 28bc 96fe b63c
00000120: bedc 173c c49d 883c 1e7f ae3c a37c 33bc
00000130: 240f ecbb 2d43 733c e4a4 ba3b fdad 35bb
00000140: c24b 4b3c 0bb6 6cbb 4b0f ecbb 613b 88bb
00000150: f6ad 01bd caf8 f93b 6c36 763c b38c b5bc
00000160: bb3a 383b ddf5 86bc e732 cabc 47ff 043c
00000170: ebd4 94bc f2bc 823c e410 e53b 9676 69bc
00000180: 56a9 56bc 3e1b 5dbc 68f4 c33b 2466 87bb
00000190: 9ba9 1f3c 5ff6 a3bb 7eaf 6c3b 8c01 e1bb
000001a0: b00e 10bb b9fd b5bb 6eb6 c33c d65d 393c
000001b0: 6e82 a4bb 7c03 90bc dac2 963b ba10 d7bc
000001c0: c4f8 c1bc 81a7 39bc 8bd8 9bbc 6626 1cbc
000001d0: 429b 103c c99c 8d3c 5d52 56bc bd26 bbbc
000001e0: 8b39 a83c d976 853c a7b4 963c 7b57 823c
000001f0: 68e1 db3c f5c0 bc38 cbf3 0bbc b8f5 cdbc
00000200: 8ef5 843c bf91 6ebb df68 c53b efbf d4bc
00000210: 2686 083b f151 ae3c c408 883c fa36 cd3b
00000220: 99c0 3abb 93c2 7e3c c278 7e3c cef5 b9bc
00000230: a1d2 56bb 23b6 9b3c 6851 5a3c 7ea5 de3a
00000240: 00e0 c63b 1210 033b 51c2 39bc a994 1e3c
00000250: 2bbe 1a3b 9194 b8bc d68a 0b3b 4984 3b3c
00000260: 3435 96bb 0175 b73c e8ce 5c3c bce6 f4bc
00000270: e277 d53b d216 813c a7e0 3f3c 85a9 493c
00000280: c82f 77bc 6da4 79bc 20bc c1bb 1502 74bc
00000290: 9e05 993c 2a8d b2bb f6b2 40bb 973a b53b
000002a0: 2c18 51bc a646 1cbb af85 883c 6fc7 4ebb
000002b0: 3559 d2bc 87c1 b4bb 82f2 263c b4dc 6abb
000002c0: 289f 963c 6107 923b bce0 003c de56 90bc
000002d0: 1dfb 7fbb c4cf 3e3c c6da 993b e7d6 733c
000002e0: 8f93 d7ba 43cc 6a3c 490e 7d3a 580c e8bb
000002f0: 50e7 96bc c282 50bc fb38 653c 24b2 1ebc
00000300: ad34 3ebc fa33 1c3b f9e0 683a 384a 663b
00000310: a33d 2f3c 564c e23a 6bfc bdbb 1e8b 12bc
00000320: c9ef eb3a b820 c73c ee0a 8836 5e95 633a
00000330: 0512 6e3a 0583 bc3c 0427 a9bc 362d a9bb
00000340: 8fc2 b3bc 8e15 443c 0029 cdbc 87fd b6bc
00000350: 6ce7 12bc 29a8 4abc 6614 13bc 25ab 4f3c
00000360: 80c7 8bbb 7312 f03b cf0d c7bc 7e43 7fbc
00000370: fb6c 703c cb9d 56bb 769f a03b e004 5fbc
00000380: c009 a43c b900 443c f28d 84bc d989 3e3c
00000390: 16d2 57b7 cc34 8e3c 6ba1 0bbc 30c9 c83b
000003a0: 97ae c5bb 2383 1b3c 773b 87bc a02b 4bbc
000003b0: 0691 d1bc d281 cc3c 9aa8 703c 17e0 293c
000003c0: 67be 58bc 8309 923c 76e1 6fbc 794d bb3c
000003d0: 8baa dd3c 5f18 523c fa93 04bc 49e7 96bc
000003e0: a510 113c 0736 893c 36db c9bc 169f b9b8
000003f0: 5cac 32bc eec2 603c 7cfd 363c 838e 8f3c

fc1.bias f4 [100]
0.025319867 -0.00062093773 -0.020185174 0.048041057 0.014861841 -0.03461514 -0.0057654595 0.003433063
0.0021361054 0.0016727851 0.027681602 0.023965623 -0.011846608 -0.006692117 -0.010975886 -0.0063855583
0.006181482 0.00828531 0.0023528128 0.020293687 0.0036112748 -0.0074768118 0.033410512 0.010699292
0.0013824975 0.01588784 -0.012233939 -0.020646378 -0.0059508425 0.011136916 -0.045137424 0.0077622123
0.009606279 -0.02209597 -0.0048442404 0.0014095248 -0.026976954 0.010552193 -0.00963489 -0.013609597
0.01413358 -0.0032071539 -0.013496116 0.0072983406 0.0028713932 -0.011825004 -0.013237755 -0.0068814363
0.015707212 -0.03838242 0.017214734 0.0086660925 -0.0017391932 -0.017742662 -0.008869817 -0.0069077923
0.015975188 0.0052449694 -0.004820816 0.010516933 -0.009898501 0.023474563 -0.050909802 -0.02320452
-0.040000882 -0.019334046 0.004268494 -0.009347816 -0.027587047 0.009621867 0.04781453 -0.010434813
-0.0059000663 0.014193373 -0.006074903 -0.0068172663 -0.017095992 0.0030138667 -0.0047192536 -0.016329845
-0.008779821 -0.013771105 -0.008533513 -0.030321203 0.0071802903 0.010521649 -0.010386469 0.007868445
0.012943317 -0.023603782 -0.01862127 0.03969747 0.02238704 0.005187066 -0.0009652374 0.012123948
0.008882201 -0.0063818316 -0.012714326 -0.009769677
00000000: 9c6b cf3c 6dc6 22ba 615b a5bc b3c6 443d
00000010: 147f 733c 9bc8 0dbd 2eec bcbb 3dfd 603b
00000020: e7fd 0b3b 5b41 db3a 87c4 e23c 8e53 c43c
00000030: 4618 42bc 8c49 dbbb 34d4 33bc f23d d1bb
00000040: 088e ca3b 1cbf 073c a631 1a3b f23e a63c
00000050: 23ab 6c3b 0b00 f5bb 76d9 083d 154c 2f3c
00000060: eb34 b53a 3727 823c dc70 48bc 9822 a9bc
00000070: 49ff c2bb 9c77 363c 05e2 38bd 285a fe3b
00000080: a863 1d3c 9c02 b5bc 6fbc 9ebb cebf b83a
00000090: c6fe dcbc 1be3 2c3c a8db 1dbc cafa 5ebc
000000a0: 8890 673c 1d2f 52bb d01e 5dbc eb26 ef3b
000000b0: fc2d 3c3b a9bd 41bc 2be3 58bc ac7d e1bb
000000c0: 69ac 803c e236 1dbd ea05 8d3c 3afc 0d3c
000000d0: a4f5 e3ba 0f59 91bc b552 11bc c35a e2bb
000000e0: 66de 823c fedd ab3b f0f7 9dbb 374f 2c3c
000000f0: 532d 22bc ba4d c03c cc86 50bd 6817 bebc
00000100: f7d7 23bd 6f62 9ebc b9de 8b3b 9527 19bc
00000110: 3bfe e1bc 09a5 1d3c 2bd9 433d c7f6 2abc
00000120: 5855 c1bb 528b 683c fb0f c7bb 6063 dfbb
00000130: e50c 8cbc 4b84 453b f8a3 9abb 2bc6 85bc
00000140: 3dd9 0fbc 33a0 61bc 26d0 0bbc 2c64 f8bc
00000150: a448 eb3b ff62 2c3c 022c 2abc a6ea 003c
00000160: 3510 543c b85c c1bc a28b 98bc d099 223d
00000170: 0765 b73c 43f8 a93b fc07 7dba 86a3 463c
00000180: a786 113c af1e d1bb c04f 50bc ff10 20bc

ln1.weight f4 [100]
0.95922595 0.96353203 0.96294934 0.9648419 0.9633497 0.9616884 0.96059805 0.9672567
0.95933497 0.9515348 0.9584554 0.9596774 0.9627597 0.9639491 0.9575731 0.9635111
0.9613526 0.9671748 0.956682 0.9540967 0.9644616 0.95541954 0.9690638 0.9577132
0.9588838 0.95927054 0.95591277 0.95811874 0.96339566 0.95839083 0.9697099 0.9670178
0.95944357 0.9628268 0.9564764 0.9676323 0.9649096 0.9489471 0.95385724 0.95750064
0.96196634 0.96472794 0.9553554 0.9571434 0.9587511 0.9622516 0.9658587 0.9608613
0.9613314 0.9634107 0.96370775 0.9662402 0.97331816 0.9604269 0.9532636 0.9594771
0.9647473 0.9564325 0.9590544 0.9557263 0.961148 0.96667403 0.96183574 0.9632506
0.96067 0.95741594 0.9602654 0.9656213 0.96906453 0.9625049 0.9584048 0.9653709
0.95886403 0.9599711 0.96934247 0.95627815 0.9613655 0.96323997 0.954087 0.9566068
0.9582399 0.9556029 0.9552438 0.9580814 0.96608347 0.9653279 0.9560874 0.9588884
0.9549209 0.9625677 0.96342164 0.95439065 0.9678962 0.96084034 0.96891516 0.96522313
0.9595576 0.96180177 0.96417373 0.96194404
00000000: d58f 753f 09aa 763f d983 763f e1ff 763f
00000010: 169e 763f 3631 763f c1e9 753f 239e 773f
00000020: fa96 753f c997 733f 555d 753f 6bad 753f
00000030: 6b77 763f 5ec5 763f 8323 753f aaa8 763f
00000040: 341b 763f c598 773f 1de9 743f ae3f 743f
00000050: f5e6 763f 6096 743f 9114 783f b12c 753f
00000060: 6979 753f c192 753f b3b6 743f 4547 753f
00000070: 19a1 763f 1a59 753f e83e 783f 7b8e 773f
00000080: 189e 753f d17b 763f a3db 743f c0b6 773f
00000090: 5104 773f 32ee 723f fd2f 743f c31e 753f
000000a0: 6d43 763f 69f8 763f 2c92 743f 5a07 753f
000000b0: b670 753f 1f56 763f 8442 773f 02fb 753f
000000c0: d119 763f 15a2 763f 8db5 763f 855b 773f
000000d0: 612b 793f 8ade 753f 1509 743f 4ba0 753f
000000e0: aef9 763f c3d8 743f 9784 753f 7baa 743f
000000f0: cc0d 763f f377 773f de3a 763f 9797 763f
00000100: 78ee 753f 3619 753f f4d3 753f f532 773f
00000110: 9d14 783f b966 763f 045a 753f 8c22 773f
00000120: 1d78 753f aac0 753f d426 783f a5ce 743f
00000130: 0d1c 763f e596 763f 0c3f 743f 2fe4 743f
00000140: 364f 753f 64a2 743f dc8a 743f d344 753f
00000150: 3f51 773f bb1f 773f 25c2 743f b679 753f
00000160: b275 743f d66a 763f cda2 763f f252 743f
00000170: 0cc8 773f a2f9 753f d30a 783f dd18 773f
00000180: 91a5 753f a438 763f 17d4 763f f741 763f

ln1.bias f4 [100]
-0.0012930462 0.005307277 -0.006147643 -0.0015670924 -0.00063949067 -0.0073017036 0.00021835114 -0.001569897
-0.0064602396 -0.015190758 -0.008060227 -0.0021111667 -0.002236106 -0.0033784234 -0.009202892 -7.9551886e-05
-0.00465872 0.0006943 -0.004309067 -0.010194362 -0.006234752 -0.011886235 -0.00198839 -0.006395037
-0.00155195 -0.00810633 -0.014821735 -0.0068558203 0.00010293182 -0.0036783256 -0.0048179175 -0.002144787
-0.00424685 -0.00428609 -0.007814975 0.0028994256 -0.005915712 -0.013360563 -0.007177858 -0.011176088
-0.0049178246 0.001160547 -0.0045035 -0.008561988 -0.010640959 -0.00547385 0.0031624048 -0.005461533
-0.0044166823 -0.0061381473 -0.0015937279 0.002524699 0.0013386263 -0.0023742337 -0.015378282 -0.0020706805
0.00028337602 -0.009136374 -0.0051790043 -0.0051965592 -0.0062960857 -0.0126035195 -0.0045537516 -0.0032360505
-0.008502711 -0.010747757 -0.004771199 -0.0031896404 0.00263739 -0.00047225214 -0.011083487 -0.0019229415
-0.0031394633 -0.0023659733 -0.0052713864 -0.016794961 -0.01074237 -0.0043883324 -0.009554065 -0.006213443
-0.0026260808 -0.007383522 -0.00845037 -0.014125021 0.0016603693 0.000109104985 -0.0058964835 -0.0025764944
-0.0075093103 -0.0033344007 -0.0033642617 -0.011157176 0.00023173245 -0.0027287896 -0.005025087 -0.0021437102
-0.007691482 -0.0022997174 0.0021222592 -7.782296e-05
00000000: 6e7b a9ba abe8 ad3b 2b72 c9bb e566 cdba
00000010: 7ea3 27ba 2143 efbb 30f5 6439 01c5 cdba
00000020: 6bb0 d3bb a8e2 78bc 0b0f 04bc 805b 0abb
00000030: a28b 12bb 8a68 5dbb bac7 16bc 18d5 a6b8
00000040: 2da8 98bb af01 363a 1333 8dbb 4106 27bc
00000050: e44c ccbb 7cbe 42bc a64f 02bb 758d d1bb
00000060: cd6a cbba 6ad0 04bc ddd6 72bc caa6 e0bb
00000070: 1add d738 1010 71bb 9fdf 9dbb 8e8f 0cbb
00000080: 2929 8bbb 5472 8cbb 620a 00bc 4a04 3e3b
00000090: 97d8 c1bb 43e6 5abc 3d34 ebbb e91b 37bc
000000a0: b425 a1bb 7f1d 983a 1992 93bb 9547 0cbc
000000b0: 6b57 2ebc fb5d b3bb 5940 4f3b a9f6 b2bb
000000c0: d1b9 90bb 8322 c9bb a2e4 d0ba 6c75 253b
000000d0: d874 af3a 0899 1bbb 31f5 7bbc 41b4 07bb
000000e0: 1692 9439 bbb0 15bc a3b4 a9bb e647 aabb
000000f0: 654f cebb fe7e 4ebc a337 95bb eb13 54bb
00000100: f44e 0bbc 5c17 30bc b857 9cbb 4909 51bb
00000110: 10d8 2c3b 9c98 f7b9 8497 35bc 360b fcba
00000120: 74bf 4dbb 720e 1bbb 98bb acbb 9695 89bc
00000130: c400 30bc 00cc 8fbb a788 1cbc 239a cbbb
00000140: 531a 2cbb 79f1 f1bb 6c73 0abc a26c 67bc
00000150: c0a0 d93a 4bcf e438 4a37 c1bb 67da 28bb
00000160: a910 f6bb f685 5abb f27a 5cbb 97cc 36bc
00000170: 35fd 7239 7ed5 32bb 7ca9 a4bb 7d7d 0cbb
00000180: d408 fcbb dbb6 16bb 9a15 0b3b e234 a3b8

fc2.weight f4 [50, 100]
-0.11824013 -0.04252462 -0.14801893 0.052508157 -0.1786488 -0.069648296 -0.12300276 0.114047416
-0.12709288 -0.3381429 -0.1278042 0.15293027 -0.015420066 0.033550005 -0.09294447 0.017197791
0.10019468 -0.011929452 -0.10402845 0.14464211 -0.21168852 0.121577 0.12643398 0.07750163
-0.034809854 -0.15248051 0.024535704 0.022259962 0.13184223 -0.00075336435 0.023202684 -0.23427702
-0.24993663 -0.035465814 -0.19982928 0.019711537 -0.014299003 0.006623887 0.0032092026 -0.1162681
0.056688398 0.114749126 0.051982507 0.023857491 0.18459976 0.085331984 0.078754894 0.12636721
-0.12554833 0.0453865 -0.10879118 -0.012693565 -0.029240888 -0.056284767 -0.056891546 0.103035904
0.13601986 -0.13027622 0.14434354 0.0041589914 -0.15916665 -0.14978875 -0.0031711215 0.1278839
0.021851147 -0.009911542 0.13693364 0.08782741 -0.15020671 0.18166958 0.10809776 -0.031801656
0.020529503 0.08176953 0.0017551695 0.029968932 -0.03594386 0.15937957 -0.15762113 -0.021453675
-0.024338065 -0.16263708 0.0946833 -0.031177051 0.01647232 0.036905333 -0.3038163 -0.19717614
-0.036381368 -0.087901585 -0.122768566 0.1593681 -0.17657027 0.024117908 0.12800838 -0.043269902
-0.100423224 0.02126169 -0.05570272 0.010610132 0.040714018 -0.15465973 -0.11076579 -0.091970794
0.09559076 -0.05031813 0.019577641 0.09211895 -0.10579595 0.31700417 -0.0030390585 0.025820784
0.020424146 0.23491515 0.062893346 0.035261903 -0.032386392 -0.14199573 0.013212969 0.13054991
0.097988315 0.05199658 0.11479349 -0.06021077 0.12766252 0.15207052 0.046245784 -0.20624515
-0.13534111 -0.03142387 -0.0011789391 0.1450957 -0.14761436 -0.00039740655 -0.05873085 -0.028344873
0.095929496 -0.17339516 0.030908987 0.037937112 0.0740673 0.069865815 0.1668141 0.11264681
0.0033456578 0.086733095 0.0070885895 -0.21154664 -0.13101515 0.016261896 0.008116488 -0.28701317
-0.06934665 0.0891295 -0.12489608 -0.077471465 0.07991768 0.136088 0.06354863 0.10536638
0.03930657 0.085729346 -0.08975558 0.08103323 -0.09108056 -0.006923547 -0.0972195 0.0062701977
0.042685 0.066304535 0.040556896 -0.052710846 0.049852513 0.1356185 0.12842892 0.035055075
0.04099737 -0.005377084 0.018500105 -0.032122485 -0.08453356 -0.038926378 0.055124797 -0.1766363
-0.030730322 0.13365458 -0.037879538 -0.06840955 0.15739407 -0.14074652 0.038514376 -0.052888386
-0.15292056 0.12646602 0.01776945 -0.12217781 -0.047342863 -0.1009627 -0.08629443 -0.28150094
-0.22181922 -0.039651394 -0.15932693 -0.079272404 -0.07088841 0.060837768 -0.28759742 0.035852566
-0.023430033 0.21715632 -0.1521928 -0.14811078 0.2586363 -0.050077397 -0.06252338 0.15645367
0.26348028 -0.1541014 -0.04998251 0.14934991 -0.04751568 0.04867834 -0.1168787 -0.13033977
-0.243257 -0.0195734 0.113110654 0.28123736 -0.051155765 0.006386717 -0.056944203 0.07060958
-0.031303525 0.029476698 0.010319498 0.10122705 0.14837453 -0.15072827 -0.23207983 0.23542571
0.18458289 0.16253701 0.04640989 0.20440668 0.07731621 0.05575971 -0.13908707 0.050427243
-0.21279642 0.009426888 0.1532872 -0.06911694 0.026393497 -0.14722623 0.06859932 -0.09654682
00000000: e227 f2bd 4c2e 2ebd 4692 17be cb12 573d
00000010: b6ef 36be c4a3 8ebd dfe8 fbbd b191 e93d
00000020: a324 02be 1121 adbe 1bdf 02be c199 1c3e
00000030: 72a4 7cbc bb6b 093d ac59 bebd 62e2 8c3c
00000040: de32 cd3d c073 43bc de0c d5bd 101d 143e
00000050: e0c4 58be 5dfd f83d e977 013e 2db9 9e3d
00000060: c794 0ebd da23 1cbe 1aff c83c 865a b63c
00000070: a601 073e 6d7d 45ba 8e13 be3c 51e6 6fbe
00000080: 63ef 7fbe 9a44 11bd 0ca0 4cbe 177a a13c
00000090: 5e46 6abc 310d d93b 7c51 523b f81d eebd
000000a0: 1832 683d 9701 eb3d 9ceb 543d c970 c33c
000000b0: b807 3d3e 89c2 ae3d 3f4a a13d 6866 013e
000000c0: be8f 00be 32e7 393d e9cd debd acf8 4fbc
000000d0: 968a efbc db8a 66bd 1c07 69bd 7d04 d33d
000000e0: ca48 0b3e 2167 05be cbce 133e 2648 883b
000000f0: 95fc 22be 3962 19be 97d2 4fbb fff3 023e
00000100: 2d01 b33c 0564 22bc 5538 0c3e dbde b33d
00000110: cacf 19be 9707 3a3e 5c62 dd3d 7442 02bd
00000120: 7d2d a83c c976 a73d b70d e63a 6881 f53c
00000130: de39 13bd 6634 233e 6f67 21be 9ebf afbc
00000140: 9f60 c7bc 568a 26be 51e9 c13d 0467 ffbc
00000150: f5f0 863c 0c2a 173d cf8d 9bbe 8be8 49be
00000160: a104 15bd bf05 b4bd 166e fbbd 6431 233e
00000170: d6ce 34be eb92 c53c a114 033e c83b 31bd
00000180: b1aa cdbd ff2c ae3c 8928 64bd 1ed6 2d3c
00000190: bec3 263d 1f5f 1ebe 2dd9 e2bd 2f5b bcbd
000001a0: 17c5 c33d 621a 4ebd 4a61 a03c dca8 bc3d
000001b0: 8cab d8bd 5f4e a23e f12a 47bb 1c86 d33c
000001c0: 8a50 a73c 998d 703e 3ace 803d c96e 103d
000001d0: 98a7 04bd 5467 11be 357b 583c e0ae 053e
000001e0: 19ae c83d 5efa 543d d918 eb3d 929f 76bd
000001f0: f7b9 023e 60b8 1b3e 386c 3d3d ee31 53be
00000200: dc96 0abe 51b6 00bd a286 9aba f893 143e
00000210: 3828 17be 015b d0b9 c38f 70bd 8233 e8bc
00000220: af76 c43d 808e 31be d834 fd3c f263 1b3d
00000230: 99b0 973d cf15 8f3d 51d1 2a3e 5fb3 e63d
00000240: d342 5b3b 1fa1 b13d 6647 e83b af9f 58be
00000250: d628 06be ab37 853c 05fb 043c 64f3 92be
00000260: 9e05 8ebd 8789 b63d 84c9 ffbd 5ca9 9ebd
00000270: e1ab a33d a75a 0b3e c925 823d 54ca d73d
00000280: edff 203d de92 af3d c6d1 b7bd c0f4 a53d
00000290: 7288 babd ecde e2bb 041b c7bd 3b76 cd3b
000002a0: 77d6 2e3d acca 873d fd1e 263d 54e7 57bd
000002b0: 2632 4c3d 93df 0a3e df82 033e e995 0f3d
000002c0: dcec 273d 4032 b0bb 888d 973c de92 03bd
000002d0: ee1f adbd 4471 1fbd 8aca 613d 25e0 34be
000002e0: 28be fbbc bfdc 083e 9327 1bbd 4e1a 8cbd
000002f0: e92b 213e db1f 10be 40c1 1d3d 7ea1 58bd
00000300: 3597 1cbe 4f80 013e 3d91 913c 5c38 fabd
00000310: 97ea 41bd 88c5 cebd 22bb b0bd e420 90be
00000320: 9424 63be 8069 22bd 9926 23be 9259 a2bd
00000330: f12d 91bd 0631 793d f83f 93be 24da 123d
00000340: 57f0 bfbc 3a5e 5e3e 6ed8 1bbe 5aaa 17be
00000350: fa6b 843e f51d 4dbd 420c 80bd 6435 203e
00000360: e3e6 863e c2cc 1dbe 76ba 4cbd 2fef 183e
00000370: cd9f 42bd f062 473d 1a5e efbd ca77 05be
00000380: 5d18 79be 6558 a0bc 8fa6 e73d 58fe 8f3e
00000390: b588 51bd aa47 d13b 533e 69bd c19b 903d
000003a0: 2038 00bd 1e79 f13c 1d13 293c 2150 cf3d
000003b0: 7eef 173e 8358 1abe 56a6 6dbe 7013 713e
000003c0: 4c03 3d3e 1a70 263e 4c18 3e3d fc4f 513e
000003d0: f657 9e3d 4b64 643d d76c 0ebe cc8c 4e3d
000003e0: 4ee7 59be 3c73 1a3c 52f7 1c3e 2f8d 8dbd
000003f0: 2d37 d83c 79c2 16be cd7d 8c3d 57ba c5bd

fc2.bias f4 [50]
0.013076835 0.00052729505 -0.013265235 0.007643362 0.011701078 -0.021361977 8.957887e-06 -0.0050515793
0.004493066 0.012000669 -0.01591189 0.0137665 0.0037506158 -0.013749992 0.0053856135 0.0024812878
-0.00075561967 0.011516442 -0.0048331292 -0.005566719 -0.0064703873 0.00024787177 -0.0021215528 -0.008981861
-0.00030932916 -0.019525276 0.017628219 -0.007523766 0.002303516 -0.004140546 0.00014663328 0.0060232473
0.0068691354 0.01435613 0.004631906 -0.0052930955 0.0049644387 -0.010623794 -0.0030300317 -0.0031163336
-0.0002839922 0.008921011 -0.0005075539 0.007046706 -0.016026385 0.00618525 0.00021505494 0.005736522
-0.0071472237 0.0039698896
00000000: 3940 563c 2c3a 0a3a 6e56 59bc 2b75 fa3b
00000010: e1b5 3f3c 50ff aebc d549 1637 b887 a5bb
00000020: 923a 933b 749e 443c a759 82bc e38c 613c
00000030: e4cc 753b a547 61bc cd79 b03b 1a9d 223b
00000040: c714 46ba 75af 3c3c 3a5f 9ebb 0669 b6bb
00000050: 8b05 d4bb c9f4 8139 c009 0bbb a828 13bc
00000060: 752d a2b9 79f3 9fbc 0e69 903c ec89 f6bb
00000070: 96f6 163b 6bad 87bb 92c1 1939 a95e c53b
00000080: 7c16 e13b f935 6b3c 3ec7 973b b471 adbb
00000090: bbac a23b 6c0f 2ebc 7f93 46bb 673b 4cbb
000000a0: cae4 94b9 6f29 123c 5e0d 05ba 0ee8 e63b
000000b0: c449 83bc a3ad ca3b 5f80 6139 6ff9 bb3b
000000c0: 4233 eabb d915 823b

ln2.weight f4 [50]
0.964053 0.96218204 0.96244115 0.96972644 0.9678561 1.0042186 0.96600556 0.9687202
0.9599048 0.96236634 0.9968045 0.96291745 0.9712544 0.9576551 0.9657906 0.9623029
0.96055794 0.96687305 0.9594373 0.9618587 0.96207124 0.9769871 0.9715013 0.9873134
0.96373326 0.9627773 0.961251 1.0126841 0.960324 0.99387693 0.9616492 0.9606824
0.9612245 0.96098405 1.0072958 0.9599019 0.96446115 0.9585324 0.969953 0.9723226
0.96978414 0.97777337 0.9773914 0.9619087 0.9572769 0.9641805 0.96904814 0.9606278
0.95937645 0.9680973
00000000: 2dcc 763f 9051 763f 8b62 763f fe3f 783f
00000010: 6bc5 773f 3c8a 803f 244c 773f 0cfe 773f
00000020: 52bc 753f a45d 763f 942e 7f3f c281 763f
00000030: 21a4 783f e228 753f 0e3e 773f 7c59 763f
00000040: 20e7 753f fe84 773f af9d 753f 5f3c 763f
00000050: 4d4a 763f d41b 7a3f 4fb4 783f 92c0 7c3f
00000060: 39b7 763f 9378 763f 8c14 763f a29f 813f
00000070: cbd7 753f b86e 7e3f a42e 763f 48ef 753f
00000080: cf12 763f 0d03 763f 12ef 803f 22bc 753f
00000090: ede6 763f 6162 753f d74e 783f 22ea 783f
000000a0: c643 783f 5b4f 7a3f 5336 7a3f a63f 763f
000000b0: 1910 753f 89d4 763f 8a13 783f b4eb 753f
000000c0: b299 753f 3ad5 773f

ln2.bias f4 [50]
-0.00023857721 -0.0013170382 -0.002704227 -0.0014986857 0.00016260661 -0.011420981 0.001768965 -0.008816659
-0.0012052543 0.0014338752 -0.0054642092 0.0010367879 -0.0011195737 -0.0025588155 -0.00026564967 0.0005310657
-0.000428073 0.0028312134 -0.0019856186 -0.002577944 -0.0018341765 -0.0027465266 -0.0053472267 -0.0032125616
-0.00066165783 -0.0030082304 -1.6536707e-05 -0.009766782 -0.001385408 -0.0045804786 0.0011469806 -0.00021807422
0.0006370076 -0.00018746685 -0.0038133834 -0.0015219587 -0.0025089136 -0.0020650215 -0.003903586 0.0035319596
0.0021957369 -0.0009202448 -0.004747737 0.0008723318 -0.0019032012 -0.0012812454 -0.00039214102 5.9721715e-06
-0.0015004463 -0.0022418015
00000000: 952a 7ab9 78a0 acba 6739 31bb 8c6f c4ba
00000010: 6181 2a39 111f 3bbc 9edc e73a c073 10bc
00000020: a0f9 9dba def0 bb3a 1c0d b3bb d4e4 873a
00000030: a9be 92ba cdb1 27bb e546 8bb9 3737 0b3a
00000040: fc6e e0b9 e18b 393b 2721 02bb b9f2 28bb
00000050: c068 f0ba 12ff 33bb ca37 afbb d789 52bb
00000060: 1b73 2dba bb25 45bb 4fb8 8ab7 da04 20bc
00000070: 9496 b5ba d717 96bb 4856 963a daaa 64b9
00000080: dbfc 263a c092 44b9 f5e9 79bb 767c c7ba
00000090: 966c 24bb 5055 07bb 4ed3 7fbb 7378 673b
000000a0: 5ae6 0f3b 953c 71ba e892 9bbb 32ad 643a
000000b0: d674 f9ba 76ef a7ba 4798 cdb9 9064 c836
000000c0: a0aa c4ba 30eb 12bb
