Source_combined/ckps/seizure/source/Except_S40_sort/source_F.pt (torch, 557199 bytes, 8 tensors)

fc1.weight f4 [100, 1332]
-0.024026107 -0.0030931307 -0.0045649097 -0.007943007 0.01392761 -0.01503992 -0.026273835 0.02095471
-0.023082452 -0.00589926 -0.018529445 -0.01887538 0.012350441 0.010972079 -0.019230839 -0.0143350195
0.0045043477 -0.0014764238 0.009135764 -0.01254516 0.011227867 0.014956609 -0.024106916 0.017982004
0.023290392 0.0054583675 0.021952802 0.0142353 -0.009266618 -0.0031305174 -0.0133284535 -0.017473355
0.010792989 -0.014495112 -0.017821537 -0.011031485 -0.020433104 0.0002324811 0.024030292 -0.0014607741
-0.023403747 0.022546303 -0.020546537 0.01233938 0.027840149 0.024282971 0.012674942 -0.017858138
0.001218935 0.020000502 -0.005823982 -0.0014775671 -0.019742982 0.029277494 0.0039060381 0.010551487
0.030026255 0.011253678 0.011353844 -0.010144873 -0.014339848 0.008220082 0.029709239 -0.0034913474
0.030723987 0.02661004 -0.023151888 0.009075692 0.0041563837 0.007801135 -0.01966572 0.016538184
0.028023303 0.018084135 -0.016388841 -0.017337192 0.010255754 0.0099704685 0.018455468 -0.0049454817
-0.006128989 -0.010686238 -0.023740286 0.011703552 -0.007174421 0.026567407 -0.023759948 0.0042704656
0.012418426 0.018810432 0.016754342 -0.0074830577 -0.0192427 -0.0067764567 -0.0039735683 0.022653105
-0.02295391 -0.020363843 0.009331455 0.026533114 0.014737805 0.012512306 -0.0081574395 -0.004755526
0.013326278 -0.013901892 -0.007985004 -0.0090337545 -0.0018669913 0.013104876 0.0065120035 0.012269027
0.020617409 9.580564e-05 0.009942112 0.0040675025 -0.02263773 0.01671711 0.017816648 -0.0022686503
0.017257946 -0.020671526 0.017559448 -0.018454848 0.021519404 -5.2533996e-06 0.0024363948 0.02113637
0.009155325 -0.011809123 -0.009604134 0.021236664 -0.011916255 -0.010128332 0.0072424104 0.0140941115
0.0020305056 -0.010323453 0.026126955 -0.00388157 -0.003681279 -0.008036136 0.010277685 0.005222733
-0.000107076885 -0.017632678 0.02715965 0.0068831206 0.01960632 0.019390395 -0.0010003255 -0.01342571
0.022073843 -0.017053433 0.010465466 -0.00063719705 0.017802851 0.0037070578 -0.024126064 -0.021172902
0.024272054 -0.0052936673 0.018000148 0.02395687 0.0116475215 -0.0071517415 0.025883414 -0.011600171
-0.024526205 -0.00047699924 0.002591999 0.016855743 -0.0060532647 -0.0038204058 0.009549613 -0.017991602
0.0016391528 0.015874559 0.021237986 0.011160953 0.011715941 0.0122756455 0.0024426593 0.0038137652
0.0022098434 -0.010136531 0.022499587 -0.019451845 0.0005999831 -8.10624e-06 -0.0026940005 0.024117272
0.009398624 0.010297818 -0.013485983 0.0015601675 -0.023730706 0.0058898395 0.00021059703 -0.0019982324
0.0038610944 0.012895827 -0.0019644108 0.021223607 -0.021153903 -0.010594924 -0.0056503634 0.011002531
0.0038686069 0.009641964 -0.022622865 0.014440311 -0.0019974986 -0.006429914 -0.00610512 0.014975586
0.0022097863 0.026693037 -0.017915433 0.02229194 0.013976184 -0.0029207517 0.01996512 -0.00895257
-0.008240919 -0.014023546 0.0017784049 0.01420297 -0.012209653 0.0012340324 -0.007978285 0.030320367
-0.006569246 0.018226983 0.0063894275 0.011491415 0.019186275 0.010140131 0.012637893 -0.0107297255
0.020088406 0.026874166 -0.007788444 0.0067747445 0.017327338 0.024114506 -0.006055377 -0.00880144
-0.015177552 -0.014744498 0.015351812 -0.009391761 -0.015242193 -0.028308213 0.030649375 0.0058077513
00000000: 66d2 c4bc 1fb6 4abb 3d95 95bb 6323 02bc
00000010: a130 643c ff69 76bc 3a3c d7bc 36a9 ab3c
00000020: 6917 bdbc 944e c1bb 10cb 97bc 8aa0 9abc
00000030: 8159 4a3c 3cc4 333c fe89 9dbc 6edd 6abc
00000040: 3599 933b 9084 c1ba 2cae 153c 378a 4dbc
00000050: 16f5 373c 910c 753c de7b c5bc ff4e 933c
00000060: 7ecb be3c 1bdc b23b 5dd6 b33c 2d3b 693c
00000070: 03d3 17bc 5e29 4dbb 965f 5abc 4824 8fbc
00000080: 14d5 303c e87c 6dbc 79fe 91bc 67bd 34bc
00000090: 5363 a7bc 2cc6 7339 2ddb c43c 7277 bfba
000000a0: 37b9 bfbc 06b3 b83c 3651 a8bc 1c2b 4a3c
000000b0: 0611 e43c 15ed c63c 8faa 4f3c 3b4b 92bc
000000c0: acc4 9f3a 18d8 a33c 1ad7 bebb edaa c1ba
000000d0: 09bc a1bc 5bd7 ef3c 72fc 7f3b 25e0 2c3c
000000e0: 9ff9 f53c 5961 383c 7905 3a3c ae36 26bc
000000f0: aff1 6abc 86ad 063c ca60 f33c 17cf 64bb
00000100: dfb0 fb3c 4cfd d93c 07a9 bdbc 36b2 143c
00000110: 4632 883b aaa0 ff3b 011a a1bc 167b 873c
00000120: 2091 e53c 2e25 943c e441 86bc ba06 8ebc
00000130: c007 283c 2d5b 233c ec2f 973c b50d a2bb
00000140: b0d5 c8bb 5515 2fbc fd7a c2bc 41c0 3f3c
00000150: 6817 ebbb e4a3 d93c 39a4 c2bc 43ef 8b3b
00000160: a776 4b3c 5618 9a3c 6740 893c 7034 f5bb
00000170: dea2 9dbc 0a0d debb b534 82bb 0193 b93c
00000180: d709 bcbc 13d2 a6bc f6e2 183c f95b d93c
00000190: d676 713c 6a00 4d3c c8a6 05bc 3ed4 9bbb
000001a0: 7656 5a3c c3c4 63bc 89d3 02bc 5002 14bc
000001b0: d5b5 f4ba d5b5 563c a562 d53b 0704 493c
000001c0: d7e5 a83c 43eb c838 3de4 223c af48 853b
000001d0: c372 b9bc 52f2 883c 38f4 913c a3ad 14bb
000001e0: 8960 8d3c 5557 a9bc d5d8 8f3c 9f2e 97bc
000001f0: 7649 b03c 5c46 b0b6 ecab 1f3b 2e26 ad3c
00000200: 3700 163c 0d7b 41bc a85a 1dbc 83f8 ad3c
00000210: 653c 43bc 4ef1 25bc be51 ed3b fdea 663c
00000220: 3b12 053b b323 29bc 3208 d63c f061 7ebb
00000230: 9d41 71bb ffa9 03bc bc63 283c 7623 ab3b
00000240: 778e e0b8 6872 90bc ea7d de3c cd8b e13b
00000250: 6f9d a03c 9bd8 9e3c 5b1d 83ba 82f7 5bbc
00000260: 34d4 b43c a4b3 8bbc 5977 2b3c 9209 27ba
00000270: 49d7 913c 1cf2 723b 06a4 c5bc cb72 adbc
00000280: 30d6 c63c 8076 adbb 0c75 933c 3341 c43c
00000290: 3fd5 3e3c 2859 eabb 7409 d43c a50e 3ebc
000002a0: 2eeb c8bc c115 fab9 87de 293b 0e15 8a3c
000002b0: 775a c6bb c65f 7abb fb75 1c3c 2063 93bc
000002c0: d7d8 d63a 5d0b 823c 49fb ad3c 6edc 363c
000002d0: 38f4 3f3c ca1f 493c 0615 203b 5df0 793b
000002e0: 05d3 103b b113 26bc 0e51 b83c 7a59 9fbc
000002f0: 2f48 1d3a 0900 08b7 d48d 30bb 9691 c53c
00000300: b0fc 193c 2eb8 283c 50f4 5cbc 897e cc3a
00000310: e666 c2bc 8eff c03b b6d3 5c39 c7f4 02bb
00000320: 6a0a 7d3b 0549 533c 58bd 00bb 21dd ad3c
00000330: f34a adbc 5596 2dbc af26 b9bb f643 343c
00000340: 7488 7d3b 54f9 1d3c 9653 b9bc 0e97 6c3c
00000350: 77e8 02bb 07b2 d2bb 750d c8bb 295c 753c
00000360: 10d2 103b 5bab da3c 63c3 92bc 969d b63c
00000370: 5dfc 643c 156a 3fbb e48d a33c cdad 12bc
00000380: eb04 07bc 04c3 65bc 5e19 e93a 93b3 683c
00000390: ff0a 48bc 42bf a13a 5ab7 02bc 6b62 f83c
000003a0: d442 d7bb c150 953c 675e d13b 7d46 3c3c
000003b0: 892c 9d3c cb22 263c 2a0f 4f3c bbcb 2fbc
000003c0: 7190 a43c 3627 dc3c 3436 ffbb adfe dd3b
000003d0: 10f2 8d3c c98b c53c 2f6c c6bb ea33 10bc
000003e0: 44ab 78bc e892 71bc 2b86 7b3c e7df 19bc
000003f0: 64ba 79bc a0e6 e7bc 6614 fb3c f34e be3b

fc1.bias f4 [100]
0.0056614056 -0.018280452 -0.029256802 -0.0129101155 -0.025527954 -0.017589843 -0.0010373638 0.007262147
0.00824267 -0.017907592 0.003740679 -0.017538717 0.021962937 0.022006257 -0.0053444207 -0.0010258178
0.023803016 0.015521652 0.023371119 0.015834913 0.0042753187 -0.021412738 0.02518893 0.011799526
-0.014146192 -0.009722124 -0.016615724 -0.028883703 0.0028152228 0.023992604 0.035777684 -0.0059828465
0.0021850285 0.010198084 -0.037818637 0.03428065 0.012465867 -0.00898631 0.003256694 0.012700787
-0.035466056 0.007409168 -0.011320811 0.022878913 -0.017828476 0.007089759 -0.008083785 -0.0046484894
-0.016432451 -0.020595737 0.009984724 0.011705002 -0.017298425 -0.009727871 -0.011942172 0.003856111
-0.011486126 0.027785169 0.014482588 -0.03774152 0.03859343 0.024077863 0.013149347 0.015025898
0.022117388 0.017729135 0.0150535945 -0.009398933 0.020165507 0.0031236855 0.029475035 -0.03789713
0.027280362 0.030736797 -0.006673309 0.013502203 0.0020242576 -0.030261455 -0.022591433 0.003645982
0.03352155 0.015431273 0.00521974 0.022386713 0.038240697 0.05169167 0.0206215 -0.028357325
-0.020632148 0.035245966 0.032175153 0.014345435 -0.01976646 -0.007896336 0.01690893 -0.009902921
-0.011208826 -0.02690877 -0.0024791427 -0.0035056258
00000000: 5083 b93b e3c0 95bc f6ab efbc f384 53bc
00000010: 0020 d1bc 9318 90bc 27f8 87ba 4ef7 ed3b
00000020: 440c 073c f1b2 92bc 2e26 753b 5bad 8fbc
00000030: 9eeb b33c 7746 b43c 4020 afbb bc74 86ba
00000040: 8bfe c23c 874e 7e3c ca74 bf3c 38b8 813c
00000050: f917 8c3b c469 afbc 0459 ce3c cd52 413c
00000060: 6ec5 67bc 8b49 1fbc b31d 88bc 849d ecbc
00000070: 9a7f 383b 238c c43c 9f8b 123d c10b c4bb
00000080: b232 0f3b dd15 273c b7e7 1abd de69 0c3d
00000090: a33d 4c3c 513b 13bc 426e 553b f616 503c
000000a0: db44 11bd 9bc8 f23b ec7a 39bc 8f6c bb3c
000000b0: 060d 92bc 3651 e83b da71 04bc 5b52 98bb
000000c0: 599d 86bc 64b8 a8bc f896 233c 56c6 3f3c
000000d0: 6db5 8dbc a661 1fbc 1aa9 43bc cfb6 7c3b
000000e0: 4e30 3cbc b99d e33c 6048 6d3c da96 1abd
000000f0: 2514 1e3d f03e c53c 5c70 573c 2f2f 763c
00000100: 862f b53c b13c 913c 5aa3 763c fbfd 19bc
00000110: 2232 a53c bfb6 4c3b a175 f13c 053a 1bbd
00000120: 117b df3c bccb fb3c c6ab dabb 5838 5d3c
00000130: 68a9 043b dfe6 f7bc ab11 b9bc 6df1 6e3b
00000140: e54d 093d 73d3 7c3c 5a0a ab3b 5764 b73c
00000150: 47a2 1c3d a5ba 533d 6cee a83c 9f4d e8bc
00000160: c004 a9bc 135e 103d 18ca 033d 1e09 6b3c
00000170: 45ed a1bc a25f 01bc 9984 8a3c dc3f 22bc
00000180: 39a5 37bc c86f dcbc 1d79 22bb a4be 65bb

ln1.weight f4 [100]
0.92579585 0.92873853 0.925753 0.92274654 0.9264054 0.931419 0.9197228 0.9205489
0.92006797 0.9246396 0.92092216 0.91062945 0.9214153 0.91330034 0.921255 0.9247244
0.9259007 0.9128525 0.92074263 0.91732925 0.92564446 0.92595255 0.91990167 0.9239001
0.92865527 0.9317968 0.9365172 0.9223435 0.9258318 0.9286213 0.92310685 0.92448866
0.92912346 0.92067975 0.9314364 0.92518663 0.9254477 0.92271894 0.9244922 0.9197374
0.92136765 0.92421633 0.92266047 0.9162113 0.9276196 0.93024695 0.92242086 0.93067276
0.93423975 0.9283746 0.9312987 0.92477715 0.93365777 0.9177513 0.9203686 0.9173804
0.9278218 0.9301231 0.9230985 0.9150622 0.91832817 0.91992337 0.91977805 0.91856146
0.92560935 0.9209367 0.9289496 0.9282908 0.92280936 0.9273147 0.9149187 0.9236596
0.93873173 0.92400986 0.92914516 0.9312349 0.92369163 0.92764956 0.9295988 0.9102737
0.9201413 0.9165204 0.9253523 0.9167901 0.9267401 0.9382685 0.9216777 0.9370412
0.9268098 0.9239382 0.9128638 0.9230854 0.92316765 0.93195945 0.933102 0.930713
0.9234855 0.93888074 0.9222764 0.9165648
00000000: f500 6d3f cfc1 6d3f 26fe 6c3f 1e39 6c3f
00000010: e728 6d3f 7a71 6e3f f472 6b3f 18a9 6b3f
00000020: 9389 6b3f 2eb5 6c3f 8ec1 6b3f 031f 693f
00000030: e0e1 6b3f 0dce 693f 5ed7 6b3f bdba 6c3f
00000040: d407 6d3f b4b0 693f cab5 6b3f 17d6 6a3f
00000050: 09f7 6c3f 3a0b 6d3f ad7e 6b3f b884 6c3f
00000060: 5abc 6d3f 3c8a 6e3f 97bf 6f3f b41e 6c3f
00000070: 5003 6d3f 20ba 6d3f bb50 6c3f 4aab 6c3f
00000080: 09db 6d3f abb1 6b3f 9e72 6e3f 08d9 6c3f
00000090: 24ea 6c3f 4f37 6c3f 85ab 6c3f e973 6b3f
000000a0: c0de 6b3f 7199 6c3f 7a33 6c3f d38c 6a3f
000000b0: 7a78 6d3f aa24 6e3f c623 6c3f 9240 6e3f
000000c0: 562a 6f3f f5a9 6d3f 9769 6e3f 32be 6c3f
000000d0: 3204 6f3f c0f1 6a3f 479d 6b3f 71d9 6a3f
000000e0: bb85 6d3f 8c1c 6e3f 2f50 6c3f 8441 6a3f
000000f0: 8e17 6b3f 1980 6b3f 9376 6b3f d826 6b3f
00000100: bcf4 6c3f 82c2 6b3f a4cf 6d3f 77a4 6d3f
00000110: 3c3d 6c3f 7f64 6d3f 1d38 6a3f f574 6c3f
00000120: b950 703f e98b 6c3f 75dc 6d3f 6965 6e3f
00000130: 0e77 6c3f 717a 6d3f 30fa 6d3f b207 693f
00000140: 618e 6b3f 15a1 6a3f e3e3 6c3f c2b2 6a3f
00000150: d73e 6d3f 5d32 703f 12f3 6b3f efe1 6f3f
00000160: 6843 6d3f 3787 6c3f 71b1 693f 534f 6c3f
00000170: b754 6c3f e594 6e3f c6df 6e3f 3543 6e3f
00000180: 8c69 6c3f 7d5a 703f 4e1a 6c3f fea3 6a3f

ln1.bias f4 [100]
-0.007634578 -0.019855333 -0.007079193 -0.015444003 -0.00947362 -0.010259288 -0.013245947 -0.008015126
-0.005773096 -0.010211074 -0.013151428 -0.025420515 -0.01054875 -0.022369584 -0.0042345813 -0.0069214734
-0.013404829 -0.0134255765 -0.025820762 -0.0066084736 -0.0152063705 -0.009729384 -0.013099115 -0.011071825
-0.0052839923 -0.006218861 -0.01025701 -0.012591152 -0.0123421 0.0051811202 -0.008337531 -0.0050123488
-0.0015713404 -0.016166227 -0.013733549 -0.0054975324 -0.013853468 -0.012063811 -0.013264662 -0.012722763
-0.022622285 -0.0074010915 -0.010226943 -0.011084493 -0.01844933 -0.004525131 -0.01365556 -0.009625338
-0.005348601 -0.010844685 -0.015455314 -0.008230918 -0.013037666 -0.020553082 -0.014115228 -0.009575212
-4.678376e-05 -0.02145111 -0.0076905736 -0.028493036 -0.016381288 -0.0078298785 -0.013288289 -0.024826668
-0.007350809 -0.007929506 -0.004299443 -0.0066635637 -0.022151763 -0.026141888 -0.020935649 -0.014293639
0.001860635 -0.0141129615 -0.016502524 -0.00031950118 -0.0028692652 -0.010933856 -0.0184752 -0.021402145
-0.01116823 -0.01367756 -0.011534594 -0.014145984 -0.006235698 -0.0011225163 -0.011044542 -0.0040234765
-0.0038274117 -0.005211504 -0.017361907 -0.0069406303 -0.009334827 -0.008415766 -0.00685646 -0.011967244
-0.010843071 -0.004392831 -0.009454049 -0.021954795
00000000: 7b2b fabb a7a7 a2bc 93f8 e7bb d808 7dbc
00000010: 3e37 1bbc 9316 28bc 8705 59bc e051 03bc
00000020: 3d2c bdbb 594c 27bc 1679 57bc af3e d0bc
00000030: aad4 2cbc 6b40 b7bc 3ec2 8abb 87cd e2bb
00000040: ee9f 5bbc f3f6 5bbc 1086 d3bc e58b d8bb
00000050: 2424 79bc ff67 1fbc ac9d 56bc 9a66 35bc
00000060: 5725 adbb 96c7 cbbb 050d 28bc 1f4b 4ebc
00000070: 8536 4abc 63c6 a93b 249a 08bc a13e a4bb
00000080: 6ff5 cdba 096f 84bc ae02 61bc a524 b4bb
00000090: a8f9 62bc 4aa7 45bc 0654 59bc 2373 50bc
000000a0: 5f52 b9bc db84 f2bb e88e 27bc bc9b 35bc
000000b0: 0d23 97bc 8d47 94bb 92bb 5fbc 98b3 1dbc
000000c0: 5143 afbb e8ad 31bc 4938 7dbc f9da 06bc
000000d0: ef9b 55bc f05e a8bc 8f43 67bc 5ae1 1cbc
000000e0: ae39 44b8 3dba afbc 3501 fcbb 3a6a e9bc
000000f0: 0d32 86bc e448 00bc 20b7 59bc 4c61 cbbc
00000100: 0edf f0bb c2ea 01bc 58e2 8cbb 065a dabb
00000110: 9d77 b5bc 8327 d6bc 3d81 abbc de2f 6abc
00000120: 8de0 f33a 0d3a 67bc 4d30 87bc b982 a7b9
00000130: 480a 3cbb ea23 33bc 4d59 97bc 8d53 afbc
00000140: f4fa 36bc d817 60bc 98fb 3cbc 8fc4 67bc
00000150: d354 ccbb 6621 93ba 2bf4 34bc 5ed7 83bb
00000160: 50d5 7abb 44c5 aabb 8f3a 8ebc 3a6e e3bb
00000170: 1af1 18bc 48e2 09bc 28ac e0bb 4212 44bc
00000180: 23a7 31bc bdf1 8fbb 28e5 1abc 8bda b3bc

fc2.weight f4 [50, 100]
0.06525192 -0.025136268 0.20686902 -0.18892755 0.0035164515 0.017529448 -0.18339258 -0.06761748
0.039459422 -0.055545866 0.07369926 -0.057519928 0.040005635 0.19668089 0.0015116652 0.07257396
0.06423886 0.20268886 0.014140574 -0.041753013 0.15852985 -0.15199243 0.083426386 -0.12348827
-0.091109894 -0.14846279 0.01206418 -0.038295247 0.05722749 -0.03123489 0.0077790837 0.07091474
-0.11675709 0.020496197 -0.23056163 0.18541032 0.11414039 -0.17883293 -0.09341239 -0.06610235
-0.031035883 -0.0034180689 0.16337189 -0.16315967 -0.10147392 -0.18912229 -0.014014399 0.119720034
-0.0981102 -0.16151935 0.093640074 -0.09925189 -0.062240336 -0.05226388 -0.11393767 -0.0013103054
-0.06270416 -0.023004645 -0.032115467 0.045382332 0.01386499 0.020885611 -0.005157618 0.12147684
0.13144633 -0.028424494 0.07297097 -0.10439476 0.026445178 0.03068386 0.08747827 -0.19372413
0.049339805 0.053449024 0.12033474 0.05229871 0.21757199 -0.11961634 -0.04979472 0.15215982
0.117280975 -0.14238466 -0.21045825 0.013522707 -0.0008597789 0.114413574 -0.10340522 -0.18055227
-0.08399881 0.15378122 0.18411991 -0.024521023 -0.039077476 -0.012130569 -0.0071233134 -0.07669783
0.08233224 -0.1256854 0.07812607 0.110559076 0.036766317 0.05235579 0.08423817 0.0693246
0.1480382 0.09843449 -0.08006131 0.14223102 -0.104212806 -0.049102955 0.1359853 0.24770619
0.015308633 -0.13985245 -0.07867281 -0.06901692 -0.100088686 0.14043887 0.047077626 0.10409946
-0.08293694 0.031022616 -0.017728971 -0.04260357 0.032009296 -0.07902172 -0.0056539527 -0.024378398
-0.031261966 -0.037445355 -0.045717467 -0.02191653 0.00015644051 -0.13981712 0.11467869 -0.08594699
-0.0396767 0.09356542 0.123532526 -0.060637746 0.07664771 0.21050997 -0.010444822 -0.05332944
-0.036968466 -0.036506698 -0.010524446 0.17124365 -0.062361713 0.1125376 0.09972809 -0.13988928
-0.086224176 0.013509555 0.018872121 0.035614498 0.05252032 -0.14612423 0.26797545 0.15919338
-0.09827929 -0.02499368 0.17162873 0.07242926 -0.034012955 0.05316815 0.12509774 0.018393021
-0.17564246 0.03097131 0.08693318 0.002391746 0.087385856 0.062174287 -0.17799972 0.03578938
0.18201576 0.028438345 0.15841328 -0.09529225 0.095935866 0.02032072 -0.0240869 0.15468284
-0.04744786 0.0023452893 0.0058869254 0.24575317 -0.17912003 -0.013135592 -0.07790542 -0.13476607
-0.124987744 -0.020649087 -0.053954594 0.09443158 -0.13348038 -0.009090036 0.1861759 0.08393171
0.06979084 -0.05758392 -0.13075398 -0.045525216 -0.19961444 0.19256933 -0.14529142 -0.13159049
-0.027438238 -0.022322398 0.009925576 -0.19519393 0.2783776 -0.15368573 -0.019551732 0.109536424
0.069821745 -0.051960558 0.15805054 -0.05873856 0.0055910656 -0.034664076 -0.041916862 0.17818733
0.03619089 0.2296894 -0.007025052 0.019863658 0.0035860245 -0.16950873 -0.124087356 -0.043123677
0.11088588 0.0036189689 -0.18080087 -0.03775344 -0.024400441 0.101595044 0.13349432 -0.1117483
-0.07824587 -0.043847162 0.14461844 0.13194066 -0.22734347 0.05973497 0.11229923 -0.059690684
0.033273358 0.07880942 0.12027439 -0.06530041 0.10308842 0.23257895 0.3087182 -0.030408755
00000000: cca2 853d 93ea cdbc 79d5 533e 3976 41be
00000010: 4474 663b eb99 8f3c 44cb 3bbe 097b 8abd
00000020: 34a0 213d 1084 63bd a3ef 963d 049a 6bbd
00000030: f3dc 233d b766 493e 1123 c63a a8a1 943d
00000040: aa8f 833d ab8d 4f3e dead 673c 3505 2bbd
00000050: a655 223e e7a3 1bbe 74db aa3d 6be7 fcbd
00000060: d397 babd a106 18be d7a8 453c 7adb 1cbd
00000070: 5f67 6a3d 50e0 ffbc afe7 fe3b bf3b 913d
00000080: 571e efbd a4e7 a73c 5918 6cbe 34dc 3d3e
00000090: 70c2 e93d fb1f 37be ff4e bfbd ab60 87bd
000000a0: f73e febc ae01 60bb f64a 273e 5413 27be
000000b0: 8fd1 cfbd 46a9 41be a69c 65bc c72f f53d
000000c0: 00ee c8bd 5465 25be 5ec6 bf3d 9344 cbbd
000000d0: b9ef 7ebd a612 56bd 2758 e9bd 8ebe abba
000000e0: 0a6b 80bd 3d74 bcbc 828b 03bd d3e2 393d
000000f0: fc29 633c 4d18 ab3c 3c01 a9bb d9c8 f83d
00000100: de99 063e 7cda e8bc ce71 953d eccc d5bd
00000110: 8fa3 d83c b85c fb3c cf27 b33d 9e5f 46be
00000120: 8918 4a3d 5ded 5a3d 0f72 f63d 2c37 563d
00000130: 31cb 5e3e 69f9 f4bd 8cf5 4bbd c9cf 1b3e
00000140: 0231 f03d 49cd 11be 5e82 57be 588e 5d3c
00000150: c962 61ba aa51 ea3d 1ec6 d3bd b2e2 38be
00000160: 9107 acbd d378 1d3e ee89 3c3e 50e0 c8bc
00000170: b40f 20bd 4bbf 46bc af6a e9bb c013 9dbd
00000180: ce9d a83d acb3 00be 9000 a03d cc6c e23d
00000190: 4798 163d 0673 563d 1085 ac3d 0efa 8d3d
000001a0: 5397 173e 0698 c93d 2ff7 a3bd 02a5 113e
000001b0: 866d d5bd 2e20 49bd bb3f 0b3e b1a6 7d3e
000001c0: 10d1 7a3c 7b35 0fbe 361f a1bd be58 8dbd
000001d0: 4cfb ccbd 35cf 0f3e 78d4 403d 1932 d53d
000001e0: d8da a9bd 2423 fe3c 593c 91bc 1581 2ebd
000001f0: 2e1c 033d 24d6 a1bd cb44 b9bb 35b5 c7bc
00000200: 8c0c 00bd 4d60 19bd 3d42 3bbd 4b8a b3bc
00000210: 2e0a 2439 382c 0fbe a9dc ea3d fa04 b0bd
00000220: 0984 22bd 3a9f bf3d 9ffe fc3d 495f 78bd
00000230: 79f9 9c3d ed8f 573e c220 2bbc f96f 5abd
00000240: 3f6c 17bd 0c88 15bd ba6e 2cbc 7f5a 2f3e
00000250: ff6e 7fbd 1d7a e63d 3e3e cc3d 233f 0fbe
00000260: 4d96 b0bd 2e57 5d3c b599 9a3c 82e0 113d
00000270: 8c1f 573d 97a1 15be 1434 893e 9703 233e
00000280: a746 c9bd 8cbf ccbc 71bf 2f3e cb55 943d
00000290: 2b51 0bbd d9c6 593d 9f19 003e f6ac 963c
000002a0: 9edb 33be 8bb7 fd3c 060a b23d d7be 1c3b
000002b0: 5bf7 b23d 77aa 7e3d 8f45 36be e397 123d
000002c0: 5762 3a3e 88f7 e83c 1737 223e 9528 c3bd
000002d0: 067a c43d a377 a63c e451 c5bc 2e65 1e3e
000002e0: b058 42bd 6db3 193b 1ce7 c03b b8a6 7b3e
000002f0: 3e6b 37be ab36 57bc e08c 9fbd 1e00 0abe
00000300: 93f9 ffbd 4628 a9bc 7eff 5cbd 5865 c13d
00000310: 15af 08be 60ee 14bc e5a4 3e3e 63e4 ab3d
00000320: 80ee 8e3d 1edd 6bbd 5fe4 05be a678 3abd
00000330: ba67 4cbe e530 453e 46c7 14be a8bf 06be
00000340: 28c6 e0bc 76dd b6bc e29e 223c ebe0 47be
00000350: 8287 8e3e cb5f 1dbe f42a a0bc a254 e03d
00000360: b4fe 8e3d 98d4 54bd 00d8 213e d897 70bd
00000370: 4235 b73b ebfb 0dbd 04b1 2bbd bd76 363e
00000380: e63c 143d b333 6b3e 6832 e6bb 1cb9 a23c
00000390: 8203 6b3b b293 2dbe 8321 febd 74a2 30bd
000003a0: 2318 e33d 392c 6d3b dd23 39be 5aa3 1abd
000003b0: 6fe3 c7bc 1011 d03d bcb2 083e 4bdc e4bd
000003c0: 5f3f a0bd 1599 33bd db16 143e 741b 073e
000003d0: bacc 68be a8ac 743d 24fd e53d 387e 74bd
000003e0: a549 083d d566 a13d 6b52 f63d 39bc 85bd
000003f0: 0620 d33d 2d29 6e3e 5010 9e3e c81b f9bc

fc2.bias f4 [50]
-0.01750818 -0.013854628 -0.016753018 0.011765337 -0.0019540982 -0.0037840921 0.0052624806 0.0049627544
-0.010442841 0.030051913 0.013909861 0.030741366 0.0024259796 -0.0011369755 -0.010058231 -0.03154116
0.013928685 -0.0072683664 -0.012915899 -0.033435795 0.01911309 0.008273776 -0.014016104 -0.011403605
-0.0021890663 -0.0039734435 0.018113205 -0.0032244564 0.011664362 -0.011134611 -0.009982637 0.008649357
0.016762327 -0.0017752396 -0.013970282 -0.0074579343 0.012747012 0.020950006 0.001936845 -0.021471074
0.012239339 0.012237311 -0.012328839 0.028368458 0.009907337 -0.0124624595 -0.008038443 0.010459498
-0.020801937 0.010412974
00000000: 516d 8fbc 86fe 62bc a03d 89bc 66c3 403c
00000010: 5410 00bb 88fe 77bb e370 ac3b 9a9e a23b
00000020: 7318 2bbc 6e2f f63c 30e6 633c 51d5 fb3c
00000030: 2ffd 1e3b 9106 95ba 47cb 24bc 4e31 01bd
00000040: 2435 643c 7a2b eebb 359d 53bc f9f3 08bd
00000050: 0e93 9c3c bb8e 073c cda3 65bc 30d6 3abc
00000060: 7076 0fbb a933 82bb 2562 943c 6751 53bb
00000070: e11b 3f3c f26d 36bc 378e 23bc 08b6 0d3c
00000080: 2651 893c 28af e8ba 9ce3 64bc b061 f4bb
00000090: d8d8 503c 599f ab3c bcdd fd3a 1be4 afbc
000000a0: 8287 483c 017f 483c e6fe 49bc f864 e83c
000000b0: 6252 223c 582f 4cbc acb3 03bc 505e 2b3c
000000c0: d368 aabc 2e9b 2a3c

ln2.weight f4 [50]
0.9546285 0.93558526 0.94564134 0.9450202 0.94317245 0.9479781 0.9654591 0.9298208
0.9580422 0.92455333 0.9245949 0.9263847 0.92515516 0.95369375 0.9270213 0.97108513
0.9285728 0.91979635 0.9276788 0.9132341 0.92559135 0.93146855 0.9318492 0.9191788
0.92755765 0.9218504 0.9266104 0.94267327 0.92916274 0.9242961 0.96966636 0.93218464
0.9292273 0.9752011 0.92007554 0.94076735 0.9298314 0.9245097 0.92885214 0.96108556
0.9261201 0.9486199 0.9552825 0.92453444 0.92346513 0.94853026 0.9289171 0.9408
0.9230981 0.9269832
00000000: 8962 743f 8482 6f3f 8d15 723f d8ec 713f
00000010: c073 713f b1ae 723f 5428 773f bc08 6e3f
00000020: 4142 753f 87af 6c3f 40b2 6c3f 8c27 6d3f
00000030: f8d6 6c3f 4625 743f 4551 6d3f 0999 783f
00000040: f2b6 6d3f c677 6b3f 5c7c 6d3f b6c9 693f
00000050: 8ef3 6c3f b974 6e3f ab8d 6e3f 4d4f 6b3f
00000060: 6b74 6d3f 63fe 6b3f 5736 6d3f 0953 713f
00000070: 9cdd 6d3f ab9e 6c3f 0e3c 783f a7a3 6e3f
00000080: d7e1 6d3f c7a6 793f 128a 6b3f 21d6 703f
00000090: 6e09 6e3f abac 6c3f 41c9 6d3f b409 763f
000000a0: 3516 6d3f c1d8 723f 658d 743f 4aae 6c3f
000000b0: 3668 6c3f e1d2 723f 83cd 6d3f 45d8 703f
000000c0: 2850 6c3f c54e 6d3f

ln2.bias f4 [50]
-0.017425802 -0.007900785 -0.0064802775 0.00186502 -0.009164787 -0.0038081757 -0.005301503 0.0036734608
-0.021766186 -0.00046845575 -0.00032682827 0.0022452334 -0.004119098 -0.010205057 0.0016637912 -0.026047414
-0.00020746289 -0.0032843896 -0.0019000891 -0.0075311675 0.0015825062 -0.002242583 -0.00891216 -0.0034186756
-0.0033788106 -0.0036515826 -0.0013807778 -0.0005616978 0.00026224542 -0.00561828 -0.017408377 0.0004796055
-0.0004579319 -0.0076010847 -0.0043820906 -0.011151147 0.0006164772 -0.0002682569 -0.001770558 -0.0124700945
-0.00045542314 -0.003952585 -0.007589271 -4.5472716e-05 -0.0009733337 -0.009449258 -0.006032217 -0.009830795
-0.005926958 0.0018525599
00000000: 8ec0 8ebc 4b72 01bc 8258 d4bb b073 f43a
00000010: e727 16bc 9692 79bb 3bb8 adbb 72be 703b
00000020: 004f b2bc 119b f5b9 265a abb9 c424 133b
00000030: 80f9 86bb 1d33 27bc 9213 da3a 6361 d5bc
00000040: 658a 59b9 ea3e 57bb 690c f9ba 03c8 f6bb
00000050: 196c cf3a 4df8 12bb 4f04 12bc dc0b 60bb
00000060: 096f 5dbb 644f 6fbb 37fb b4ba e73e 13ba
00000070: fc7d 8939 8c19 b8bb 039c 8ebc 8f73 fb39
00000080: 9416 f0b9 8512 f9bb a497 8fbb 4db3 36bc
00000090: 169b 213a d5a4 8cb9 1112 e8ba 5e4f 4cbc
000000a0: dcc5 eeb9 b084 81bb 6baf f8bb f5b9 3eb8
000000b0: 5227 7fba 10d1 1abc e7a9 c5bb 5811 21bc
000000c0: ed36 c2bb 98d1 f23a
