Source_combined/ckps/seizure/source/S73/source_F.pt (torch, 557199 bytes, 8 tensors)

fc1.weight f4 [100, 1332]
00000000: 4086 cd3b 2b56 c2bc 7c3f 1a3c 4ab7 bfbc
00000010: 3d60 123b 2491 553c c213 853c 563c 993c
00000020: 3b66 cbbb 44b2 dc3c 2325 a63c 8816 9cbc
00000030: b886 d9bc 546f 8dbc 4b00 52bb 4067 b7bc
00000040: 017c e3bc 63ff 1f3c 54ea f7ba 155a aa3c
00000050: b72c f5bc 2e32 003d f9cd 0e3c 25d8 e0bb
00000060: 49ba b9bc 225c 00bc a11d 853c dc98 353c
00000070: 6cf5 e8bc bce7 e93b 0aba 81bc 1196 1f3c
00000080: 1edf e43c 2669 df3c 4fde 53ba 46bc 4bbc
00000090: 124b 813c 9bfe 35bc e0c1 c43c 5e77 963b
000000a0: d75c b93c 620b aa3c 2594 98bb 64e8 47bc
000000b0: 7877 ccbc cfd3 cc3b 319e 8fbc cdb8 04b9
000000c0: 1f61 e23c 7fda d53c 870e d63c 6ded d2bc
000000d0: 9dc8 2b3b 0bcd bb3c 9bd5 883c 1401 e3bb
000000e0: 2555 583c d27f d6ba 477c d93c b112 0d3c
000000f0: 9137 a63c 4cc2 693c e045 b93c 1675 dc3c
00000100: 1e9b b23c 0361 a8bc 1903 8fbc 3cab a8bc
00000110: 41fd edbc 1ebe 923c 3296 513c c806 8dbc
00000120: 5f89 5dbc de4b 333c 3a77 96bc d357 ba3c
00000130: 6e9f 2f3c d219 a9bc 64c4 7f3b dc5b e13c
00000140: 6127 c63c 1145 a0bc be1b 973b 7fc1 95bc
00000150: 6d04 063c 338b 87bc b0bb 953a 96a9 b93c
00000160: 57ac 3d3c ef20 e63c 4d11 1b3c 5d4b dbbb
00000170: a8df 76bb 7db2 cc3c 66bb 0abc 729e 2039
00000180: 65df 623c f9c8 f33b a87c 9abc 375f ba3c
00000190: c64e 613b 5597 3bbc 8084 8cbb a4e8 b33b
000001a0: 4622 84bc ffde a73c 9e71 a4bb c627 b43c
000001b0: 9351 a2bc bfc3 05bc 6819 4dbc 7176 a4bc
000001c0: 21b3 91bc 7f6e babc 264a 6fbc 4939 023b
000001d0: 8675 c93c 961f 67bb 76d8 98bc 934f 3dbc
000001e0: d1b3 39bb b18f 69bc 2470 3fbc d2e7 b13c
000001f0: e763 383c 9e29 e1bb 298c 963c 4732 5a3a
00000200: 59b8 39bc 8b22 9e3c 4c14 ef3a 0186 48bc
00000210: 68f8 fe3c f6d0 783c 629a 033d 9123 0d3c
00000220: 4ff2 b8bc 3a0d 98bc 68e8 e2bb e851 9e3b
00000230: 9239 0d3c 3a08 9a3c b237 833c d297 a5bb
00000240: a2e3 c6bb ae58 cc3c 3943 4e3c c282 903b
00000250: 22ae 823b 5468 86ba a927 0e3c 5a9b cb3c
00000260: 4044 3e3c fe08 9d3c 4e94 923c 1771 9b3c
00000270: a86c dd3c 4d12 cc3c 4aab 183c 7059 d43c
00000280: b774 ca3c d0f0 d2bc c254 71bb 5493 94bc
00000290: bc03 223c 35d2 69bc d628 0b3c a333 583c
000002a0: 2cf0 fc3b e6f2 903c df8f 40bc eefc 073b
000002b0: 65dc 0b3b 48f1 51bc 0e56 d03c 5296 123c
000002c0: f342 babc 7cdb adbc 6de9 963c e53a 98bc
000002d0: ea7f 13bc 0b2b b8bc c7c7 ab3c 2d71 41bc
000002e0: a102 fd3a 2dcf ad3c 169c 493c 72dc 993c
000002f0: 1520 7a3c dde3 5fbc ca85 c43c 498b 693c
00000300: fe21 66bc aeaf c9bc da44 b5bb 0bda 4e3c
00000310: fa8e 8cbc d3c8 bfbc 016a f13c 826e ed3b
00000320: 9db6 abbc 8b3c 60ba 6eac 7d3c 49ee bd3c
00000330: 35b5 833c 3fa4 e7bb c6f7 00bd 8268 103c
00000340: 3dd3 6ebc 88e9 76b9 43a2 9dbc ae2e ba3c
00000350: 8d3f ad3c 57fb e93c 192c c03c 349a aebc
00000360: 87ec 3b3c 040f a13c 04f9 223c f5b3 ca3c
00000370: fad9 07bc f8f1 fe3c 96b6 bb3c 61d3 07bc
00000380: 513b 8ebc ba45 2c3c af4e 253c 850e 3cbc
00000390: 622d 97bc 6831 babc d0a1 8dbc f68b 0a3b
000003a0: 429f b8b9 82c8 ffbb 415e babc 7eed 8fbc
000003b0: 0230 aa3c 47d2 8d3b 6a21 2ebc 7272 9fba
000003c0: e58a bdbc 4e11 c83a e6fc 543a bba5 b4bc
000003d0: b92c cebc b0d3 51bc d802 e4bc 17bb ae3c
000003e0: 9594 85bc 0e1a be3c 6a45 923c a716 cc3c
000003f0: 87a6 debc d82c b0bb c1e4 f8bb 8295 ac3c
0.0062721074 -0.023722729 0.00941455 -0.023402829 0.0022335195 0.0130350925 0.016244773 0.018705528
-0.006207255 0.026940472 0.02028138 -0.019053712 -0.026553497 -0.017265 -0.0032043632 -0.0223881
-0.02776909 0.009765479 -0.001891444 0.020794908 -0.029928548 0.031297855 0.0087161 -0.006861704
-0.022671835 -0.007834466 0.01624948 0.011083808 -0.028437339 0.0071382206 -0.01583578 0.009740368
0.027938422 0.027271818 -0.0008082138 -0.012435025 0.015782867 -0.011108066 0.024018228 0.0045918664
0.022627277 0.02075738 -0.004656332 -0.012201402 -0.02495931 0.0062508355 -0.017531486 -0.00012657345
0.027634202 0.026105164 0.026129974 -0.025747979 0.0026212104 0.02292492 0.016703418 -0.0069276188
0.013203894 -0.0016364998 0.026548518 0.008610413 0.020290168 0.014267515 0.022616327 0.0269113
0.021802481 -0.020554071 -0.017457532 -0.020589463 -0.029051425 0.01791292 0.012792157 -0.017215148
-0.013521521 0.010943381 -0.018367399 0.022746956 0.010719163 -0.020642195 0.003902697 0.027509622
0.0241887 -0.019564183 0.0046114614 -0.018280743 0.008179766 -0.016545868 0.0011423733 0.022663873
0.011576734 0.028091876 0.009464574 -0.0066923336 -0.003766993 0.024987454 -0.008467531 0.00015317815
0.013847207 0.0074397293 -0.018858269 0.02275048 0.0034379228 -0.011449655 -0.004288256 0.0054903794
-0.016129624 0.020492075 -0.005018427 0.021991622 -0.019814288 -0.008164345 -0.012518264 -0.020076009
-0.01778561 -0.022757767 -0.014605081 0.001987057 0.024592172 -0.003526663 -0.018657904 -0.0115546165
-0.0028335939 -0.01425545 -0.011684451 0.021716986 0.011254287 -0.0068714162 0.01837738 0.0008323532
-0.011335456 0.01930358 0.0018240302 -0.01223898 0.031124309 0.015186539 0.032129653 0.008614437
-0.02257648 -0.018560994 -0.0069246776 0.0048315413 0.008619683 0.01880275 0.016017769 -0.005053499
-0.0060696164 0.02494463 0.012589269 0.004410119 0.0039880434 -0.0010254481 0.008676448 0.02485435
0.011612952 0.019169327 0.017892983 0.018974824 0.02702935 0.02491107 0.009318182 0.025921553
0.024713857 -0.025749594 -0.0036824201 -0.018136658 0.009888586 -0.014271309 0.008493623 0.013195905
0.0077190604 0.017693948 -0.011753052 0.0020750123 0.0021341082 -0.012813874 0.02543166 0.008946972
-0.022737002 -0.021222822 0.018421853 -0.01858277 -0.009002665 -0.022481462 0.020969285 -0.011806768
0.0019303152 0.021216953 0.01230528 0.018781874 0.015266438 -0.013665167 0.023989577 0.0142544
-0.01404619 -0.024619903 -0.0055318894 0.012625228 -0.01715802 -0.02341119 0.029469492 0.0072458396
-0.0209611 -0.00085539435 0.015483005 0.023184912 0.016077617 -0.00706914 -0.031486295 0.008813979
-0.01457673 -0.00023547385 -0.019242411 0.022727337 0.021148467 0.028562231 0.023458527 -0.021313764
0.011469967 0.01966048 0.009947065 0.024744013 -0.008291716 0.031121239 0.022914212 -0.008290143
-0.017362269 0.010514671 0.01008956 -0.011478071 -0.018454257 -0.022728637 -0.017289072 0.0021140552
-0.0003521387 -0.007805885 -0.022750022 -0.0175693 0.020774845 0.0043280455 -0.010628084 -0.0012164845
-0.02313752 0.0015263946 0.0008124843 -0.022051683 -0.02516781 -0.012806818 -0.027833387 0.021329446
-0.016306201 0.023205783 0.017855365 0.024913145 -0.027179016 -0.0053764395 -0.007595629 0.021067385

fc1.bias f4 [100]
00000000: 72c4 533b e893 1d3c ea1e e13c 444f 68bb
00000010: ab23 453c f660 33bc fe1b e43c cdb7 0ebc
00000020: ef27 eabc 2f83 a0ba ff22 96bc ac67 90bc
00000030: 3308 12bc 5581 a2bc 5b91 64bb 74aa cbbc
00000040: d4c0 023c 83ba f6bb de19 12bc 53cc 773c
00000050: cf4c 9dbc 874f cdbb a060 edbc 70d1 a1b9
00000060: 2284 bdbb bea3 293c 25f2 243a c106 b33c
00000070: bd96 81bb 90d3 65bc e93e 52bc 7a79 9d3c
00000080: a5df 723c 6eac 9ebb 2fe1 e33b 03d8 933c
00000090: b402 9bbc 2e90 3dbc 3319 8138 b9db ca3c
000000a0: 092b 90bb 3e18 89bc a882 9a3c a9da 1c3c
000000b0: b443 a2bc 8cf6 9c3a 6868 043d 8081 a03b
000000c0: 2ae9 84bc 7a01 eb3b da84 943b 7dc9 403c
000000d0: e010 7b3c 9a26 2f3b c22f 57bc f78c a33c
000000e0: 053e 98bc 9327 873a 28cd 5e3c ad98 e23c
000000f0: e129 4fbc 96df 51ba 528f b63c 4904 1a3c
00000100: 9a6e 943c d570 44bc cf7c 283c 6ac5 eebc
00000110: b1b2 1f3c 1b3c d33c e90e 5fbc b8a2 f4bc
00000120: fc8b 343d 099b ccbb e876 b23c 4b08 b2bc
00000130: 370f 933b f34b 0d3b f3e9 b83c 6486 b1bb
00000140: 3d4d 00bd a35e 7a3a 35de cebc 4769 dcbc
00000150: c4e9 803c 827a 033d c520 26bb 3645 b4bc
00000160: c705 b3bc c5c6 d3b9 5720 263b b425 db3c
00000170: a299 8cbc 393f aa3c 0092 993c 7e33 38bc
00000180: cb05 42bc 3fbd e3bb 4b29 d2bb e97b 92bc
0.0032313135 0.009617783 0.027480561 -0.0035447637 0.01203243 -0.01094841 0.027845379 -0.008710814
-0.028583495 -0.0012246127 -0.018327234 -0.01762756 -0.008913088 -0.019837061 -0.0034876678 -0.024861552
0.007980544 -0.007529558 -0.0089173 0.015124398 -0.019201664 -0.006265584 -0.028976738 -0.00030864356
-0.0057835737 0.010353981 0.0006292186 0.021853806 -0.003954737 -0.014027491 -0.012832382 0.019222964
0.014823829 -0.0048423326 0.006954334 0.018047338 -0.018922187 -0.01157002 6.155893e-05 0.024762975
-0.0043996614 -0.016735192 0.01886113 0.009573617 -0.019807674 0.0011975332 0.032326132 0.00489825
-0.016224463 0.007171807 0.0045324387 0.011766789 0.0153238475 0.002672589 -0.013133945 0.019964678
-0.01858426 0.0010311477 0.013598718 0.027660692 -0.012644262 -0.0008006034 0.022285137 0.009400436
0.018119145 -0.011989792 0.010283663 -0.029146869 0.009747193 0.025785496 -0.013614395 -0.029862747
0.044078812 -0.0062440676 0.021785215 -0.02173247 0.0044878977 0.0021560162 0.022572493 -0.005417632
-0.03132366 0.0009550845 -0.025252441 -0.026905669 0.015736468 0.032099254 -0.0025349122 -0.022005659
-0.02185334 -0.0004039315 0.0025348866 0.026751377 -0.017163102 0.0207821 0.018746376 -0.011242745
-0.011842201 -0.00695005 -0.006413614 -0.01788135

ln1.weight f4 [100]
00000000: 07dd 7c3f 15b4 7b3f 7a29 7f3f 4a85 7c3f
00000010: 89fa 7d3f 569c 7b3f 855b 7c3f 9c6b 7b3f
00000020: 9c7c 7c3f 2430 7d3f babc 7c3f 8317 7c3f
00000030: c037 7c3f 8c88 7b3f 8860 7c3f b8e6 7b3f
00000040: acc9 7b3f 59bc 7c3f aeea 7b3f 9894 7d3f
00000050: 9575 7c3f 7878 7b3f 7699 7b3f 22be 7c3f
00000060: c8e4 7c3f 20b1 803f 0e33 7d3f a3d7 7c3f
00000070: 11ef 7c3f e245 7e3f 07a5 7b3f 44f3 7b3f
00000080: 5e24 7c3f 34a4 7b3f deff 7c3f aef9 7b3f
00000090: 6b57 7d3f 93ca 7b3f 6810 7b3f 3508 7c3f
000000a0: 9136 7c3f afa6 7e3f e11f 7c3f 9090 7c3f
000000b0: 0820 7c3f 661e 7e3f 35f2 7d3f 40b1 7c3f
000000c0: 259d 7b3f 394c 7d3f b230 7c3f 85bb 7b3f
000000d0: c171 7c3f c75a 7b3f 150a 7d3f 27f8 7c3f
000000e0: b133 7d3f d25f 7c3f 7d37 7c3f e2fe 7c3f
000000f0: ca39 7c3f 1c42 7c3f 1c68 7c3f c191 7b3f
00000100: ed03 7c3f 322c 7c3f 9c5e 7c3f dd7d 7b3f
00000110: 02a9 7c3f 3194 7c3f 6059 7c3f f117 7b3f
00000120: b46f 7f3f 5b19 7c3f 122f 7c3f 3d32 7c3f
00000130: 2969 7d3f 1d5c 7b3f 4cd9 7c3f 86d0 7c3f
00000140: 1e3b 7c3f be01 7c3f ae25 7c3f f62c 7c3f
00000150: 4b73 7c3f 4d2b 7d3f 2938 7d3f fb11 7c3f
00000160: 6f69 7c3f 948b 7b3f 87ba 7c3f 920f 7c3f
00000170: 4a3a 7c3f f906 803f 455a 7c3f 14be 7b3f
00000180: f481 7c3f 3d31 7c3f bffa 7b3f 94ce 7b3f
0.9877476 0.9832166 0.99672663 0.9864088 0.9921041 0.98285425 0.9857715 0.98211074
0.9862764 0.9890158 0.98725474 0.98473376 0.9852257 0.9825523 0.98584795 0.98398924
0.983546 0.98724896 0.9840497 0.9905486 0.98616916 0.98230696 0.9828104 0.9872762
0.9878659 1.0054054 0.9890603 0.98766536 0.98802286 0.9932538 0.98298687 0.9841807
0.9849299 0.9829743 0.9882792 0.98427856 0.98961514 0.9835598 0.9807191 0.9845002
0.9852076 0.9947309 0.98486143 0.98658085 0.98486376 0.99265134 0.99197704 0.9870796
0.9828666 0.9894443 0.98511803 0.9833301 0.98611075 0.9818539 0.9884351 0.9881615
0.98907 0.9858371 0.9852217 0.9882642 0.9852568 0.98538375 0.9859636 0.9826928
0.9844349 0.98504937 0.9858186 0.9823893 0.98695385 0.9866362 0.98573875 0.98083407
0.9977982 0.9847619 0.98509324 0.9851416 0.98988587 0.9818743 0.9876907 0.9875568
0.98527706 0.9844016 0.98494995 0.98506105 0.98613423 0.98894197 0.9891382 0.98464936
0.9859838 0.98259854 0.9872212 0.9846126 0.9852644 1.0002128 0.9857524 0.9833691
0.9863579 0.9851263 0.98429483 0.9836209

ln1.bias f4 [100]
00000000: 33a3 4c3b 2dd0 32bb f7a6 9f3b f0ff 10bb
00000010: 9f5d 323b 3b92 2ebb 771f 243a edc1 74bb
00000020: c527 0fbc 1249 083c 890d 25bb 98bf 1d39
00000030: 6ce8 2a3a d043 73bb 22f0 433b e3e4 60bb
00000040: 8a5d 66ba 91bc 27b9 3e89 6fba cece 9b3b
00000050: 96d0 f7ba ee2d 8fba dc8b 43bb 2502 26b9
00000060: bc7b 41ba cf45 043c f781 7b3b e74d 2d3b
00000070: b0e7 e13a 6226 643b 3bd1 a8bb e69c 9abb
00000080: 5397 11bc a490 09bb fbb0 0f3a 444e 26bb
00000090: fd16 e83a 94ae 38ba f583 93bb fafa 2d39
000000a0: 01ad 1d39 3ac7 813b e2d5 84bb 2c2a 113b
000000b0: e3ed b238 27aa 6a3a 582c a73b ecec 01ba
000000c0: e3d5 34bb c46b a03a 2aa1 89ba 6edf b9bb
000000d0: 5308 a337 3c44 ffbb 6e5e 4639 8ae8 30b9
000000e0: f24c 103b 159a 9e3a 968f 33ba e013 823b
000000f0: 1c81 5dbb 6461 fdba 6b79 073a 13b7 9fbb
00000100: b9e7 38bb c520 b0bb d5c7 2539 6d04 3abb
00000110: 1551 b2b8 2661 3138 173d 883a 920b a3bb
00000120: 7f52 243c b6bf 7ebb 8709 89ba 1805 87bb
00000130: 09b0 aa3b eefa d7ba ed21 d4ba 7944 693b
00000140: 1bb4 83bb a15d 1bbb c079 2ebb e8c0 ecba
00000150: df5f 23bb 63b3 553b c40c 723b 6aa9 aabb
00000160: fce2 9c3a 3250 30bb 3872 a2ba 7da4 20ba
00000170: 8975 20bb c5eb a23b 1863 42bb 115c 0aba
00000180: 4136 27b9 a26c a639 06e3 373a 2149 64bb
0.0031225204 -0.0027284727 0.0048721987 -0.0022125207 0.0027216447 -0.0026637453 0.0006260792 -0.0037347034
-0.008737509 0.008318203 -0.002518507 0.00015044061 0.0006519619 -0.0037119277 0.002989777 -0.0034316115
-0.0008787742 -0.00015996608 -0.0009137577 0.0047548776 -0.0018906768 -0.0010923722 -0.0029838001 -0.00015831793
-0.00073808036 0.008073284 0.0038377026 0.0026444138 0.0017235186 0.0034812917 -0.0051518953 -0.004718411
-0.008886176 -0.0020990754 0.0005481389 -0.002537624 0.0017707046 -0.0007045057 -0.0045018145 0.00016592062
0.00015037136 0.0039605172 -0.004053817 0.002215038 8.532011e-05 0.0008951746 0.0051017217 -0.00049562636
-0.0027593307 0.0012239148 -0.0010500301 -0.005672387 1.943499e-05 -0.0077901166 0.00018917929 -0.00016871296
0.002201852 0.0012100363 -0.0006849704 0.0039696544 -0.003379888 -0.0019331393 0.0005167934 -0.004874119
-0.002821429 -0.005375 0.0001581007 -0.0028383986 -8.502804e-05 4.2290565e-05 0.0010394183 -0.0049757445
0.010029434 -0.0038871593 -0.001045511 -0.0041204803 0.0052089733 -0.0016477981 -0.0016184427 0.0035593791
-0.004019273 -0.002370693 -0.0026622862 -0.0018062862 -0.002492897 0.0032608144 0.0036933878 -0.005208184
0.0011969502 -0.002690327 -0.0012393659 -0.0006128026 -0.002448412 0.0049719536 -0.0029661115 -0.0005278001
-0.00015946572 0.00031742925 0.0007014725 -0.0034833627

fc2.weight f4 [50, 100]
00000000: 6223 e5bd a0fd 373d 8daf 943d daf0 e7bc
00000010: ee23 eabc 0357 dcbd 6226 02be 91a2 62be
00000020: 22bc 57bc cfd4 b1bd 5315 d2bd 9f4f b93d
00000030: 5a07 05bc fa3f 19be 9275 f03d 4c6f 1ebe
00000040: 4511 d33d 7987 e9bd 8f7d f43d 6e65 a73d
00000050: 4bfb 1f3e cc09 903d d37f 3bbd afe7 aa3d
00000060: 1611 49bd fbe2 6b3e 53fa 1f3e fd2a c73d
00000070: 9066 d73d 3c69 89bd c471 f2bd ae44 213d
00000080: cc1e 363d 9710 4dbe 9bbf f5ba 8f0d 2d3e
00000090: 78da 26be d16a eb3d bc58 cb3c a4db a6bd
000000a0: fb57 fabd 38b1 a63d 62c3 143e b1aa b4bc
000000b0: e9f6 a93d 095a d13b 343b 8f3d a77b 34bc
000000c0: 17fe 8a3d d541 41bd d9ef 97bd 6046 bf3c
000000d0: 4cf9 f23c b12d f83d 18e8 1d3e 099d 4a3e
000000e0: 1531 e2bd 1e61 e23b 61ed 0cbc 4dac ea3c
000000f0: 49c2 9f3d b6a1 d8bd fa09 7e3c ca1e a53d
00000100: 5453 5c3c 5863 b6bd db82 b7bd 5972 15be
00000110: 5041 9fbd c65a efbd c7da ed3c 4dae 4f3d
00000120: 191d 303e 3f72 d33b 58ed 5f3b 2dac f03d
00000130: 2532 ec3c 12f7 80be 0532 b5bd 2958 b63d
00000140: 83f4 3dbe a75d e93d b9dd 13be 4e48 ebbd
00000150: aa85 713c 1491 d9bd f124 903c febc c63d
00000160: c33c 96bc cd6a 9ebb 0886 56bd 4cfc 0d3e
00000170: 0369 e23d 509a 73bd 32d2 023d 32c0 d43c
00000180: 2b36 723e e394 3dbd d3db b2bd 5d40 7b3d
00000190: 71b7 c4bd ea47 50bd a3da 6b3d cc38 bc3d
000001a0: 6986 79bd e38d 72bd d07f 8c3d b5dc 39be
000001b0: dc47 c9bc 2c1a 743c 1205 453c 7498 1fbe
000001c0: 3dbf 92bd 3d52 24be 78df 363e 63d7 533e
000001d0: d26b 8bbd cf18 1c3c 54fd b93d c958 093d
000001e0: 00c6 443e 6dac 4e3e 770e c33d 1562 d03d
000001f0: 73ee aa3c 13a0 49be 0e11 493d 4539 5d3d
00000200: f6e0 66bd 048a 08be 5d8f 053d 379b 09bc
00000210: 1ef2 bebc cba2 c73d f9bd 85be 658b 4cbe
00000220: 4c2a 54bb 308c 1dbe eac0 3b3d ecab 52bc
00000230: 6c32 ae3d 621c ef3d 362c 17bd 0059 913d
00000240: 27ee 83bd af61 f5bd d8f7 66be c1b3 383e
00000250: 6032 f3bd 424e 2fbe f222 b5bd ffe2 9fbc
00000260: 70ff 2ebe 66a4 34bb 95ae 163d e12f 3fbd
00000270: 421c e8bd 2d55 88bc 48e8 52be d080 6b3d
00000280: 3bd2 f53d 8446 b43d 38b9 8c3e 1054 173e
00000290: 978e a3bc 6c49 64be 8aff 853d 3244 38be
000002a0: 3b9f e63d d06f afbc 767a c1bd 441c d0bd
000002b0: edc0 d8bc 8868 7dbd 0101 e33d f2a5 a4bd
000002c0: 96a1 fbbd f6f4 063d 52f0 563e ec62 6cbd
000002d0: b990 483d fe22 293e 21e9 093e 6112 873d
000002e0: 5362 993d 20a6 12be 1ada 9b3d fdf2 e4bc
000002f0: d8cc f7bc cab3 443d f254 083d 09c2 b73d
00000300: 4698 0c3e a6b9 a53d 7eb7 e33d d241 c9bd
00000310: 4065 5b3e 2ce3 21bd ce87 103e 5cc6 42bd
00000320: 0ab6 02be 98db 01bd 0f44 d03c 6931 d03c
00000330: c36e c63b a508 d0bc 35f9 f7bd cc2f 2bbe
00000340: b41a 0a3b 5695 583e 4bac ccbd 04df 9cbd
00000350: 2ed4 20bc cb48 3ebd c1ba 543e 2b64 d7bd
00000360: e9f8 23bc ac54 7a3e 330f dabd 3c80 c7bc
00000370: 20e6 9c3d 531d 48be a9a1 883e c2e3 8e3e
00000380: e7b0 363d 8ecc bfbd 3f66 1f3e e19a 913d
00000390: 4f7d 093d 3b30 c0bd 6f24 11be 012b 793d
000003a0: 6328 9e3d 741d 0f3c 413b 45be 762c 363e
000003b0: 2ac1 f53c 31ba 1a3e b037 9d3d fd42 72bd
000003c0: a275 db3b f5df ecbd a66a 7f3e 906d 9e3d
000003d0: 708e 93be 0b8a 59bd 5e08 e9bd cd66 0f3e
000003e0: df83 d93d f935 cfbd 93c0 b5bd a4ca 383e
000003f0: 82a6 93bd 4f61 0a3e 6c78 c7bd 981c 04be
-0.11188389 0.04491961 0.07260046 -0.02831309 -0.028581586 -0.10758784 -0.12709954 -0.22132327
-0.013167413 -0.08683168 -0.102579735 0.0904839 -0.0081194285 -0.14965811 0.11741175 -0.15472144
0.10306028 -0.114027925 0.11938011 0.08173643 0.15623204 0.070331186 -0.0457762 0.083449714
-0.04908856 0.23035805 0.15622835 0.09724996 0.10517609 -0.06709525 -0.11838105 0.03937214
0.044462964 -0.2002586 -0.001874912 0.16899703 -0.16294277 0.11494983 0.024822585 -0.08147362
-0.12223812 0.081392705 0.14527658 -0.022054048 0.082990475 0.006388907 0.06993714 -0.011015809
0.06786745 -0.047181923 -0.07418794 0.023348987 0.02965989 0.1211809 0.15420568 0.19786467
-0.11044518 0.00690855 -0.008601517 0.028646613 0.07800729 -0.10577719 0.015505308 0.08062513
0.013447601 -0.08905667 -0.089605056 -0.14594401 -0.07776129 -0.116872355 0.029034985 0.050703336
0.171986 0.006452828 0.0034168568 0.1175159 0.028832505 -0.251885 -0.08847431 0.08903534
-0.18550305 0.11394816 -0.14440049 -0.114884004 0.014741341 -0.106233746 0.01759574 0.09704016
-0.01833952 -0.004834509 -0.052373916 0.13865775 0.11055186 -0.059473336 0.03193874 0.025970552
0.23653476 -0.046284568 -0.087333344 0.06134068 -0.09605301 -0.050849833 0.057581555 0.09190521
-0.0609192 -0.059217345 0.06860316 -0.181506 -0.024570398 0.014898818 0.012025135 -0.155855
-0.07165382 -0.16046996 0.17858684 0.20687632 -0.068076745 0.009527399 0.09081522 0.033531938
0.19216156 0.20182963 0.09524243 0.10174958 0.020865655 -0.1968997 0.04908853 0.054009695
-0.056366883 -0.13333899 0.032607425 -0.0083988225 -0.02330881 0.09747847 -0.261215 -0.1997505
-0.0032373844 -0.15385509 0.045838274 -0.012858372 0.08505711 0.116753355 -0.036907397 0.070970535
-0.06441908 -0.11981522 -0.22555482 0.1803732 -0.11874843 -0.17119697 -0.08844556 -0.01951742
-0.17089629 -0.002756381 0.03678759 -0.04667652 -0.11333515 -0.016642177 -0.20596421 0.057495892
0.12002989 0.08802512 0.2748506 0.14778161 -0.019965453 -0.22293633 0.06542881 -0.17994764
0.112608396 -0.021415621 -0.09447186 -0.10161641 -0.026459182 -0.061867267 0.11084176 -0.08039464
-0.122866794 0.032948457 0.20990112 -0.057711527 0.048966143 0.16517255 0.13467838 0.065953024
0.07489457 -0.14321184 0.07609959 -0.027947897 -0.030249044 0.048023023 0.033284135 0.08972556
0.13729963 0.0809205 0.11118983 -0.09827007 0.21425343 -0.03952329 0.14114305 -0.04755245
-0.12764755 -0.03170356 0.025423078 0.025414186 0.0060556843 -0.025394747 -0.12108079 -0.16717452
0.0021073045 0.21150717 -0.099938 -0.07659724 -0.009816213 -0.04645614 0.20774366 -0.105171524
-0.010008075 0.24446362 -0.1064743 -0.02435314 0.0766108 -0.19542436 0.26685837 0.2790814
0.0446023 -0.093651876 0.15566348 0.07109619 0.03356677 -0.09384199 -0.14174055 0.060832027
0.07722547 0.0087350495 -0.19260885 0.17790398 0.029999334 0.15110089 0.07676637 -0.059145916
0.0066973725 -0.11566154 0.24943027 0.07735741 -0.2881961 -0.053110164 -0.11378549 0.14004059
0.106208555 -0.10117716 -0.08874621 0.18046051 -0.07209493 0.13513683 -0.097397655 -0.12901533

fc2.bias f4 [50]
00000000: 5e76 313b efaa 4abb b7bc b8bb 6dc2 003c
00000010: 3952 d13a f8cb 143b 2d2a 8bbb 1383 d93b
00000020: c020 81ba 4845 343b 190c daba 43b1 2f3b
00000030: a7ed 453c 91bf b3ba cf7c a5ba daf3 5d3b
00000040: 6f17 4dbb 2f71 a8bb 5cd3 a4ba 8a46 8e3a
00000050: 2b82 6a3b 926b 83ba 9b10 ccbb b8bf 3b3a
00000060: 42e1 193b e7b0 1a3a 8b5f c5ba 5da0 b6bb
00000070: 4a66 0dbc 768c d7ba 69cc d43a 2e95 993b
00000080: cc47 6ebb 59ac ddb9 5334 3fba 6fa6 a33a
00000090: 9b58 80bb f37c b0bb 3e6a 0ebb ec81 073b
000000a0: 98f2 a13a a42f d53a 2d6f 98bb 146c 84bb
000000b0: cf1c 823c 694c 9aba 3516 0e3b e857 bdbb
000000c0: 98ba beb9 764a 7a3b
0.002707861 -0.0030924638 -0.005637731 0.007858855 0.0015969939 0.0022704583 -0.004246971 0.0066379397
-0.0009851679 0.0027507115 -0.0016635685 0.0026808537 0.0120805865 -0.0013713707 -0.0012625697 0.003386727
-0.0031294485 -0.0051404457 -0.0012575197 0.0010854763 0.0035783153 -0.0010026565 -0.0062275655 0.0007162052
0.0023480211 0.00059009943 -0.0015058381 -0.005573316 -0.008630345 -0.0016445059 0.0016235235 0.004686973
-0.0036358712 -0.00042280814 -0.00072938687 0.0012485514 -0.0039168126 -0.005385989 -0.0021730806 0.0020676805
0.0012355624 0.0016264808 -0.004651925 -0.004041204 0.015882878 -0.001177204 0.0021680717 -0.0057783015
-0.00036378647 0.0038191355

ln2.weight f4 [50]
00000000: 7fbb 7d3f 95e4 7b3f 6a8f 7b3f 53c5 7f3f
00000010: 0f7c 7c3f dda1 7c3f c723 7c3f 1387 7f3f
00000020: 43f1 7c3f d1b0 7c3f 884f 7c3f cd7a 7c3f
00000030: 8bc9 813f 1ab6 7b3f 57da 7c3f 26a7 7c3f
00000040: c603 7c3f 0527 7c3f 0f79 7e3f 2b8d 7c3f
00000050: a029 803f 52fe 7b3f a5f7 7b3f 752f 7d3f
00000060: 04d4 7d3f bfd5 7c3f 9578 7d3f 83bb 7b3f
00000070: deda 7c3f 9fd0 7c3f 9b47 7e3f 4646 7f3f
00000080: 70fa 7b3f b6f7 7e3f 8a83 7c3f 8d10 803f
00000090: 76dd 7c3f c4a0 803f 7f5e 7c3f 653a 7e3f
000000a0: f007 7d3f 8cce 7d3f 62d5 803f b92f 7c3f
000000b0: 9f1a 803f 7967 7c3f 4898 7c3f c7b1 7c3f
000000c0: fb6e 7c3f d682 813f
0.9911422 0.98395663 0.9826571 0.9991047 0.986268 0.98684484 0.9849209 0.9981548
0.98805636 0.987073 0.98558855 0.9862488 1.0139631 0.9832474 0.9877066 0.9869255
0.9844326 0.9849704 0.9940347 0.98652905 1.0012703 0.98434937 0.9842475 0.9890054
0.99151635 0.9876365 0.9901212 0.98332995 0.98771465 0.9875583 0.9932801 0.99716604
0.9842901 0.99596727 0.9863821 1.0005051 0.9877542 1.0049062 0.9858169 0.99307853
0.98840237 0.9914329 1.0065119 0.9851032 1.0008124 0.98595387 0.9866986 0.98708767
0.9860684 1.0118053

ln2.bias f4 [50]
00000000: 855a 993b 1a0f 2ebb c30a 40bb cd52 d73b
00000010: 176c c9b8 2a81 c539 5521 0cbb 486b 0a3c
00000020: 3391 d638 7661 903a 8710 a4ba 5e1a bfb9
00000030: 263e 2e3c 3702 baba 2b96 213a 69b2 fb3a
00000040: 9c6a d3ba bec8 13ba 655f af3a 2f43 33b9
00000050: 4d0e cd3b 76c2 14bb e5f3 37bb b9d6 7e3a
00000060: 5e1a 373b a39e d93a 22cc 203a cc86 39bb
00000070: c303 d9ba 5448 98ba 043e 563b 3727 ce3b
00000080: ae57 45bb 8118 593b 286b ccb8 7316 853b
00000090: 4ede 28bb b854 bfba 1e42 cdba e772 803a
000000a0: e0f1 f43a ddb3 7c3b a4dd d33a 7d5c 4bbb
000000b0: 4933 833c efb2 01ba f6e0 493a 6ab1 46bb
000000c0: dd79 9aba 911e 003c
0.00467998 -0.0026559294 -0.002930329 0.00657115 -9.60456e-05 0.00037671003 -0.0021382172 0.008448429
0.00010231361 0.0011015374 -0.0012517133 -0.00036450004 0.0106349345 -0.0014191334 0.00061640394 0.0019202951
-0.0016129795 -0.0005637518 0.001337987 -0.00017095798 0.0062578083 -0.0022698916 -0.0028068956 0.0009721327
0.00279393 0.0016603064 0.0006133934 -0.0028309105 -0.0016556907 -0.0011618235 0.0032690773 0.006291296
-0.0030112076 0.0033126178 -9.7474374e-05 0.004061514 -0.002576727 -0.0014597392 -0.0015659963 0.0009799869
0.0018687807 0.0038559355 0.0016164077 -0.003103047 0.016015666 -0.00049476227 0.00077010633 -0.003031815
-0.0011785586 0.007819788
