Source_combined/ckps/seizure/source/S15/source_F.pt (torch, 557199 bytes, 8 tensors)

fc1.weight f4 [100, 1332]
0	0xbca24cea	-0.019812066
1	0x3a3a8559	0.0007115207
2	0xbb3dcf00	-0.0028962493
3	0x3c5ecb0a	0.013598213
4	0xbcbd66e7	-0.023120357
5	0x3cf125a6	0.029436897
6	0xbc9c2c54	-0.019064106
7	0xbca4aef5	-0.020102957
8	0x3c997773	0.018733716
9	0x3d060c6a	0.032726683
10	0x3c1f891b	0.009737278
11	0xba33294b	-0.0006834461
12	0x3cb89515	0.022532025
13	0x3d04a2ab	0.032381695
14	0x3c1c73fe	0.009549139
15	0x3c5b0157	0.013367019
16	0x3b60390a	0.0034213685
17	0xbae5ae6a	-0.0017523293
18	0x3b5acc76	0.0033386028
19	0x3d07073a	0.032965876
20	0x3cae5bc1	0.021283986
21	0xbbb6688f	-0.0055666636
22	0xbbde3e76	-0.0067823483
23	0x3cc40db5	0.023932317
24	0x3c9f8455	0.01947228
25	0xbc52cb35	-0.012865831
26	0xbc97f1d9	-0.01854794
27	0xbc81b9d9	-0.01583569
28	0xbce021cb	-0.027359864
29	0xbc179282	-0.009251239
30	0xbca3636a	-0.019944865
31	0x3c8052a1	0.0156644
32	0xbc400691	-0.011720316
33	0x3cc0e205	0.023545275
34	0xbc8018c7	-0.015636815
35	0xbc9a9f7a	-0.018874872
36	0x3c8c4880	0.017124414
37	0xbc5a417e	-0.013321279
38	0x3c97f43b	0.018549075
39	0x3c28f35b	0.010311927
40	0xba5e2f23	-0.0008475652
41	0x3af672fd	0.001880258
42	0x3c8dab5b	0.017293623
43	0x3c1bab73	0.009501326
44	0xbd0620b4	-0.032746032
45	0xbce56430	-0.028001875
46	0xbcfab889	-0.030605571
47	0x3c5eb66f	0.0135933
48	0x3cc54fc2	0.024085883
49	0x3cb6967f	0.022288559
50	0x3ca3fe85	0.020018825
51	0x3ba41a67	0.00500803
52	0x3b900950	0.0043956414
53	0x3ccdcdea	0.025122602
54	0x3a7c9da3	0.0009636527
55	0xbcb6e854	-0.02232758
56	0x3c88939a	0.016671944
57	0x3c6baabc	0.014383968
58	0xbbd732ca	-0.006567334
59	0x3c8d8473	0.01727507
60	0x3c0250b9	0.007953816
61	0x3c7de16c	0.015495639
62	0x3cbfd97c	0.023419134
63	0x3c4444ed	0.011979324
64	0xbc9c0e02	-0.019049648
65	0x3b97bba5	0.0046305233
66	0xbc1353c5	-0.00899214
67	0xbc28a1da	-0.010292495
68	0xbca7328d	-0.020409847
69	0x3c5a0dd0	0.013308957
70	0xbb9b07d5	-0.0047311583
71	0xbc87fb5c	-0.01659935
72	0xbb2c7df4	-0.002632019
73	0xbd0ca034	-0.03433247
74	0xbabdf5d5	-0.0014492819
75	0xbcd7495f	-0.026280103
76	0x3b9d09f1	0.004792445
77	0xbcbb920b	-0.022896787
78	0xbc73733b	-0.014859016
79	0x3bae0169	0.0053102267
80	0x3b3243f0	0.0027201138
81	0x3cb518bd	0.022106523
82	0x3cc62eb6	0.024192195
83	0x3cbeaaa6	0.02327473
84	0x39d16440	0.00039938278
85	0xbc149247	-0.009068078
86	0x3ceac125	0.028656552
87	0xbbf9eda8	-0.007627208
88	0x3c56b56a	0.013104776
89	0xbc855fb4	-0.016280986
90	0xbbc3c864	-0.005974816
91	0xbc070fda	-0.008243525
92	0xbc541cb5	-0.012946297
93	0xbc6e1f24	-0.014533792
94	0x3ad03b68	0.0015886845
95	0x3aa4f55e	0.0012585332
96	0xbc7a0fb0	-0.015262529
97	0xbc8b8108	-0.0170293
98	0x3a70a783	0.00091802346
99	0xbd255978	-0.040368527
100	0x3c1b2e12	0.009471433
101	0xbcc2993f	-0.023754714
102	0xbcb8488c	-0.02249553
103	0x3c08d8c1	0.008352459
104	0xbbceee31	-0.0063150157
105	0x3cb84de4	0.022498079
106	0xbca9fbea	-0.020750005
107	0xbcad7a0c	-0.02117636
108	0x3ccf1615	0.025279084
109	0xbcbda176	-0.02314828
110	0xbbb2db20	-0.0054582506
111	0xbc18d2a6	-0.009327566
112	0xbcaef02e	-0.021354761
113	0x3ab61352	0.0013891256
114	0xbc0e0139	-0.008667284
115	0xbb40d7cf	-0.0029425507
116	0xbb491eba	-0.003068848
117	0xb9bbadf8	-0.00035797036
118	0xbc4db18d	-0.012554538
119	0x3ca952f6	0.020669442
120	0x3be40d85	0.0069596195
121	0xbc88f70d	-0.016719365
122	0xbc9fc26c	-0.019501887
123	0x3c809af3	0.015698886
124	0x3c2f9a35	0.010717918
125	0xbcc5ef95	-0.024162093
126	0xbb91fc0f	-0.0044550966
127	0xbaca9340	-0.0015455261
128	0x3b077166	0.0020666956
129	0xbcb1372f	-0.021632759
130	0xbc440216	-0.011963388
131	0x3c91d36c	0.01780101
132	0x3ca5258a	0.020159502
133	0xbc53eef3	-0.012935388
134	0xba214f3c	-0.00061534694
135	0xbc59d0bd	-0.013294396
136	0xbc832b73	-0.01601193
137	0xbc79eedd	-0.015254703
138	0xbc922adc	-0.017842703
139	0xbc010e55	-0.007876952
140	0xbc853ce3	-0.016264385
141	0xbccbf30b	-0.024896165
142	0x3b73af2a	0.0037183263
143	0xbc02aa48	-0.0079751685
144	0xbc8bb9e0	-0.017056406
145	0xbcb1e2db	-0.021714618
146	0x3ccef666	0.025263976
147	0xbc5824d2	-0.013192372
148	0x3cbfc11b	0.02340751
149	0x3c26e8aa	0.010187307
150	0x3c665c92	0.014060156
151	0x3c3451fa	0.011005873
152	0xbc933ce8	-0.017973378
153	0x3c51544a	0.012776444
154	0x3b93dd80	0.004512489
155	0xbd0068bf	-0.031349894
156	0xbc489fef	-0.012245162
157	0x3c946ba2	0.01811773
158	0xb96d07af	-0.00022604944
159	0xbc8a102a	-0.01685341
160	0xba7e4a7b	-0.00097004295
161	0xbc8737be	-0.016506072
162	0x3b205c59	0.0024469106
163	0x3c46ee7a	0.012141818
164	0x3cad4a59	0.021153616
165	0xbc79e429	-0.0152521515
166	0x39f6e284	0.00047089544
167	0xbcc2e0de	-0.023788866
168	0x3bb1993f	0.0054198797
169	0x3c53487e	0.012895701
170	0xbcccc1f4	-0.024994828
171	0x3c652e98	0.01398816
172	0xbadddf41	-0.0016927497
173	0xbc0dd0c9	-0.008655735
174	0xbc344ab9	-0.011004143
175	0xbcd58060	-0.02606219
176	0xbbcfef5f	-0.006345674
177	0x3be7d958	0.00707547
178	0xbcac1852	-0.02100769
179	0xbb606656	-0.0034240684
180	0x3c17240b	0.009224902
181	0xbc92890c	-0.017887615
182	0x3c44e71f	0.012017994
183	0xbcd49eaf	-0.025954572
184	0xbba4520a	-0.0050146626
185	0xbc7a6c25	-0.015284573
186	0xbb896d44	-0.0041939337
187	0x3cb0b8ed	0.021572554
188	0xbc651346	-0.013981646
189	0x3bc5053a	0.006012586
190	0x3c9194f6	0.017771225
191	0x3ce1baa0	0.02755481
192	0xbcd0884f	-0.025455622
193	0x3cb07716	0.02154116
194	0x3cbc83e6	0.023012113
195	0xbb8e59db	-0.0043442077
196	0xbcbee10b	-0.023300668
197	0xbced77be	-0.028987762
198	0xbc2e5284	-0.01063979
199	0xbbc5c3cf	-0.006035305
200	0xbba2cc53	-0.004968205
201	0xbcc5b81e	-0.024135645
202	0x3c21b50f	0.009869828
203	0x3b8a41f8	0.00421929
204	0xbce25071	-0.027626248
205	0xbabe99bc	-0.0014541666
206	0xbbfe877d	-0.0077676163
207	0xbb5b99e9	-0.0033508486
208	0xbc66ea90	-0.01409401
209	0xbb2d6077	-0.0026455203
210	0xbcb2ac82	-0.021810774
211	0x3c59057e	0.013245938
212	0x3a800ef6	0.0009770084
213	0xbc740d66	-0.014895773
214	0x3c18ae3b	0.0093188835
215	0xbc885ec5	-0.016646752
216	0x3c57d52e	0.013173385
217	0xbc64448a	-0.013932357
218	0x3cdb08c8	0.026737586
219	0xbd0543d0	-0.032535374
220	0xbb50d3d5	-0.0031864543
221	0x3c3fa468	0.011696912
222	0x3c61718c	0.013759982
223	0x3c046964	0.008081768
224	0x3baa772e	0.0052021956
225	0x3bcfcccb	0.006341552
226	0xbc91201e	-0.01771551
227	0xbc6f6ec2	-0.014613809
228	0x3c3b7a40	0.011442721
229	0x3c4bd9f5	0.012442102
230	0x3aa1ed95	0.001235413
231	0xbc9f6775	-0.019458512
232	0xbd0361cc	-0.03207569
233	0x3c85129e	0.016244229
234	0x3c97344f	0.01845756
235	0xbcb21dbb	-0.021742692
236	0xbc8cbc11	-0.01717952
237	0xbc89e5fe	-0.016833302
238	0x3cd7839e	0.026307877
239	0x3cb50ba6	0.022100281
240	0xbc70620d	-0.014671815
241	0xbc141fc2	-0.009040775
242	0xbc1521b1	-0.009102271
243	0xbd002541	-0.031285528
244	0x3ce9186e	0.028454032
245	0x3ba65ad5	0.005076746
246	0xbb2e38fc	-0.0026584258
247	0xbc320e8f	-0.010867729
248	0xbc88616d	-0.016648019
249	0xbcadfc93	-0.0212386
250	0x3cab35e6	0.020899724
251	0x3cbe7bc6	0.02325238
252	0x3ca4e730	0.02012977
253	0xbb86ccc8	-0.0041137673
254	0x3ba01aa3	0.004885988
255	0x3a5efdf9	0.0008506473

fc1.bias f4 [100]
0	0x3c8b13d9	0.016977238
1	0x3c066e0a	0.008204946
2	0x3c172448	0.009224959
3	0xbc89714c	-0.016777657
4	0xbce2b579	-0.027674424
5	0x3d11d320	0.035601735
6	0xbc97536e	-0.0184724
7	0x3c309983	0.010778788
8	0xbd17bacf	-0.03704339
9	0x3c3ae31d	0.011406687
10	0x3d14136a	0.036151327
11	0x3d04504e	0.032303147
12	0x3c1b2bb4	0.009470869
13	0xbc1bd352	-0.009510832
14	0x3b2aac2c	0.0026042564
15	0x3c3ccc2c	0.011523288
16	0xbbda58bc	-0.00666341
17	0xbaccd831	-0.0015628395
18	0x3bc2f160	0.0059491843
19	0xbcb4ed39	-0.022085773
20	0x3c1f9735	0.00974064
21	0x3cd2dae9	0.02573915
22	0xbcc4a36f	-0.024003712
23	0x3cc8a622	0.02449328
24	0xbcb894cd	-0.022531891
25	0xbbedadea	-0.007253398
26	0x3c067e62	0.008208843
27	0x3b7557a0	0.0037436262
28	0x3c62b9f9	0.013838285
29	0x3cee6130	0.029099077
30	0x3c496365	0.012291764
31	0x3cf45311	0.029824765
32	0x3c96519a	0.018349458
33	0xbcbc5717	-0.022990746
34	0x3c312be8	0.010813691
35	0x3c18ca77	0.009325615
36	0xbac2f80a	-0.0014874947
37	0x3c2d856d	0.010590893
38	0xbc9751b4	-0.018471576
39	0xbc608449	-0.013703414
40	0xbc92858f	-0.017885951
41	0xbc5b4a5a	-0.013384426
42	0xbc5b6d30	-0.013392732
43	0x3cc8629c	0.024461083
44	0x3b26e537	0.0025466213
45	0x3b80863f	0.0039222534
46	0xbc76c8b1	-0.015062497
47	0x3c139eff	0.009010076
48	0x3bd9cebe	0.00664696
49	0x3c08e939	0.008356386
50	0x3ce018e8	0.027355626
51	0xbd057646	-0.032583497
52	0xbc3fb996	-0.011701962
53	0xbbfb881c	-0.0076761376
54	0x3b8aac74	0.004231984
55	0x3d292c5e	0.041302077
56	0xbc992913	-0.018696344
57	0x3d288146	0.04113891
58	0x3b8e1465	0.0043359273
59	0xbc614844	-0.01375014
60	0xbc5738d8	-0.013136111
61	0xbc3e003f	-0.011596738
62	0xbc13cc86	-0.00902093
63	0x3cd69614	0.02619461
64	0xbcafc045	-0.021453986
65	0x3c17c155	0.009262403
66	0x3aa98e1e	0.0012936031
67	0xbc97ae2d	-0.01851567
68	0xbbd4a1a7	-0.006488997
69	0x3beef382	0.007292212
70	0x3c5fc5b7	0.013657979
71	0xbd440c8b	-0.047863524
72	0xbd132c51	-0.035930935
73	0x3b50dba0	0.0031869188
74	0xbc335d2e	-0.010947509
75	0xbbcbb118	-0.0062161796
76	0x3c3782c5	0.0112006115
77	0xbc400672	-0.011720287
78	0x3cb1f569	0.021723466
79	0xbc46e3dc	-0.012139287
80	0xbccb84c7	-0.024843587
81	0xbaf5e8df	-0.0018761418
82	0xbc3dd242	-0.011585774
83	0xbb9b7b82	-0.004744948
84	0x3b7272e7	0.0036994757
85	0xbbcd29d8	-0.0062610917
86	0x3b6692ac	0.0035182638
87	0xbd15167f	-0.036398407
88	0x3c0bf295	0.008541723
89	0xbc2bd112	-0.010486858
90	0x3ad44dc4	0.0016197492
91	0x3cad05d8	0.02112095
92	0xbc553ddc	-0.013015237
93	0xbc3256a1	-0.010884912
94	0x3c9fd97e	0.019512888
95	0xbc3dda04	-0.0115876235
96	0x3c36dd0b	0.011161099
97	0xbca89363	-0.020578092
98	0x3c96e51b	0.018419793
99	0x3bdc14d9	0.0067163524

ln1.weight f4 [100]
0	0x3f757856	0.95886743
1	0x3f791f76	0.9731363
2	0x3f78397a	0.969627
3	0x3f781fe9	0.9692369
4	0x3f7aa0e8	0.97901773
5	0x3f7fcc21	0.9992085
6	0x3f78b1ce	0.9714631
7	0x3f7b0bc5	0.98064834
8	0x3f781b7d	0.96916944
9	0x3f78a274	0.97122884
10	0x3f79a2f7	0.9751429
11	0x3f7bc63a	0.98349345
12	0x3f77a40a	0.9673468
13	0x3f7b1888	0.98084307
14	0x3f7ca123	0.98683375
15	0x3f79a820	0.97522163
16	0x3f77be6a	0.96774924
17	0x3f781e9c	0.96921706
18	0x3f7dfc37	0.99212974
19	0x3f79b8c2	0.97547543
20	0x3f78c536	0.9717592
21	0x3f7a72f4	0.97831655
22	0x3f783c0d	0.9696663
23	0x3f7b2a74	0.98111653
24	0x3f7b2968	0.98110056
25	0x3f7a65b2	0.97811425
26	0x3f79fa04	0.9764712
27	0x3f79155f	0.97298235
28	0x3f7eef47	0.9958386
29	0x3f7aef17	0.9802107
30	0x3f78c65d	0.9717768
31	0x3f791f5b	0.9731347
32	0x3f79761b	0.9744584
33	0x3f7879d7	0.9706091
34	0x3f7ab49c	0.9793184
35	0x3f77a150	0.9673052
36	0x3f794e1d	0.97384816
37	0x3f7b0a39	0.98062474
38	0x3f754061	0.9580136
39	0x3f78e5be	0.9722556
40	0x3f76a304	0.9634249
41	0x3f7a4860	0.97766685
42	0x3f786f99	0.97045285
43	0x3f791992	0.9730464
44	0x3f774c90	0.966012
45	0x3f797f73	0.974601
46	0x3f789a7d	0.9711073
47	0x3f7b1482	0.9807817
48	0x3f79b5ba	0.9754292
49	0x3f797433	0.9744293
50	0x3f77b281	0.9675675
51	0x3f78971e	0.97105587
52	0x3f789de7	0.9711594
53	0x3f796863	0.97424906
54	0x3f79bd82	0.9755479
55	0x3f7bdcbf	0.98383707
56	0x3f786ccf	0.9704103
57	0x3f7bb182	0.9831773
58	0x3f789b5c	0.9711206
59	0x3f794217	0.9736647
60	0x3f7b0176	0.98049104
61	0x3f7afd3e	0.98042667
62	0x3f785303	0.97001666
63	0x3f7bc4e6	0.9834732
64	0x3f77a154	0.9673054
65	0x3f781c0f	0.96917814
66	0x3f7ac8e7	0.979628
67	0x3f7acd3c	0.9796941
68	0x3f7a56df	0.97788805
69	0x3f7a1fa5	0.97704536
70	0x3f785f00	0.9701996
71	0x3f766aed	0.96256906
72	0x3f77b4f9	0.9676052
73	0x3f79d333	0.9758789
74	0x3f79dd59	0.97603375
75	0x3f7c8921	0.9864674
76	0x3f805b2e	1.0027826
77	0x3f7c6597	0.98592514
78	0x3f7b974a	0.98277724
79	0x3f78420f	0.969758
80	0x3f7892c8	0.9709897
81	0x3f791f0b	0.9731299
82	0x3f78f3de	0.9724711
83	0x3f79acf3	0.97529525
84	0x3f78e13f	0.972187
85	0x3f7a86e0	0.9786205
86	0x3f7add76	0.9799417
87	0x3f7a91d3	0.9787876
88	0x3f7736b1	0.9656783
89	0x3f7c973e	0.9866828
90	0x3f772013	0.96533316
91	0x3f7b7107	0.9821934
92	0x3f78225f	0.96927446
93	0x3f752b74	0.9576943
94	0x3f791150	0.9729204
95	0x3f77fda9	0.9687143
96	0x3f7a1824	0.97693086
97	0x3f795811	0.97400004
98	0x3f772c5e	0.96552074
99	0x3f798915	0.97474796

ln1.bias f4 [100]
0	0xbc28fa0b	-0.010313521
1	0xb9d4212d	-0.0004046051
2	0xbc043591	-0.008069412
3	0xbc21a6ab	-0.009866397
4	0xbbd3e015	-0.0064659216
5	0x3c38cc3c	0.011279162
6	0xbb3289c3	-0.0027242757
7	0xbad9e8c7	-0.0016625159
8	0xbcbb977c	-0.022899382
9	0xbb21f18d	-0.0024710626
10	0x3c070a4a	0.008242199
11	0x3b7288c8	0.0037007798
12	0xbc3e953a	-0.011632258
13	0x3b1e5dba	0.0024164752
14	0x3ad88c34	0.0016521276
15	0x3b9fecdb	0.0048805303
16	0xbc57836d	-0.013153893
17	0xbbb15a7e	-0.005412399
18	0x3c406937	0.011743835
19	0xbbf3056f	-0.007416419
20	0xbbeb1c87	-0.0071750316
21	0x3965856a	0.00021888842
22	0xbbfcc46d	-0.0077138455
23	0x3b502c94	0.0031764852
24	0xba0eb38c	-0.00054436247
25	0xbb29de84	-0.0025919983
26	0xbb823b8e	-0.0039743846
27	0xbbc80561	-0.006104157
28	0x3bb10764	0.0054024924
29	0x35f65d24	1.8355536e-06
30	0x3b3d3662	0.0028871526
31	0xbb242e4e	-0.0025052014
32	0xba12cc90	-0.000559994
33	0xbbfe686e	-0.007763914
34	0x3b3c3011	0.0028715173
35	0xbc56ea23	-0.013117346
36	0xba412dab	-0.0007369171
37	0xbb7f2d0a	-0.0038936757
38	0xbc4086e4	-0.01175091
39	0xbbdc09f3	-0.006715053
40	0xbc4078e5	-0.0117475735
41	0xb6c01275	-5.7241946e-06
42	0xbccb7f4b	-0.024840971
43	0x3a77cdbd	0.00094529596
44	0xbc2368b8	-0.009973697
45	0x3aa69d0d	0.00127116
46	0xbabc65a0	-0.0014373548
47	0xbbbb0249	-0.0057070595
48	0x3908e01d	0.0001305346
49	0xbb959af5	-0.0045655915
50	0x3bf3e5b2	0.0074431533
51	0xbbf10df8	-0.0073564015
52	0x3adc0315	0.0016785586
53	0x3a82f4a3	0.000999112
54	0x38cd6925	9.7947464e-05
55	0x3c388ffd	0.011264798
56	0xbbc87f9f	-0.0061187292
57	0x3bc84670	0.0061119124
58	0xbc54b958	-0.0129836425
59	0xba26bd1a	-0.0006360576
60	0x3b0537c6	0.0020327433
61	0x3b17cc8c	0.002316269
62	0xbc01f438	-0.007931761
63	0xba605763	-0.00085579435
64	0xbc2e0ed5	-0.010623653
65	0xbc70dbec	-0.014700871
66	0xbcaf4261	-0.021393957
67	0x3b7dc636	0.003872288
68	0x3ac353d4	0.0014902302
69	0x3896ddd9	7.19388e-05
70	0xbc36e9fd	-0.011164186
71	0xbccd08cb	-0.025028607
72	0xbc4679e5	-0.012114023
73	0xba4c5072	-0.00077939697
74	0x3bf66cf7	0.007520314
75	0x3b8534e2	0.004065142
76	0x3c12a1d7	0.008949718
77	0x3c212e83	0.009837749
78	0x3c0e2443	0.008675638
79	0xbb9eca33	-0.0048458814
80	0xbbcdd8d4	-0.0062819514
81	0x3a8b9bbc	0.0010651271
82	0xbb7bd864	-0.003842854
83	0xbbfc3f67	-0.007697988
84	0xbbe05449	-0.006845985
85	0xbbc7e706	-0.006100538
86	0x3ad3472b	0.0016119232
87	0xbc6dd368	-0.014515735
88	0xbc4b9a94	-0.012426991
89	0x3b9424cd	0.0045209886
90	0xbca3f192	-0.02001265
91	0x3bc25c29	0.0059313965
92	0xbc75be57	-0.014998994
93	0xbc8f6b1d	-0.01750713
94	0x3b2c68f1	0.0026307667
95	0xbbd3c122	-0.006462232
96	0x3b078e6f	0.0020684262
97	0xbb4d543f	-0.0031330732
98	0xbbe306a4	-0.006928282
99	0xbae21ed4	-0.0017251619

fc2.weight f4 [50, 100]
0	0xbd9f94e2	-0.07792069
1	0xbd8222b1	-0.06354273
2	0x3de77a94	0.11302677
3	0xbdc48930	-0.09596479
4	0x3d400670	0.04688114
5	0xbe057c7b	-0.13035767
6	0xbdd24ba6	-0.10268335
7	0xbd46b023	-0.04850782
8	0x3d3f2fee	0.04667657
9	0xbe82b026	-0.25525016
10	0xbd8ae8d5	-0.067826904
11	0xbc50c5e7	-0.012742496
12	0xbdf483d5	-0.119392075
13	0xbd2dd817	-0.042442407
14	0xbe1e4ac1	-0.15458204
15	0xbd7ca756	-0.06168302
16	0x3dcabb80	0.09899044
17	0x3e8567e4	0.26055825
18	0x3d1b366e	0.037893705
19	0x3d006f61	0.03135622
20	0xbdcf910c	-0.10135087
21	0x3e20143f	0.15632723
22	0x3dca7df8	0.09887308
23	0x3d2e8d7d	0.042615402
24	0xbe07b021	-0.13250782
25	0x3e5b34a3	0.21406798
26	0xbd0dd445	-0.034626264
27	0x3d011e22	0.031522878
28	0x3c821911	0.015881093
29	0x3b1f41ab	0.0024300616
30	0xbe74353f	-0.23848437
31	0xbe1d5f38	-0.15368354
32	0xbe18685b	-0.14883558
33	0x3d13596c	0.03597395
34	0x3e3ca76a	0.18423238
35	0x3de62d04	0.11239055
36	0x3d1bf56c	0.03807585
37	0xbe698570	-0.22804809
38	0xbd6f4ece	-0.058424763
39	0xbe1a29bf	-0.15054987
40	0x3c753e51	0.014968471
41	0xbd54523c	-0.051836237
42	0x3e197f57	0.14989983
43	0x3de5d020	0.11221337
44	0xbac3ed9c	-0.0014948132
45	0xbd33302e	-0.04374712
46	0xbcc7ee1f	-0.024405537
47	0x3def46f5	0.11683456
48	0x3d7461c0	0.059663534
49	0x3e8b476f	0.27202937
50	0xbe361d45	-0.17784603
51	0x3c08f6d7	0.008359632
52	0x3bba0a9c	0.0056775343
53	0xbe20d4f2	-0.15706232
54	0xbdfb73af	-0.12277924
55	0x3e4343c5	0.19068821
56	0xbd93b627	-0.07212477
57	0xbdd1da01	-0.10246659
58	0x3d563c07	0.05230334
59	0x3d2df6b3	0.0424716
60	0xbe39dd48	-0.18150818
61	0xbdd66499	-0.10468406
62	0x3b0c22fb	0.0021383155
63	0x3dc10fe8	0.09426862
64	0xbb57b0d8	-0.0032911804
65	0x3cdfaed2	0.02730504
66	0x3e8faacb	0.28059992
67	0xbdcef285	-0.10104851
68	0xbdb574c8	-0.08860165
69	0xbdedef47	-0.11617904
70	0xbeab0824	-0.33404648
71	0x3bbfcd58	0.0058533363
72	0x3e325ee8	0.17419016
73	0xbae2005f	-0.0017242542
74	0x3bbfb4cc	0.00585041
75	0x3d6d4274	0.057924703
76	0x3b0085bf	0.001961097
77	0x3d24a1e2	0.040193446
78	0x3dd3fe75	0.10351268
79	0x3dc4424d	0.09582958
80	0xbe1e75bf	-0.15474604
81	0x38e6d726	0.00011007329
82	0xbe11c73b	-0.14236157
83	0x3e2b00f6	0.16699585
84	0x3c233772	0.00996195
85	0x3c6f9852	0.014623718
86	0x3e3fadc7	0.18718635
87	0xbca9fb45	-0.020749697
88	0x3d9908d4	0.07472387
89	0xbe0d93d1	-0.13825919
90	0xbdecabe6	-0.115562245
91	0xbd2fc754	-0.042914703
92	0x3d018c3c	0.03162788
93	0xbdbd48ae	-0.09242378
94	0xbd2017c2	-0.039085157
95	0xbd28a7e6	-0.041175745
96	0x3bd9df2d	0.006648919
97	0xbe5e3ae4	-0.21702152
98	0x3ddd0fde	0.10794042
99	0x3d8a7a39	0.06761593
100	0x3d966a80	0.07344532
101	0xbdca8441	-0.09888507
102	0x3e436c23	0.1908422
103	0xbd4bfb6a	-0.049800314
104	0x3e0b3ce6	0.1359745
105	0xbe71b03e	-0.23602387
106	0x3e0ce1c3	0.13757996
107	0xbc8c6883	-0.017139679
108	0x3db9e6d9	0.09077234
109	0xbc8d404a	-0.01724257
110	0x3e0b4506	0.13600549
111	0xbdcb65d7	-0.09931534
112	0xbd557b54	-0.052119568
113	0xbc4c5a43	-0.012472692
114	0xbe09ca07	-0.13455974
115	0xbdb8d8a9	-0.090257
116	0x3d91c1fb	0.07117077
117	0x3e3824e3	0.17982821
118	0xbcf47296	-0.029839795
119	0x3de7b850	0.11314452
120	0xbd47d308	-0.04878524
121	0x3da6bec9	0.08141858
122	0x3cc128ab	0.023578962
123	0xbcaafd86	-0.020872843
124	0x3df8b7cf	0.12144434
125	0x3e1a35ac	0.15059537
126	0x3d26fbab	0.040767353
127	0xbe0002db	-0.1250109
128	0xbdb56bdf	-0.088584654
129	0x3d1b5420	0.037922025
130	0x3c80c7ed	0.015720332
131	0xbe653fc1	-0.22387601
132	0x3cc1934b	0.023629805
133	0x3e1486c3	0.14504533
134	0x3cff3832	0.031154726
135	0xbdaa9394	-0.083289295
136	0xbdd4e654	-0.10395494
137	0xbd8833c9	-0.06650502
138	0xbdbe2909	-0.092851706
139	0x3c837a49	0.016049521
140	0x3daa6535	0.08320085
141	0x3d87db00	0.06633568
142	0xbce425fd	-0.027850145
143	0x3d38962f	0.0450651
144	0x3de7176c	0.11283764
145	0x3d27de36	0.0409834
146	0x3e1f206e	0.15539715
147	0xbdf21ebb	-0.118222676
148	0x3d726aff	0.05918407
149	0x3dea851f	0.11451172
150	0xbdae407e	-0.08508395
151	0x3df5a2d5	0.11993948
152	0x3d066d13	0.032818865
153	0xbe163a30	-0.14670634
154	0xbd95598a	-0.07292469
155	0x3da84d89	0.08217914
156	0xbdd57fe4	-0.10424784
157	0x3dcc420d	0.09973536
158	0x3e2ca26a	0.16858831
159	0x3d03f51a	0.03221617
160	0x3d0ef6d9	0.03490338
161	0xbdf3dead	-0.119077064
162	0xbde55989	-0.11198718
163	0xbd6ec2e1	-0.05829132
164	0x3d522d4e	0.051312737
165	0xbe3763b1	-0.17909123
166	0x3ddf0032	0.10888709
167	0x3daf06a4	0.085461885
168	0x3d155db9	0.036466334
169	0x3d4afe2e	0.04955881
170	0x3de27fb9	0.110595174
171	0x3e0c0858	0.13675058
172	0x3e5caf1e	0.21551177
173	0xbd9292a7	-0.07156878
174	0xbc968b69	-0.018377023
175	0xbd952755	-0.072828926
176	0xbd24123b	-0.04005645
177	0x3e3aba70	0.18235183
178	0x3d0401d4	0.032228306
179	0xbe1b8428	-0.15187132
180	0xbd95393a	-0.07286306
181	0xbddaedef	-0.106899135
182	0xbdb6c636	-0.089245245
183	0xbcaf4f41	-0.021400096
184	0xbeb0932e	-0.3448729
185	0x3d4b8873	0.049690675
186	0xbcad9e6d	-0.021193707
187	0x3d30556d	0.04305022
188	0xbd2d4876	-0.042305432
189	0xbddfa0b1	-0.10919321
190	0x3d43118b	0.047624152
191	0xbd7ff9cc	-0.062494084
192	0xbe97e14d	-0.29664078
193	0x3e16153f	0.14656542
194	0xbe8b6b38	-0.2723024
195	0xbbf86046	-0.007579836
196	0x3dd3812b	0.10327371
197	0x3e0bb090	0.13641572
198	0x3d818070	0.06323326
199	0x3bb31427	0.005465049
200	0xbe20c9c8	-0.15701973
201	0xbe127a47	-0.14304458
202	0x3dcfb18c	0.10141286
203	0xbd8d4535	-0.06897966
204	0x3df949e7	0.12172299
205	0xbba53adc	-0.005042417
206	0x3d8c5625	0.06852368
207	0x3dfe5150	0.12417853
208	0xbda63305	-0.081152
209	0x3cac3b29	0.021024304
210	0xbe1e2f03	-0.15447621
211	0xbb8622a6	-0.004093486
212	0x3dbc4e5e	0.09194635
213	0x3e4e9664	0.20174557
214	0xbd1ebc81	-0.03875399
215	0x3e259c29	0.16172852
216	0xbd000365	-0.031253237
217	0xbd1cda41	-0.03829408
218	0x3d1fa740	0.03897786
219	0xbcacfbba	-0.021116126
220	0xbe3d5863	-0.18490748
221	0xbd665504	-0.05623342
222	0x3e0c464c	0.13698691
223	0x3e024c19	0.12724341
224	0x3ca637bb	0.020290246
225	0xbe60f599	-0.21968688
226	0x3d1c9905	0.03823187
227	0x3ddd8211	0.10815824
228	0x3de95948	0.11393982
229	0xbe251d28	-0.16124403
230	0x3b315644	0.0027059475
231	0x3d605108	0.054764777
232	0xbd146220	-0.03622639
233	0xbe39e277	-0.18152796
234	0xbda25d8a	-0.079279974
235	0x3d0b612e	0.034028225
236	0x3dd58475	0.10425655
237	0xbcc9ed46	-0.024649274
238	0xbdaf2b1d	-0.08553145
239	0x3e472553	0.19447832
240	0xbdf8cad1	-0.12148059
241	0xbd0adcf2	-0.033902116
242	0xbddcdb73	-0.10784044
243	0xbe035e05	-0.12828834
244	0xbe1bbc0b	-0.15208451
245	0xbc8906dd	-0.016726905
246	0xbd41ee91	-0.047346655
247	0x3de3ab94	0.1111671
248	0x3d9c134a	0.076208666
249	0x3d1188c4	0.03553082
250	0x3da85d3f	0.0822091
251	0xbcb2ffab	-0.021850428
252	0x3e11a4d0	0.14223027
253	0xbcc203c3	-0.023683434
254	0x3d0baa96	0.03409823
255	0x3b6ef556	0.003646215

fc2.bias f4 [50]
0	0xbad517ef	-0.0016257743
1	0x3ba3afb9	0.004995313
2	0x3c5bf5bd	0.013425288
3	0xbc006435	-0.007836391
4	0xbbeef4ca	-0.0072923647
5	0x3b18d59c	0.002332068
6	0xbcd86079	-0.02641319
7	0x3acaa459	0.0015460356
8	0xbb96ea23	-0.004605548
9	0xbc30e801	-0.010797502
10	0x3b0eb8e2	0.002177768
11	0xbbbfb631	-0.0058505763
12	0xb923d2a2	-0.00015623358
13	0x3b40072f	0.0029301157
14	0x3c60c4a6	0.01371876
15	0x3be0099f	0.0068370844
16	0xbb2d5f25	-0.0026454416
17	0x3c17fe6c	0.0092769675
18	0x3c908dbf	0.017645715
19	0xbbef887d	-0.007309972
20	0x3b530a7b	0.0032202292
21	0xbce8e3e0	-0.028428972
22	0x3b34bca8	0.0027578268
23	0xbc84ebaf	-0.016225664
24	0xbc1a8d5b	-0.009433116
25	0xbbc97d31	-0.006148957
26	0xbb6b0eed	-0.003586705
27	0xbc122c21	-0.008921654
28	0xbacc4734	-0.0015585185
29	0x3cffab29	0.031209545
30	0xba339b89	-0.00068514846
31	0x3b0962a3	0.0020963333
32	0x3bf49919	0.0074645397
33	0x3c1bdda6	0.009513294
34	0x3aa6d2b9	0.0012727595
35	0xbb78ceaf	-0.003796499
36	0x3bab2232	0.0052225823
37	0x3bc9f669	0.0061634076
38	0xb748421d	-1.1936322e-05
39	0xbc8b9a6b	-0.017041406
40	0x3b5b5679	0.003346829
41	0x3becd0ac	0.007227024
42	0xbb99b2b3	-0.004690492
43	0x3c57a0c2	0.013160886
44	0x3c5f3152	0.013622599
45	0xbc58f180	-0.013241172
46	0xbbcf2fb4	-0.0063228253
47	0xbb45c216	-0.0030175499
48	0x3bf84b64	0.0075773466
49	0x3c11deb2	0.008903192

ln2.weight f4 [50]
0	0x3f7960c1	0.9741326
1	0x3f7f0119	0.9961105
2	0x3f7a0be4	0.97674394
3	0x3f7e0e54	0.99240613
4	0x3f7b6c09	0.98211724
5	0x3f7f7ed3	0.99802893
6	0x3f7deef7	0.99192756
7	0x3f784edd	0.96995336
8	0x3f835324	1.0259748
9	0x3f7d8ee7	0.99046177
10	0x3f79029b	0.972696
11	0x3f7ab8cd	0.97938234
12	0x3f7e28ca	0.9928099
13	0x3f792937	0.97328514
14	0x3f7b8ca9	0.98261505
15	0x3f7987ba	0.9747273
16	0x3f794465	0.97369987
17	0x3f7ae032	0.97998345
18	0x3f7ac1a9	0.9795175
19	0x3f786ce6	0.97041166
20	0x3f7a6b67	0.9782013
21	0x3f794470	0.9737005
22	0x3f78f88b	0.97254246
23	0x3f80e3bc	1.0069499
24	0x3f75e1cb	0.9604766
25	0x3f76dba9	0.96428925
26	0x3f77fe66	0.96872556
27	0x3f7da787	0.9908375
28	0x3f789b70	0.9711218
29	0x3f821b7f	1.0164641
30	0x3f79d701	0.97593695
31	0x3f7affe6	0.9804672
32	0x3f795b1e	0.9740466
33	0x3f7eb3e7	0.9949326
34	0x3f7d6e15	0.98996097
35	0x3f788056	0.97070825
36	0x3f79991e	0.97499263
37	0x3f7e38c8	0.9930539
38	0x3f7b4995	0.9815915
39	0x3f7df7e9	0.99206406
40	0x3f73e64c	0.9527328
41	0x3f798135	0.9746278
42	0x3f7968e8	0.974257
43	0x3f7b5326	0.9817375
44	0x3f7d00c7	0.9882931
45	0x3f8106f4	1.0080247
46	0x3f7899fe	0.97109973
47	0x3f78ecf4	0.9723656
48	0x3f798649	0.9747053
49	0x3f798279	0.9746471

ln2.bias f4 [50]
0	0xb9a50f71	-0.00031482757
1	0x3c51f29f	0.012814193
2	0x3b058d7d	0.0020378523
3	0xbbc6240c	-0.0060467776
4	0xba324aef	-0.0006801327
5	0xba2d4291	-0.00066093454
6	0xbc42cd37	-0.011889747
7	0xbbd54380	-0.006508291
8	0x3b41ee99	0.0029591678
9	0xbb54dfb1	-0.0032481963
10	0xbb8a0aae	-0.004212699
11	0xbb5e7375	-0.003394333
12	0xbc52aed2	-0.012859063
13	0xbb10f7d3	-0.002212037
14	0x3b84e531	0.004055642
15	0xb90648fa	-0.00012806422
16	0xbb5e8d7f	-0.003395885
17	0xbaae290e	-0.0013287382
18	0x3c3bed21	0.01147011
19	0xbc2fad98	-0.01072254
20	0xbacc2441	-0.0015574769
21	0xbc3ad319	-0.011402869
22	0xbb46fdb2	-0.0030363617
23	0xbb8104a3	-0.0039373203
24	0xbc1d61df	-0.009605854
25	0xbc14cd86	-0.009082204
26	0xbbabd43d	-0.0052438066
27	0xbc00bf99	-0.00785818
28	0xbbc61320	-0.0060447603
29	0x3c893c31	0.016752334
30	0xbb2ce5e6	-0.0026382147
31	0x39819ef8	0.00024723238
32	0xba6b79d0	-0.000898269
33	0xb93c42eb	-0.00017954006
34	0xba4bcb36	-0.0007774116
35	0xbbbab746	-0.0056981174
36	0xb9cc7708	-0.00038998597
37	0x3b21a4fd	0.002466499
38	0xbb3455fb	-0.0027517069
39	0xbc11eb18	-0.008906148
40	0xbbdff1c4	-0.0068342406
41	0xba150107	-0.0005684052
42	0xbbbc9980	-0.0057556033
43	0x3be9a70f	0.0071305106
44	0x3ba424f1	0.0050092866
45	0x3b037f82	0.0020065014
46	0xbbe1f2cc	-0.0068953987
47	0xbb2594c2	-0.0025265669
48	0xb92b91bd	-0.00016362123
49	0xba5e765a	-0.00084862637
