Source_combined/ckps/seizure/source/Except_S25_sort/source_C.pt (torch, 1763 bytes, 3 tensors)

fc.bias f4 [2]
-0.038550153 0.038541727
00000000: c4e6 1dbd eedd 1d3d

fc.weight_g f4 [2, 1]
1.6873262 1.7193601
00000000: 4efa d73f fe13 dc3f

fc.weight_v f4 [2, 50]
0.054099176 -0.08711877 -0.046708614 -0.08134881 0.096946746 -0.1464736 -0.17153956 0.1363609
-0.03726121 0.11471405 -0.019403594 0.14099714 0.042396143 0.03926283 0.10230723 0.07047538
-0.057180185 0.054400966 0.024827247 0.16445376 -0.16637392 0.031348415 0.010011863 -0.13003343
0.13672331 0.05475766 -0.08637942 0.15790154 -0.145213 -0.16708034 -0.050705988 0.06400721
-0.14341196 -0.18688136 -0.040301755 -0.010723394 -0.21226522 0.085645206 0.1473647 -0.083399184
-0.09294674 0.17931339 0.110558145 0.054595362 -0.124071926 0.0106175635 -0.07683348 0.09229249
0.0046526287 0.014542657 -0.05303137 0.08840474 0.048209824 0.08427728 -0.101450175 0.14941172
0.17518806 -0.13912429 0.03812488 -0.11740054 0.01856136 -0.14201565 -0.042264666 -0.041581195
-0.104226485 -0.06939091 0.05918474 -0.056161024 -0.026537238 -0.16797276 0.16943398 -0.030438572
-0.010744686 0.13374609 -0.14147396 -0.059095096 0.086631924 -0.1607061 0.14709292 0.17111506
0.050117236 -0.06579034 0.14583041 0.19015665 0.041660998 0.0144916745 0.21594888 -0.087229736
-0.15216887 0.08217796 0.095845275 -0.1838225 -0.11409458 -0.054548234 0.12667948 -0.007768098
0.075776264 -0.09214957 -0.005233409 -0.015184753
00000000: 1997 5d3d 536b b2bd 8851 3fbd 349a a6bd
00000010: 048c c63d 2dfd 15be 11a8 2fbe 31a2 0b3e
00000020: 369f 18bd 33ef ea3d 49f4 9ebc 8e61 103e
00000030: 94a7 2d3d 10d2 203d 7486 d13d 6555 903d
00000040: c535 6abd 8cd3 5e3d 8362 cb3c 9166 283e
00000050: ed5d 2abe 3267 003d cc08 243c 7c27 05be
00000060: 3201 0c3e 9149 603d b1e7 b0bd f1b0 213e
00000070: b7b2 14be 1c17 2bbe 15b1 4fbd 3616 833d
00000080: 96da 12be d45d 3fbe 7413 25bd 2db1 2fbc
00000090: 0e5c 59be c166 af3d c6e6 163e 31cd aabd
000000a0: dc5a bebd ee9d 373e 4f6c e23d 639f 5f3d
000000b0: 6c19 febd 4af5 2d3c df5a 9dbd d803 bd3d
000000c0: 1475 983b 5344 6e3c 6c37 59bd 8b0d b53d
000000d0: aa77 453d 9199 ac3d 1cc5 cfbd 63ff 183e
000000e0: 8064 333e 9976 0ebe d628 1c3d b26f f0bd
000000f0: fe0d 983c 8d6c 11be b71d 2dbd 0b51 2abd
00000100: b274 d5bd d21c 8ebd b36b 723d 1a09 66bd
00000110: 9f64 d9bc 0d01 2cbe 1a80 2d3e 505a f9bc
00000120: 7b0a 30bc bcf4 083e 8dde 10be b30d 72bd
00000130: 146c b13d 2490 24be 879f 163e c938 2f3e
00000140: bb47 4d3d 16bd 86bd 9154 153e 6db8 423e
00000150: b9a4 2a3d 7d6e 6d3c b421 5d3e 81a5 b2bd
00000160: 28d2 1bbe eb4c a83d 874a c43d f73b 3cbe
00000170: 6baa e9bd f86d 5fbd 44b8 013e 878b febb
00000180: 9630 9b3d eab8 bcbd 047d abbb 78c9 78bc
