Source_combined/ckps/seizure/source/S64/source_C.pt (torch, 1763 bytes, 3 tensors)

fc.bias f4 [2]
0	0x3edc14dd	0.42984667
1	0xbedc1562	-0.42985064

fc.weight_g f4 [2, 1]
0	0x4002809a	2.0390992
1	0x3feffdd9	1.8749343

fc.weight_v f4 [2, 50]
0	0x3d06800b	0.032836955
1	0xbe937a97	-0.28804466
2	0x3e4c0e9a	0.19927445
3	0xbe6728cf	-0.22574161
4	0xbeb739dd	-0.35786334
5	0x3f2b7f73	0.6699135
6	0x3d7edda6	0.0622231
7	0xbe830687	-0.25590917
8	0x3cada789	0.021198051
9	0x3e0b6b5b	0.13615172
10	0x3e45c2d1	0.19312598
11	0xbee492c2	-0.44643217
12	0x3d882062	0.066468015
13	0x3ee5b48b	0.44864306
14	0xbdd994bc	-0.10624072
15	0xbca6d569	-0.020365434
16	0x3d47885f	0.048714038
17	0x3f222381	0.63335425
18	0xbcbdee14	-0.023184814
19	0x3ea8833b	0.3291262
20	0x3edbd9be	0.42939562
21	0xbf356487	-0.7085652
22	0xbea92648	-0.3303702
23	0x3c181fc8	0.009284921
24	0x3f21b641	0.6316872
25	0x3d90b6da	0.07066126
26	0xbea94371	-0.33059266
27	0xbf5c9b77	-0.8617472
28	0x3e6871a7	0.22699605
29	0xbd1a68e1	-0.037697677
30	0xbb2ba1f0	-0.0026189052
31	0x3e09548b	0.13411157
32	0x3e92b54d	0.28653947
33	0x3ec9f6dc	0.3944615
34	0xbe08d740	-0.13363361
35	0x3cad60ba	0.021164287
36	0x3e3d01dd	0.18457742
37	0xbcd64082	-0.026153807
38	0x3bed54d2	0.0072427774
39	0x3dd51900	0.10405159
40	0x3d7facc8	0.062420636
41	0x3db25143	0.08706906
42	0x3ec4aaef	0.38411662
43	0xbf24b436	-0.6433748
44	0x3dacba87	0.08434015
45	0x3d82e30f	0.06390964
46	0xbe1c6c41	-0.1527567
47	0xbe19b1e9	-0.15009274
48	0x3f088a6a	0.53336203
49	0xbc48503c	-0.012226161
50	0x3db34fca	0.08755453
51	0x3eb59227	0.35463068
52	0xbe7bd5b0	-0.24593234
53	0x3e93afc9	0.2884505
54	0x3e839fd8	0.2570789
55	0xbf12a1a2	-0.5727788
56	0xbccbb288	-0.024865404
57	0x3e9f3575	0.31095472
58	0x3c3b38e5	0.011427139
59	0xbe1a3f6e	-0.15063259
60	0xbe717a96	-0.23581919
61	0x3ecbf24f	0.39833304
62	0xbd973dae	-0.07384811
63	0xbef693a4	-0.48159516
64	0x3dbdfeed	0.09277139
65	0xbc590f1d	-0.013248232
66	0x3d6501ec	0.055910036
67	0xbf276982	-0.6539537
68	0x3ca8c75d	0.020602876
69	0xbeca44e0	-0.39505672
70	0xbeedb9fd	-0.4643096
71	0x3f0b97a2	0.5452825
72	0x3ebf5426	0.37368888
73	0x3d1c1483	0.0381055
74	0xbf0f2dc9	-0.5592924
75	0x3d8b7ed1	0.06811298
76	0x3e8d2ae1	0.27571777
77	0x3f5c7a1e	0.86123836
78	0xbe430dbc	-0.19048208
79	0x3dc5aa1b	0.09651586
80	0xbde3a1c7	-0.11114841
81	0xbe7f1b40	-0.24912739
82	0xbe469007	-0.1939088
83	0xbe9fde9a	-0.3122452
84	0x3d60e8fe	0.0549097
85	0x3d13f054	0.036117867
86	0xbcb57536	-0.022150617
87	0x3d8d5e51	0.06902755
88	0xbd7a511c	-0.06111251
89	0xbe20533f	-0.15656756
90	0xbcc25bba	-0.02372538
91	0xbe0a8e7c	-0.13530916
92	0xbe9689ac	-0.2940191
93	0x3f010d19	0.5041061
94	0x3d0d2a0a	0.03446392
95	0xbdce5635	-0.100750364
96	0x3db9c81f	0.09071373
97	0x3d9a84f5	0.07544891
98	0xbee9fd1b	-0.45700917
99	0xbdd6fcf0	-0.10497463
