Source_combined/ckps/seizure/source/Except_S47/source_F.pt (torch, 557199 bytes, 8 tensors)

fc1.weight f4 [100, 1332]
0	0xbc624290	-0.013809815
1	0x3bdeb7c6	0.00679681
2	0x3cee9689	0.029124515
3	0xba7e9174	-0.0009711005
4	0xbcb38c59	-0.021917509
5	0x3c6e7e23	0.0145564405
6	0x3c1b5bfc	0.00948238
7	0xbcbd40df	-0.023102222
8	0x3c6643e8	0.014054276
9	0x3c518921	0.012789042
10	0xbbe6cb12	-0.007043251
11	0x3cbe1913	0.023205316
12	0x3ad695f3	0.0016371593
13	0x39a7d887	0.00032014048
14	0x3b8d4877	0.004311617
15	0x3c01b65a	0.007917011
16	0x3ac1c1a5	0.0014782442
17	0xbc64effb	-0.013973231
18	0x3ccd9088	0.025093332
19	0xbc90a646	-0.01765741
20	0x3c98cb1d	0.01865154
21	0xbad02f31	-0.0015883205
22	0x3c355a5a	0.011068905
23	0xbba714ae	-0.0050989008
24	0x3bebac41	0.007192165
25	0xbbaff995	-0.0053703287
26	0x3ca5d930	0.020245165
27	0xbcb0c136	-0.021576505
28	0xbc39af33	-0.011333275
29	0xbb27a218	-0.0025578793
30	0xbc95c2af	-0.018281309
31	0xbc2133bb	-0.009838994
32	0xbc0b3baa	-0.008498112
33	0xbcd3f819	-0.025875138
34	0xbc7283ff	-0.014801978
35	0x3c6b2eba	0.014354402
36	0x3ce54137	0.027985198
37	0x3c18b405	0.009320264
38	0x3cd75757	0.026286764
39	0x3c4bbcd6	0.012435159
40	0xbcbf60d2	-0.023361597
41	0x3c8760fc	0.016525738
42	0x3c70c160	0.014694542
43	0xbc7bf681	-0.015378595
44	0x3bce8770	0.0063027665
45	0xbc7908a7	-0.015199817
46	0xbc165c4a	-0.009177277
47	0x3b05ce45	0.0020417136
48	0x3b455f25	0.0030116525
49	0x3c7646aa	0.015031496
50	0xbbd5e27e	-0.006527244
51	0xbcd93c24	-0.026517935
52	0x3c72503c	0.014789637
53	0xbcc19503	-0.023630625
54	0xbb62dc9c	-0.0034616357
55	0xbcb4d2b9	-0.022073137
56	0x3a343aa5	0.0006875194
57	0x3c86d29c	0.016457848
58	0x3c0ce165	0.00859866
59	0xbc6c322a	-0.014416257
60	0x3ae4e01f	0.0017461813
61	0x3ba88dfb	0.0051438785
62	0x3c1866f2	0.009301888
63	0xbbad28e3	-0.005284415
64	0x3bc7042c	0.0060734954
65	0x3c434fc2	0.011920871
66	0xbb658e50	-0.0035027452
67	0xbac3f585	-0.001495049
68	0xbc1d138d	-0.009587181
69	0xb91a058e	-0.00014688654
70	0xbb663bb4	-0.00351308
71	0xbcaed494	-0.0213416
72	0x3c9df8ca	0.019283671
73	0xbc1c3d6e	-0.00953613
74	0xbc4b1edd	-0.012397495
75	0xbb718d67	-0.0036857964
76	0x3c2b3253	0.01044901
77	0xbcb63c89	-0.022245662
78	0xbc4123bb	-0.011788304
79	0x3c9bd525	0.019022534
80	0xbb89c3c1	-0.004204244
81	0xbc4d57ff	-0.012533187
82	0x3cac2f9f	0.021018801
83	0xbb09e136	-0.0021038777
84	0xbbe203a3	-0.006897406
85	0x3c95078a	0.018192071
86	0x3b9c0dfc	0.0047624093
87	0xbcc9962b	-0.024607738
88	0xbb8756bb	-0.004130212
89	0x3cd62c33	0.026144123
90	0xbc1faa95	-0.00974526
91	0x3c1185f2	0.008882033
92	0x3cb7661d	0.022387559
93	0x3c03bcd8	0.008040629
94	0x3c1ec79f	0.009691148
95	0x3868fa94	5.554648e-05
96	0x3cc0894d	0.02350297
97	0xbade1df0	-0.0016946178
98	0x3c8af7f7	0.016963942
99	0x3c3ad898	0.011404179
100	0x3ae39a3a	0.0017364689
101	0xbc5f0f7a	-0.01361453
102	0xbc8690fc	-0.016426556
103	0x3c4b115f	0.012394278
104	0x3c442ce4	0.011973593
105	0x3be4b040	0.0069790184
106	0x3c9302d8	0.017945692
107	0xbbc52fe7	-0.0060176733
108	0x3c7d9f1a	0.015479827
109	0xbc4c9ed1	-0.012489037
110	0x3ccd3e47	0.02505411
111	0x3c0c84aa	0.008576551
112	0xbcb1dd68	-0.02171202
113	0xbc2b5a40	-0.010458529
114	0x3bafbc88	0.005363051
115	0x3acde7b3	0.001570931
116	0x3a621bc7	0.0008625355
117	0x3b0d0fa2	0.002152421
118	0x3cea87e7	0.028629256
119	0xbb5f3988	-0.003406139
120	0xbc1b7d8f	-0.009490385
121	0xb8cfab15	-9.902396e-05
122	0xbc8c59cc	-0.017132662
123	0x3cb3c2c8	0.021943465
124	0xbcc5d859	-0.024151014
125	0x3a2288f3	0.00062002166
126	0x3c1f8dea	0.009738425
127	0xbc8d0b14	-0.017217197
128	0x3c8d5e71	0.017256947
129	0x3caa6334	0.020799257
130	0x3cab41f8	0.02090548
131	0xbc70f882	-0.014707686
132	0x3c3553f3	0.011067378
133	0xbb819e7c	-0.0039556604
134	0xbcca3cab	-0.024687132
135	0xbcaf9bcf	-0.0214366
136	0xbc350474	-0.011048425
137	0xbc2eb64b	-0.010663579
138	0x3b8686d9	0.0041054306
139	0xbc84ed70	-0.0162265
140	0xbb5258a4	-0.003209629
141	0xbc7d80f3	-0.015472638
142	0xbcc32e09	-0.023825662
143	0x3bdc6be2	0.006726728
144	0xbc86abee	-0.016439404
145	0x3c756015	0.014976521
146	0x3ce62678	0.028094515
147	0xbc792c56	-0.015208324
148	0xbcafc714	-0.021457233
149	0x3c991126	0.018684935
150	0xbc630de2	-0.01385829
151	0x3c55d21c	0.013050582
152	0xbbe19c6f	-0.0068851034
153	0xbc9e19b8	-0.019299373
154	0xbc681953	-0.014166194
155	0xb83e2eca	-4.5343106e-05
156	0x3aff8c31	0.0019496736
157	0x3c7f9342	0.015599074
158	0x3cbc7659	0.023005651
159	0x3c325e3d	0.010886726
160	0xbc65d47f	-0.014027714
161	0xbcd26d15	-0.02568678
162	0x3cd96820	0.026538908
163	0xbc8a6118	-0.016892001
164	0x3c11f564	0.008908603
165	0xb9809605	-0.00024525836
166	0xbb86b5ed	-0.0041110427
167	0x3c89e523	0.016832894
168	0x3baefd9d	0.0053402917
169	0xbc1a5b73	-0.009421217
170	0xbbcdb3cf	-0.0062775384
171	0x3c79287d	0.015207407
172	0x3c0b0abd	0.008486447
173	0x3c0d449a	0.008622313
174	0xbba9c755	-0.005181233
175	0xbc110a29	-0.00885252
176	0x3c6b763d	0.014371452
177	0xbcd6cec4	-0.02622164
178	0xbbfce664	-0.0077178944
179	0xbcdb97ed	-0.026805842
180	0x3a8facde	0.0010961553
181	0xbc8afe25	-0.016966889
182	0x3c38696a	0.011255601
183	0xbca553ba	-0.020181525
184	0x3c7576cb	0.014981936
185	0x3c80e1d7	0.015732689
186	0x3ccee585	0.025255928
187	0x3a1602b9	0.00057224516
188	0x3c962132	0.018326376
189	0xbcbaf52f	-0.02282199
190	0x3a122425	0.0005574844
191	0x3c118b30	0.008883283
192	0xbcb4f05b	-0.022087267
193	0x3c8eddd7	0.017439766
194	0x3c51b41b	0.012799288
195	0x3c3e72b0	0.011624023
196	0xbc561b25	-0.013067995
197	0xbcac8398	-0.021058843
198	0x3c6964d9	0.014245235
199	0x3ab18f3a	0.0013546713
200	0xbcaee108	-0.021347538
201	0x3afb049e	0.0019151156
202	0x3caa509c	0.02079039
203	0x3ce0cd08	0.027441517
204	0xbc181da3	-0.00928441
205	0x3cbcee48	0.02306284
206	0x3c5cc28e	0.01347412
207	0xbc8fd415	-0.017557183
208	0xbc51ee91	-0.012813226
209	0xbcb81b2a	-0.02247389
210	0x3b9c2c2d	0.0047660084
211	0x3c1ea33c	0.009682473
212	0x3c49f97e	0.01232755
213	0xbca455ab	-0.02006038
214	0x3c36e91c	0.011163976
215	0x3b908f3a	0.004411605
216	0xbb82110a	-0.0039693164
217	0xbb97d62f	-0.004633687
218	0x3ca4ba70	0.020108432
219	0x39e511d0	0.00043691555
220	0xbbbbeacd	-0.0057347775
221	0x3c182a40	0.009287417
222	0x3b1b6613	0.0023711964
223	0xbb22670c	-0.002478066
224	0x3b463bfa	0.003024815
225	0x3cc7cae0	0.02438873
226	0xbc6c6d83	-0.0144304065
227	0xbc89259a	-0.016741563
228	0xbc1c5cae	-0.009543581
229	0xbc362969	-0.011118271
230	0x39348cef	0.0001721864
231	0x3cabefda	0.020988394
232	0x3ce57c0b	0.02801325
233	0x3c928417	0.017885251
234	0xbc37192e	-0.011175437
235	0x3c5f3208	0.013622768
236	0x3cdba367	0.026811315
237	0xbc34ae7d	-0.011027929
238	0x3c3dcfd2	0.011585193
239	0xbbee411c	-0.0072709452
240	0xbcdc84ff	-0.026918886
241	0xbc800686	-0.01562811
242	0xbab42c75	-0.0013746159
243	0xbac4fdda	-0.0015029267
244	0x3be04005	0.006843569
245	0x3bf1d091	0.0073795994
246	0x3c9b8baa	0.018987495
247	0xbc6a84ac	-0.014313858
248	0xbc64df34	-0.013969231
249	0x3c456da8	0.01205007
250	0x3cc392d1	0.023873718
251	0x3c2c5c5b	0.010520066
252	0x3b0cd032	0.0021486399
253	0x3a17f27e	0.0005796327
254	0x3c5c7143	0.013454738
255	0x3c23b408	0.009991653

fc1.bias f4 [100]
0	0xba5f0c55	-0.00085086125
1	0x3b2ec906	0.0026670112
2	0x3cd98712	0.026553664
3	0xbc6996ac	-0.014257114
4	0xbcc37020	-0.023857176
5	0x3a02972a	0.00049816316
6	0xbc17c525	-0.0092633115
7	0xbbf838f3	-0.0075751483
8	0xbc05f824	-0.008176837
9	0x3cb3eb5d	0.021962816
10	0xbc44224c	-0.011971068
11	0xbc932ad7	-0.017964764
12	0xbc076252	-0.0082631875
13	0x3bd81bf5	0.0065951296
14	0xbc9c25ff	-0.019061087
15	0xbc4adf18	-0.012382291
16	0xbce4e6f3	-0.027942156
17	0x3cc8edf3	0.024527526
18	0xbcb04b98	-0.02152042
19	0x3c0743e9	0.008255937
20	0xbbe4f36f	-0.0069870274
21	0x3ca80d9e	0.020514306
22	0xbc20e619	-0.009820485
23	0x3ce33c1b	0.027738621
24	0xbc0ad6c9	-0.00847406
25	0x3a6693c2	0.00087958213
26	0xbc4d8302	-0.012543442
27	0xbc330669	-0.010926821
28	0xbb68702c	-0.003546725
29	0xbc90f15b	-0.017693212
30	0x3be88f8b	0.00709719
31	0x3cd7b0ad	0.026329363
32	0x3abd389d	0.0014436428
33	0x3ccd0a7a	0.02502941
34	0x3c21938b	0.009861837
35	0xbc6d8b2b	-0.014498512
36	0x3c1a473d	0.009416399
37	0xbadeee49	-0.001700827
38	0xbb5cb78b	-0.0033678736
39	0x3c212794	0.009836096
40	0x3b5a8596	0.0033343784
41	0xbc4e400e	-0.012588514
42	0x3c9889f9	0.018620478
43	0xbbdea513	-0.0067945807
44	0x393f6c36	0.00018255491
45	0x3ca93f66	0.020660114
46	0x3c1b89f6	0.009493342
47	0x3cfbd320	0.03074032
48	0x3cf93eaf	0.030425398
49	0x3c5aba45	0.013350074
50	0xbd0e7c01	-0.034786228
51	0xbaf02094	-0.0018320256
52	0xbb7c8ce9	-0.0038536137
53	0xbc20b281	-0.009808184
54	0xbcc64bd3	-0.024206078
55	0x3c2206dd	0.009889332
56	0xbc023aa3	-0.00794855
57	0xbc7596de	-0.014989583
58	0xbd29d6f5	-0.041464765
59	0x3c603021	0.01368335
60	0xbc4c6565	-0.012475346
61	0x3cac35e3	0.021021789
62	0x3c19eb3a	0.009394461
63	0xbc23182a	-0.009954492
64	0xbbdf1b34	-0.006808663
65	0xbbfbff19	-0.007690322
66	0xbbd54ec1	-0.0065096323
67	0x3cc2ce05	0.023779878
68	0x3b5ea7e2	0.0033974578
69	0xbbcde1ff	-0.0062830443
70	0xbb54edc3	-0.003249035
71	0xbcbc713b	-0.023003211
72	0x3c6d6630	0.014489695
73	0x3c7d9ddb	0.01547953
74	0xbb596e29	-0.0033177233
75	0xbb73a415	-0.0037176658
76	0x3b36bdf6	0.0027884222
77	0xbc5176d8	-0.012784682
78	0xbbbb8afe	-0.0057233563
79	0x3ba3b9f0	0.0049965307
80	0xbcee88b5	-0.029117921
81	0xbb968ac2	-0.004594178
82	0xbcb7ba3b	-0.022427669
83	0xbc0ec71f	-0.008714466
84	0x3ce3c9ae	0.02780613
85	0x3ce99751	0.028514536
86	0x3cef8cd6	0.02924196
87	0xbc7a63d1	-0.015282587
88	0x3bad4d5b	0.0052887625
89	0xbd01bf04	-0.031676307
90	0xbbdfacdd	-0.006826027
91	0xbc5c99f7	-0.013464442
92	0x3a614c7e	0.0008594467
93	0x3bda9f07	0.0066717896
94	0xbc159bdb	-0.009131397
95	0xb8a3d06b	-7.8112666e-05
96	0xbc0e2aff	-0.008677243
97	0xbbb5f8ba	-0.005553332
98	0x3c3a036c	0.011353355
99	0xbc6fb608	-0.014630802

ln1.weight f4 [100]
0	0x3f750fba	0.9572712
1	0x3f761b71	0.9613562
2	0x3f753ce6	0.9579605
3	0x3f7662d9	0.9624458
4	0x3f77d8db	0.9681527
5	0x3f7895e8	0.9710374
6	0x3f72ce6c	0.94846225
7	0x3f74e7f3	0.95666426
8	0x3f76706c	0.9626529
9	0x3f7528f3	0.9576561
10	0x3f756bdc	0.95867705
11	0x3f750fef	0.9572744
12	0x3f776c94	0.9665005
13	0x3f75d926	0.9603447
14	0x3f74e84c	0.95666957
15	0x3f75e56b	0.9605319
16	0x3f769d91	0.9633418
17	0x3f74e547	0.9566235
18	0x3f7692ec	0.96317935
19	0x3f76bf98	0.963861
20	0x3f73fdb6	0.9530901
21	0x3f755fea	0.9584948
22	0x3f756509	0.9585729
23	0x3f74ce26	0.9562706
24	0x3f76823c	0.9629247
25	0x3f7577d6	0.9588598
26	0x3f7802e9	0.9687944
27	0x3f76c247	0.96390194
28	0x3f77445b	0.9658868
29	0x3f7573f6	0.9588007
30	0x3f765f03	0.96238726
31	0x3f75fe22	0.960909
32	0x3f764c01	0.9620972
33	0x3f748d3f	0.95528024
34	0x3f761ff9	0.96142536
35	0x3f7770e3	0.96656626
36	0x3f76a599	0.9634643
37	0x3f74548e	0.9544152
38	0x3f76631a	0.96244967
39	0x3f75ef03	0.9606783
40	0x3f73d5f7	0.9524836
41	0x3f75a237	0.95950645
42	0x3f76b2fa	0.96366847
43	0x3f76a5a9	0.9634653
44	0x3f760d3b	0.9611394
45	0x3f763b47	0.961842
46	0x3f79c597	0.97567123
47	0x3f74efab	0.95678204
48	0x3f74f38a	0.9568411
49	0x3f767bba	0.9628254
50	0x3f756e25	0.9587119
51	0x3f74e2fb	0.95658845
52	0x3f75ef9d	0.96068746
53	0x3f7477aa	0.9549509
54	0x3f76f2ba	0.9646412
55	0x3f7773ab	0.9666087
56	0x3f750a3e	0.95718753
57	0x3f7723dd	0.965391
58	0x3f772e0f	0.96554655
59	0x3f76f2c8	0.96464205
60	0x3f7831de	0.9695109
61	0x3f768c37	0.963077
62	0x3f746828	0.9547143
63	0x3f767970	0.9627905
64	0x3f75ea0c	0.9606025
65	0x3f765f84	0.96239495
66	0x3f769ab4	0.9632981
67	0x3f765857	0.96228546
68	0x3f759e80	0.95944977
69	0x3f773c83	0.9657671
70	0x3f75c619	0.960054
71	0x3f761b6a	0.9613558
72	0x3f755e62	0.9584714
73	0x3f75b539	0.9597965
74	0x3f76af2c	0.9636104
75	0x3f7686c9	0.96299416
76	0x3f75c5e4	0.9600508
77	0x3f767481	0.9627152
78	0x3f75d4c7	0.960278
79	0x3f750844	0.9571574
80	0x3f753442	0.95782864
81	0x3f77a936	0.9674257
82	0x3f78590a	0.9701086
83	0x3f75f897	0.96082443
84	0x3f765ae2	0.96232426
85	0x3f76182f	0.9613065
86	0x3f761305	0.9612277
87	0x3f75113d	0.9572943
88	0x3f75ca82	0.9601213
89	0x3f77fd06	0.9687046
90	0x3f758bfa	0.9591671
91	0x3f76b6ad	0.9637249
92	0x3f74382a	0.953982
93	0x3f74eef1	0.95677096
94	0x3f75d4b4	0.96027684
95	0x3f76b409	0.9636846
96	0x3f75712e	0.95875823
97	0x3f76c3dc	0.9639261
98	0x3f755131	0.95827013
99	0x3f75ffb8	0.9609332

ln1.bias f4 [100]
0	0xbc5afeba	-0.013366396
1	0x3ae7b03c	0.0017676423
2	0xbc3e7be3	-0.011626217
3	0xbaef797a	-0.0018270456
4	0xbadd04c2	-0.001686238
5	0x3b460c2e	0.0030219662
6	0xbc9855b4	-0.018595554
7	0xbc1daa94	-0.0096231885
8	0xbbe1b306	-0.0068877963
9	0xbc2af628	-0.010434665
10	0xbbb95580	-0.0056559443
11	0xbc15fd4b	-0.009154628
12	0xbb74bb5c	-0.003734312
13	0xbb0bbb94	-0.0021321522
14	0xbc170475	-0.009217371
15	0xbac22601	-0.0014812351
16	0xbb06cebc	-0.002057
17	0xbba17bac	-0.004928073
18	0xbb1f9bfc	-0.0024354449
19	0xbb8d1b99	-0.0043062684
20	0xbc10f7bf	-0.00884813
21	0xbc2475b7	-0.010037831
22	0xbc24c2de	-0.010056226
23	0xbc59d3c6	-0.01329512
24	0xbbb080b8	-0.005386438
25	0xbbb79f62	-0.0056037167
26	0xb8326c54	-4.2539396e-05
27	0xbb983d1e	-0.0046459576
28	0xbbab0f9b	-0.005220366
29	0xbb8d624d	-0.004314697
30	0xba9972c5	-0.0011707178
31	0xbabb9602	-0.0014311674
32	0xba071840	-0.0005153455
33	0xbbb5a5dd	-0.005543454
34	0xbb5d81b8	-0.0033799242
35	0xbb38dd33	-0.0028208017
36	0xba1dd28b	-0.0006020448
37	0xbcb4a126	-0.022049498
38	0xbc037d27	-0.008025444
39	0x39d1c96d	0.0004001366
40	0xbc5f1437	-0.013615659
41	0xbbcd25d5	-0.0062606134
42	0xbb860bd9	-0.004090768
43	0x3a438cf1	0.00074596616
44	0xbb9b7c1a	-0.0047450187
45	0xba587f96	-0.0008258758
46	0xbb1e90f0	-0.0024195276
47	0xbb8eb37d	-0.0043548928
48	0xbc266e98	-0.010158204
49	0xbbf50e31	-0.0074784984
50	0xbbcf66a3	-0.006329374
51	0xbc34d9da	-0.011038268
52	0xbc117bd4	-0.008879621
53	0xbc21e6ae	-0.0098816585
54	0xbb047e20	-0.0020216778
55	0xba04ad9d	-0.0005061271
56	0xbbbd4823	-0.0057764216
57	0x3abe0d79	0.0014499865
58	0xbb982fbb	-0.004644362
59	0x3a68a23e	0.00088742736
60	0xbbad0849	-0.0052805287
61	0xb83412cf	-4.293286e-05
62	0xbc0c0750	-0.008546665
63	0xbb11fa3b	-0.0022274393
64	0xbae24e1c	-0.001726571
65	0xbb873b36	-0.0041269315
66	0xbbb5f050	-0.005552329
67	0xbb6988bb	-0.0035634476
68	0xbaf0e724	-0.0018379432
69	0xbb39473e	-0.0028271223
70	0xbb12238d	-0.0022299022
71	0xbb1388bb	-0.0022511918
72	0xbc0b9eff	-0.008521794
73	0xbbfe34f7	-0.0077577787
74	0xbb241932	-0.0025039432
75	0xbbe311a2	-0.006929592
76	0xbbe066d8	-0.0068481974
77	0xbb9155c3	-0.0044352724
78	0xbb071d80	-0.0020616949
79	0xbc01c79a	-0.007921124
80	0xbb46e990	-0.0030351616
81	0xbc713e2e	-0.014724297
82	0xbb1ee5ac	-0.0024245782
83	0xbc462494	-0.012093682
84	0xb97939d7	-0.00023768037
85	0xbbc6ce30	-0.00606706
86	0xbbfb87f5	-0.0076761195
87	0xbc1ec2e9	-0.009690025
88	0xbb9cc856	-0.004784624
89	0xbbc88ac9	-0.00612006
90	0xbb800921	-0.0039073383
91	0x3aa82191	0.0012827386
92	0xbc8a23b1	-0.016862722
93	0xbbdd0bcd	-0.0067457915
94	0xbba9fb25	-0.0051874095
95	0xbc2e805c	-0.01065072
96	0xbb4e00b1	-0.0031433518
97	0xbaf4cf02	-0.0018677416
98	0x3a504f41	0.000794638
99	0xb951a0d3	-0.00019991705

fc2.weight f4 [50, 100]
0	0xbe5ae9fe	-0.21378323
1	0x3de5e555	0.11225382
2	0xbdd4e121	-0.103945024
3	0x3d557cbd	0.052120913
4	0x3d27d053	0.040970158
5	0xbc60e6bf	-0.013726889
6	0x3d630d5a	0.055432655
7	0x3de60914	0.112322
8	0x3d93a25a	0.072087005
9	0xbdc551e8	-0.09634763
10	0xbdb6f616	-0.08933656
11	0xbe2d8f93	-0.169493
12	0x3e4a8eed	0.19781084
13	0xbdd9c640	-0.10633516
14	0xbced4fdb	-0.028968742
15	0x3d9cc230	0.07654226
16	0xbe3932ee	-0.18085834
17	0xbdd110d4	-0.10208288
18	0xbca7566a	-0.020426948
19	0x3c12274b	0.008920501
20	0xba69fc71	-0.00089258613
21	0xbe250f0e	-0.16119024
22	0xbd52409e	-0.051331155
23	0xbcabcc5c	-0.02097147
24	0xbd50cccf	-0.05097657
25	0xbdb66a64	-0.08907011
26	0x3d0b9cc7	0.03408506
27	0x3d95853f	0.07300805
28	0xbd9556e3	-0.07291963
29	0x3d5cb35c	0.053881988
30	0x3d78cc57	0.06074175
31	0x3d776cf0	0.060406625
32	0x3d406801	0.046974186
33	0xbe0f63d2	-0.14002922
34	0x3c91ae15	0.017783204
35	0xbe741eec	-0.23839921
36	0xbd49c839	-0.049263213
37	0xbe356b7f	-0.17716788
38	0xbd6d9c6b	-0.0580105
39	0x3d0f5283	0.0349908
40	0xbd7670c0	-0.06016612
41	0x380cd2eb	3.3575034e-05
42	0x3b411d8e	0.002946708
43	0x3d997cef	0.07494532
44	0x3d257365	0.040393252
45	0x3cc2ebdb	0.023794105
46	0xbd27ab03	-0.040934574
47	0xbd26636e	-0.040622167
48	0x3dee08f8	0.116228044
49	0xbe8c67db	-0.27422985
50	0xbc3124f9	-0.010812038
51	0xbe0f97ba	-0.14022723
52	0x3e3b18d0	0.18271184
53	0xbdc011d5	-0.09378401
54	0xbddb06e3	-0.10694673
55	0xbda97f6d	-0.08276258
56	0xbdb1b1e0	-0.08676505
57	0x3d3f741a	0.046741582
58	0xbd43dae6	-0.04781618
59	0xbdc0b1f1	-0.0940894
60	0xbda11f0e	-0.07867251
61	0x3d1c2860	0.038124442
62	0x3e19b18a	0.15009132
63	0xbe209661	-0.15682365
64	0x3b09061e	0.0020908187
65	0xbe80b000	-0.25134277
66	0x3c82c22e	0.015961733
67	0x3d97f4ef	0.07419764
68	0x3d9cb558	0.07651776
69	0xbe24554c	-0.16048163
70	0x3e0358dd	0.12826867
71	0xbdaa256c	-0.08307919
72	0x3d00129b	0.031267744
73	0xbdcf4456	-0.10120456
74	0xbbd80bd7	-0.0065932083
75	0xbd8e20b9	-0.06939835
76	0xbe2a65cb	-0.16640393
77	0xbd9a40fc	-0.07531926
78	0xbcefe04a	-0.029281754
79	0x3cc8dc0e	0.024518993
80	0x3d26edcb	0.04075412
81	0x3e40ec1d	0.1884007
82	0xbe066ecf	-0.13128208
83	0xbd191917	-0.037377443
84	0x3d66cfb7	0.056350436
85	0xbd5a7eeb	-0.053343695
86	0x3c6db68b	0.014508854
87	0xbe8c1fbc	-0.2736796
88	0xbd6266d0	-0.05527383
89	0x3c94a439	0.018144714
90	0x3cd7df97	0.026351733
91	0x3e2f5e40	0.17125797
92	0xbdb85b32	-0.09001769
93	0xbdfd535e	-0.12369417
94	0xbd5b5624	-0.053548947
95	0x3dcc8b45	0.09987501
96	0xbdd80eb5	-0.1054968
97	0x3d9a72e9	0.075414486
98	0xbe279afe	-0.16367719
99	0x3e6b50df	0.22980069
100	0x3d5d163e	0.05397629
101	0x3e1fbf59	0.15600337
102	0x3cf27979	0.029598938
103	0x3d5b9780	0.05361128
104	0x3e4ddf2c	0.20104665
105	0x3d33e9dc	0.043924198
106	0x3d260caa	0.04053942
107	0xbdca76b5	-0.09885923
108	0xbd32d93e	-0.04366421
109	0xbe1a7233	-0.15082626
110	0xbd2423af	-0.040073093
111	0xbe335f02	-0.17516711
112	0x3d6ae5e0	0.057348132
113	0xbd81cc38	-0.0633778
114	0x3d2069e5	0.03916349
115	0xbcff4292	-0.031159673
116	0x3ca237cc	0.019801997
117	0xbd59198f	-0.05300289
118	0xbd19ef3b	-0.037581664
119	0xbd82094c	-0.063494295
120	0xbbeb2356	-0.007175843
121	0x3d7d7f7d	0.06188916
122	0x3e91493a	0.2837618
123	0xbd756162	-0.059907325
124	0xbd7a8ca4	-0.06116928
125	0x3e2748bb	0.16336338
126	0x3e6ef352	0.23335007
127	0xbc17f063	-0.009273621
128	0xbe33dfd9	-0.1756586
129	0xbdbfa92c	-0.09358439
130	0xbe052930	-0.13003993
131	0xbdd73da8	-0.10509807
132	0xbd125ceb	-0.035733145
133	0x3d818ab8	0.063252866
134	0x3e484ca6	0.19560489
135	0xbdf5643d	-0.119820096
136	0x3e05b65c	0.13057846
137	0x3dc4d248	0.096104205
138	0xbc65522e	-0.013996644
139	0xbdd76e4e	-0.10519086
140	0x3e56a242	0.20960334
141	0xbe0eb7bc	-0.13937277
142	0x3c091665	0.008367156
143	0xbd1b9f95	-0.037993986
144	0xbda59cd8	-0.08086556
145	0xbe027b8c	-0.12742442
146	0x3c073ec7	0.008254713
147	0xbe467510	-0.19380593
148	0x3cb3501d	0.021888787
149	0x3cbe559b	0.02323418
150	0xbe3264dc	-0.17421287
151	0xbdf97c82	-0.12181951
152	0x3d0ae142	0.03390623
153	0xbbffe217	-0.0078089344
154	0x3d9efd27	0.07763129
155	0xbd84489d	-0.064591624
156	0x3e9f8b16	0.31160802
157	0xbd8c10b5	-0.06839124
158	0xbea6f8c9	-0.32611683
159	0x3d1bcaa6	0.038035057
160	0x3b4307ad	0.0029759214
161	0x3c6df23a	0.014523083
162	0x3db58824	0.088638574
163	0xbe5145b1	-0.20436741
164	0xbd7e9424	-0.062152997
165	0xbd61344f	-0.054981526
166	0xbddcd842	-0.107834354
167	0x3d27608a	0.04086355
168	0x3e60bafd	0.2194633
169	0xbcbea8d2	-0.02327386
170	0xbc6924ac	-0.014229935
171	0x3dbf78e2	0.093492284
172	0x3dc01a63	0.09380033
173	0x3d2b5e41	0.041837934
174	0xbd5331ca	-0.051561154
175	0x3d6dc59d	0.058049787
176	0x3d21ff83	0.039550316
177	0xbcb036c9	-0.021510499
178	0x3e0a57d2	0.13510063
179	0xbe2a5fed	-0.16638155
180	0xbe18a5c0	-0.14906979
181	0xbe0a4618	-0.13503301
182	0x3b8bffe3	0.0042724474
183	0xbd507f8e	-0.050902896
184	0xbd3ec1d0	-0.046571553
185	0x3d7673d7	0.060169067
186	0xbd9e7d79	-0.07738776
187	0xbdd5dc9e	-0.1044247
188	0x3df00bec	0.11721024
189	0xbc9acf02	-0.018897537
190	0xbe37a1a9	-0.17932762
191	0xbd44fc54	-0.0480922
192	0x3dd2e539	0.10297627
193	0xbd86b3cb	-0.065772615
194	0x3ba1e124	0.004940169
195	0x3d59211a	0.053010084
196	0xbd9c859b	-0.07642671
197	0xbdada16c	-0.084780544
198	0xbdf63887	-0.120225005
199	0xbd501c0d	-0.050808
200	0xbe45e6e6	-0.19326362
201	0xbd893c06	-0.06700902
202	0xbd2c8ac0	-0.04212451
203	0x3e830c50	0.2559533
204	0xbe08960a	-0.13338485
205	0x3d806647	0.06269508
206	0xbdf0deac	-0.11761221
207	0xbead12ca	-0.33803397
208	0xbde4a1af	-0.11163651
209	0xbd7e5c98	-0.062100023
210	0x3e00b92f	0.12570642
211	0xbdbf3cb0	-0.09337747
212	0xbe12f142	-0.14349845
213	0x3ca9690e	0.020679977
214	0x3dcb718a	0.09933765
215	0xbbe55094	-0.006998131
216	0x3dd5fc7c	0.10448548
217	0xbc0b4722	-0.008500846
218	0xbd4fafb9	-0.05070469
219	0x3d884068	0.066529095
220	0x3d2c8af5	0.042124707
221	0xbb12b761	-0.0022387134
222	0xbced85ec	-0.028994523
223	0xbe18df26	-0.14928874
224	0x3d92ad18	0.07161921
225	0x3cc90a50	0.02454105
226	0xbbdaf297	-0.006681751
227	0x3c88c591	0.01669577
228	0x3c4e8a59	0.012606227
229	0xbd61d00f	-0.05513006
230	0xbe7fc75a	-0.2497839
231	0xbd0b663a	-0.034033038
232	0xbdc209b1	-0.09474505
233	0x3c292d23	0.010325703
234	0xbdd77cd7	-0.10521858
235	0x3eb6cad8	0.35701632
236	0x3cf9d76a	0.030498225
237	0xbe3497e6	-0.1763607
238	0x3d6dda59	0.05806956
239	0x3dea027f	0.11426257
240	0xbc248033	-0.010040331
241	0x3d6bfe84	0.057615772
242	0xbce2ca15	-0.02768425
243	0xbd003bb3	-0.031306934
244	0x3d3ae733	0.045630645
245	0xbd5eaa4f	-0.054361638
246	0xbdfd10f8	-0.12356752
247	0x3d5b11e1	0.053483848
248	0xbde7508a	-0.112946585
249	0x3bff9859	0.0078001437
250	0xbd96cf41	-0.07363749
251	0xbd902bfb	-0.070396386
252	0x3d9f1a6d	0.07768712
253	0xbd9fb558	-0.077982605
254	0x3e11f99a	0.14255372
255	0xbe061bae	-0.13096496

fc2.bias f4 [50]
0	0x3cbdae1b	0.023154309
1	0x3bcfb458	0.0063386373
2	0x3c8fe910	0.017567188
3	0xba34c764	-0.00068961666
4	0xbc904d27	-0.017614914
5	0xb9f93da8	-0.00047538918
6	0x3bd51ff3	0.006504053
7	0x3c58fb22	0.0132434685
8	0xbc58c026	-0.0132294055
9	0x3c29cd42	0.010363879
10	0xbb1536ee	-0.0022768336
11	0x399dbd8a	0.0003008659
12	0xbbdeaf81	-0.006795824
13	0x3ad0bdad	0.0015925668
14	0xbc4b810d	-0.012420905
15	0x3c2d91dd	0.010593859
16	0x39aad550	0.00032583857
17	0x3c03c07f	0.0080415
18	0x3ab7c635	0.0014020862
19	0xba23e3c1	-0.00062518945
20	0xbb351ddb	-0.0027636203
21	0xbc25515f	-0.010090201
22	0x3c778a55	0.0151086645
23	0x3c2f54be	0.010701356
24	0x398a6636	0.00026397564
25	0xbce60bb9	-0.028081762
26	0xbb154a57	-0.0022779906
27	0x3c8f3167	0.017479612
28	0x3b0e8797	0.0021748298
29	0x3b6454da	0.0034840615
30	0xbbd94069	-0.0066299927
31	0x3bbd568e	0.0057781404
32	0x3b0f55a7	0.002187112
33	0x3c190545	0.009339635
34	0x3c032697	0.008004806
35	0x3b374750	0.002796609
36	0xbc92fdce	-0.01794329
37	0xbb5a0073	-0.0033264428
38	0x39a99116	0.0003234229
39	0xbba930cd	-0.005163288
40	0x3be1a794	0.006886432
41	0xbce467ab	-0.027881464
42	0xbbceb249	-0.0063078743
43	0xbc62a035	-0.013832142
44	0xbc8f9953	-0.017529165
45	0x3b82af7f	0.003988206
46	0xbaf024ac	-0.0018321476
47	0x3c1fa798	0.009744547
48	0x39e70dfd	0.00044070175
49	0xb9b3c1b4	-0.0003428586

ln2.weight f4 [50]
0	0x3f76103d	0.9611853
1	0x3f78742d	0.9705227
2	0x3f76100f	0.96118253
3	0x3f7657c2	0.9622766
4	0x3f7c0bda	0.98455584
5	0x3f760f99	0.9611755
6	0x3f76eb61	0.9645291
7	0x3f7b1923	0.9808523
8	0x3f776d74	0.9665139
9	0x3f7a6fa0	0.97826576
10	0x3f75f1d5	0.9607213
11	0x3f76cd3e	0.96406925
12	0x3f765c74	0.9623482
13	0x3f76a612	0.96347153
14	0x3f7583a5	0.95904
15	0x3f7f4f79	0.9973064
16	0x3f7cc095	0.98731357
17	0x3f771074	0.9650948
18	0x3f7b3ce6	0.981398
19	0x3f760452	0.9610034
20	0x3f7760ef	0.96632284
21	0x3f78a80a	0.9713141
22	0x3f77460c	0.9659126
23	0x3f78b2cd	0.9714783
24	0x3f75ce73	0.9601814
25	0x3f804b95	1.0023066
26	0x3f75f580	0.9607773
27	0x3f760c06	0.96112096
28	0x3f75b440	0.95978165
29	0x3f7b4314	0.9814923
30	0x3f78456f	0.9698095
31	0x3f7a93f6	0.9788202
32	0x3f76f146	0.96461904
33	0x3f7603a7	0.96099323
34	0x3f782968	0.9693818
35	0x3f7cfbe9	0.98821884
36	0x3f76a1b2	0.9634048
37	0x3f75d610	0.9602976
38	0x3f79ae9b	0.9753205
39	0x3f761b39	0.9613529
40	0x3f7636db	0.9617745
41	0x3f7d6213	0.98977774
42	0x3f75b57b	0.9598004
43	0x3f75cc3c	0.9601476
44	0x3f7ef4da	0.99592364
45	0x3f776319	0.96635586
46	0x3f76f58c	0.96468425
47	0x3f784703	0.96983355
48	0x3f76a0e8	0.96339273
49	0x3f76b4a7	0.96369404

ln2.bias f4 [50]
0	0x38975cbd	7.217515e-05
1	0xba802c48	-0.0009778822
2	0x3737ba81	1.0951074e-05
3	0x3a26180f	0.00063359825
4	0xbc2f6803	-0.010705951
5	0xbb02f7ca	-0.001998412
6	0x390ed40f	0.00013621173
7	0x3b9022f5	0.0043986985
8	0xbb5214b9	-0.0032055809
9	0x3c14797b	0.009062166
10	0xb9847942	-0.00025267346
11	0x3a8d9be9	0.0010803911
12	0x3923d4f3	0.00015624221
13	0xba1df3ee	-0.0006025423
14	0xbaa47e26	-0.0012549802
15	0x3bab4f00	0.0052279234
16	0xba6c9449	-0.0009024782
17	0xbafaa7b0	-0.0019123461
18	0xbb557745	-0.003257231
19	0xba1082a6	-0.0005512632
20	0xbb2aacb1	-0.0026042874
21	0xb9232c97	-0.00015561502
22	0x3ac61c32	0.0015114604
23	0x3b08aeaa	0.002085606
24	0xbaafa369	-0.001340014
25	0xbc374555	-0.011185964
26	0xba73ead8	-0.0009304709
27	0xb8cf08cd	-9.8721684e-05
28	0xba94e659	-0.0011360153
29	0xb7ee04bb	-2.8374014e-05
30	0xb9fba5ad	-0.0004799789
31	0x3ac7433f	0.0015202536
32	0xbb255187	-0.0025225596
33	0xb9487345	-0.00019116428
34	0x3a7c2d00	0.00096197426
35	0xbae56f8a	-0.0017504555
36	0xbaacc3ac	-0.0013180873
37	0xbaa70c61	-0.0012744778
38	0xb9cece84	-0.00039445248
39	0x39833a34	0.00025029632
40	0xba165fce	-0.0005736322
41	0xbc7993c6	-0.015232986
42	0xbb1b127d	-0.0023662143
43	0xba8607b6	-0.0010225687
44	0xbc660b45	-0.014040773
45	0x3b57a2be	0.0032903398
46	0xbb06229d	-0.0020467408
47	0x3ba80585	0.005127611
48	0xbaba06d4	-0.0014192709
49	0xb8cf4aaa	-9.8844364e-05
