Source_combined/ckps/seizure/source/Except_S47/source_C.pt (torch, 1763 bytes, 3 tensors)

fc.bias f4 [2]
0	0x399700df	0.00028801613
1	0xb9999bc2	-0.00029298483

fc.weight_g f4 [2, 1]
0	0x3fdce91f	1.7258643
1	0x3fe4deed	1.7880532

fc.weight_v f4 [2, 50]
0	0x3c0dc0fc	0.008651968
1	0xbdde378d	-0.10850439
2	0xba2ac9f7	-0.00065150805
3	0xbd4ebda7	-0.050473835
4	0xbe240bd6	-0.1602014
5	0xbc340f09	-0.010989913
6	0x3d978752	0.07398857
7	0xbe0b5f9d	-0.13610692
8	0x3d9e6ddf	0.077358
9	0x3e123936	0.14279637
10	0x3d409c92	0.047024317
11	0x3d789e29	0.06069771
12	0xbd7c6bbb	-0.061626177
13	0x3d89e663	0.06733396
14	0x3ccdb52d	0.025110805
15	0x3e4b6357	0.19862114
16	0x3e2b4ca5	0.16728456
17	0x3d6c480e	0.057685904
18	0x3e064b65	0.13114698
19	0x3cbe1ec9	0.023208039
20	0xbdb7997e	-0.08964823
21	0xbe0ba6ad	-0.136378
22	0x3d7c2ac7	0.061564233
23	0x3df39b6e	0.1189488
24	0xbc372d8f	-0.011180296
25	0xbe6b48a0	-0.22976923
26	0x3ce5c1ca	0.028046507
27	0x3bd0f85b	0.0063772625
28	0x3a23497e	0.0006228908
29	0x3e1b0618	0.15139043
30	0x3df99a0e	0.12187587
31	0x3e144134	0.14477998
32	0x3d8aeeab	0.067838036
33	0xb799c029	-1.8328503e-05
34	0x3de798bd	0.113084294
35	0xbe335582	-0.17513087
36	0xbd970e8d	-0.07375822
37	0x3c0a4467	0.00843916
38	0x3e0a96af	0.13534044
39	0xbd47abb1	-0.048747722
40	0x3cd27546	0.025690686
41	0xbe3d5f6c	-0.18493432
42	0x3cc4a4f4	0.024004437
43	0xbd723a3a	-0.05913756
44	0xbe5b1652	-0.21395233
45	0xbdc91753	-0.09818902
46	0x3d639d40	0.055569887
47	0x3dbcd873	0.09220972
48	0x3d589679	0.052877877
49	0xbd9a86c7	-0.07545238
50	0xbc05cdaf	-0.008166715
51	0x3de724dc	0.11286327
52	0xb8d32eae	-0.00010069959
53	0x3d55bafb	0.05218027
54	0x3e2d1fb2	0.16906622
55	0x3c35c86a	0.011095146
56	0xbd9773a8	-0.073951066
57	0x3e0defd9	0.13861026
58	0xbda50dae	-0.0805925
59	0xbe163343	-0.14667992
60	0xbd385608	-0.04500392
61	0xbd721333	-0.05910034
62	0x3d882b4e	0.06648885
63	0xbd8c9378	-0.06864065
64	0xbcbdff7d	-0.023193115
65	0xbe5536a2	-0.20821622
66	0xbe3227e2	-0.17398027
67	0xbd7ef18c	-0.062242076
68	0xbe0a1ca5	-0.1348749
69	0xbc9b50a2	-0.018959347
70	0x3db5bc21	0.08873773
71	0x3e0ac756	0.13552603
72	0xbd866e91	-0.065640576
73	0xbdfccda5	-0.12343911
74	0x3c4dc588	0.012559302
75	0x3e71cba0	0.23612833
76	0xbccf3344	-0.025293
77	0xbb130691	-0.0022434334
78	0xbb5e68c5	-0.003393696
79	0xbe1e0093	-0.15429907
80	0xbe049342	-0.129468
81	0xbe18e3f2	-0.14930704
82	0xbd8ca05f	-0.06866526
83	0xba56d5b5	-0.0008195297
84	0xbdec826f	-0.11548316
85	0x3e3979ce	0.18112871
86	0x3d97e122	0.074159876
87	0xbb8a2b4e	-0.004216588
88	0xbe0cc5a5	-0.1374727
89	0x3d51a531	0.05118293
90	0xbcba756d	-0.022761071
91	0x3e428a75	0.1899813
92	0xbcf06f1a	-0.029349852
93	0x3d8243a3	0.06360557
94	0x3e613389	0.21992315
95	0x3dca4cf3	0.09877958
96	0xbd6b146b	-0.05739252
97	0xbdc32f41	-0.09530497
98	0xbd5c69e4	-0.053811923
99	0x3d9e1d50	0.07720435
