Source_combined/ckps/seizure/source/S22/source_F.pt (torch, 557199 bytes, 8 tensors)

fc1.weight f4 [100, 1332]
-0.023090418 0.007369125 -0.01392109 0.009147843 0.028116599 0.026275355 -0.0017369549 -0.014110559
0.019238785 -0.012734372 0.020647658 0.0046264865 0.026521124 0.018214118 -0.0023328615 -0.0053887335
-0.026998961 0.0075940923 -0.0143657215 -0.0005943637 0.015885219 0.02041169 0.026861232 -0.02150664
0.011094592 0.014261264 0.022197511 -0.014414309 0.0139230015 0.0064628767 0.023725383 0.004419388
0.010291606 0.004780076 0.014247101 0.018178005 0.020007351 -0.017805332 -0.026006881 -0.022853723
-0.027092008 0.019064585 0.015106615 -0.020380363 -0.009209364 0.002463954 -0.024304919 0.015389643
0.010885167 -0.021639504 0.007099704 0.028121917 0.017428942 -0.023674019 0.0034135215 -0.011836104
0.0032224834 -0.015335978 0.0020283894 0.026141081 0.011579063 0.019853849 0.00833986 -0.005913929
-0.004828796 0.01671922 -0.01193582 -0.00430816 0.015880838 0.002041339 -0.0125163365 0.02168907
0.007485149 -0.019424018 -0.006275421 0.0027051724 -0.009009083 0.016799752 -0.0051223286 0.018692793
-0.023801954 -0.0007300453 -0.00767532 -0.019956185 -0.019719958 -0.017923156 -0.02258482 0.0039052945
0.023546645 -0.0049567563 -0.011749787 -0.016767766 -0.016676046 -0.011827864 -0.019576676 0.016174778
0.011737679 -0.007117011 0.018596804 0.0046997266 -0.009204343 0.026691753 0.005496855 -0.012252711
0.024965825 -0.0011913076 0.018246809 0.011698101 -0.026954954 -0.020365413 -0.00802932 -0.003019786
0.008811774 0.022036934 0.019409366 -0.0016972524 -0.010250934 0.02359246 0.0046854364 0.004629098
0.004884042 -0.01566533 0.0041463007 0.022870334 0.014473772 0.0075932452 0.015122492 0.009914298
0.02631395 0.019311542 0.0124578625 0.018152075 0.019162046 -0.021336911 -0.010299241 -0.01680832
0.0032704414 -0.01689664 0.024993598 0.017314212 0.005701919 0.014845034 -0.013271157 0.0069567757
0.0008640865 -0.011156457 0.027113438 0.0029987493 -0.028006371 -0.028912077 0.01691897 -0.018313542
-0.0073683 -0.02474711 0.027693678 -0.017625345 0.006102234 0.017648507 0.012238169 0.017837603
0.007879916 -0.013308687 0.026124544 0.008922366 -0.010279145 -0.020016119 0.0019560277 0.016734643
-0.018599192 -0.025718626 0.011970522 0.012838391 -0.025779506 -0.0018196612 0.013822604 0.009306831
0.024479873 -0.0018255617 -0.019633435 0.012167015 -0.022335127 -0.0042336336 -0.022532698 0.02572818
0.015473677 0.021082131 0.02879546 -0.023455959 0.0076223146 0.024325091 0.010886749 0.028694931
-0.014349285 0.02045086 0.015889538 -0.023446826 -0.021747837 0.015196746 0.011104837 -0.013707971
-0.015038563 -0.028325783 -0.0045087505 -0.0022933057 0.002440951 -0.0065398817 -0.024161838 -0.018399991
0.01669658 0.010225656 -0.007945729 -0.0059668445 -0.013930106 0.007898175 -0.00015521096 -0.02344113
-0.015924752 -0.026355295 -0.027446534 0.024226246 -0.015102862 0.020176103 0.015759494 0.024192065
-0.022302503 0.0027596059 -0.009849588 0.020201884 -0.0027935468 -0.010274858 -0.009178156 -0.01649493
0.014602473 0.0015832155 0.015591365 -0.0028544352 0.006674472 0.015068089 0.0124592045 0.014577053
-0.022572052 0.02928182 0.019157711 0.008850528 0.014743548 -0.016830303 0.004724279 0.010065915
0.016750267 0.019177202 0.010180851 0.019442378 0.022885693 -0.017339934 -0.01110991 0.021131221
00000000: 1e28 bdbc b378 f13b 4915 64bc d6e0 153c
00000010: c854 e63c 6a3f d73c 89aa e3ba f92f 67bc
00000020: a89a 9d3c d4a3 50bc 4725 a93c c899 973b
00000030: d442 d93c c635 953c ece2 18bb f993 b0bb
00000040: ed2c ddbc ddd7 f83b 345e 6bbc 13cf 1bba
00000050: b821 823c 6b36 a73c 160c dc3c b12e b0bc
00000060: 17c6 353c 14a8 693c 8ed7 b53c fe29 6cbc
00000070: 4d1d 643c 8ac6 d33b bc5b c23c 83d0 903b
00000080: 209e 283c 2fa2 9c3b ac6c 693c 0aea 943c
00000090: 75e6 a33c 7ddc 91bc 620c d5bc bb37 bbbc
000000a0: 0ff0 ddbc 552d 9c3c bc81 773c b8f4 a6bc
000000b0: dfe2 16bc 4a7a 213b 1c1b c7bc d724 7c3c
000000c0: b357 323c 5445 b1bc a2a4 e83b ef5f e63c
000000d0: 24c7 8e3c 04f0 c1bc 63b5 5f3b 38ec 41bc
000000e0: 4d30 533b c143 7bbc baee 043b d225 d63c
000000f0: 1cb6 3d3c 8aa4 a23c e8a3 083c a2c9 c1bb
00000100: e03a 9ebb bff6 883c 758e 43bc 772b 8dbb
00000110: 8818 823c fcc7 053b 5211 4dbc 47ad b13c
00000120: fb45 f53b 1e1f 9fbc 0ca2 cdbb 4349 313b
00000130: d59a 13bc a29f 893c 35d9 a7bb a121 993c
00000140: 51fc c2bc 8360 3fba 4081 fbbb 277b a3bc
00000150: c08b a1bc 95d3 92bc cd03 b9bc f8ef 7f3b
00000160: e5e4 c03c 496c a2bb 2e82 40bc 8e5c 89bc
00000170: 349c 88bc a8c9 41bc 445f a0bc f880 843c
00000180: 654f 403c d135 e9bb 5358 983c 2a00 9a3b
00000190: d0cd 16bc aaa8 da3c f61e b43b 98bf 48bc
000001a0: 2185 cc3c a625 9cba 557a 953c 64a9 3f3c
000001b0: a3d0 dcbc 5ed5 a6bc 698d 03bc 9ae7 45bb
000001c0: 425f 103c cd86 b43c 6400 9f3c 5776 deba
000001d0: 89f3 27bc fa44 c13c 4a88 993b b0af 973b
000001e0: 500a a03b 9454 80bc b1dd 873b 915a bb3c
000001f0: 6623 6d3c c2d0 f83b 54c4 773c 946f 223c
00000200: 5a90 d73c 3d33 9e3c 101c 4c3c a9b3 943c
00000210: b9f9 9c3c bfca aebc 26be 28bc 9ab1 89bc
00000220: e754 563b d36a 8abc 60bf cc3c 89d6 8d3c
00000230: 2ad7 ba3b 9638 733c 446f 59bc aaf5 e33b
00000240: dd83 623a 92c9 36bc 001d de3c aa86 443b
00000250: 9e6d e5bc 05d9 ecbc a799 8a3c 4806 96bc
00000260: c871 f1bb 74ba cabc dadd e23c 0763 90bc
00000270: 40f5 c73b 9a93 903c 9a82 483c 2a20 923c
00000280: c31a 013c ae0c 5abc 2403 d63c 1e2f 123c
00000290: dc69 28bc d8f8 a3bc b330 003b 1717 893c
000002a0: 555d 98bc deaf d2bc 0220 443c 1d58 523c
000002b0: 8b2f d3bc b381 eeba 3478 623c ae7b 183c
000002c0: 048a c83c b047 efba 4cd6 a0bc 2958 473c
000002d0: 28f8 b6bc 4bba 8abb 7e96 b8bc e7c3 d23c
000002e0: 4e85 7d3c 6fb4 ac3c 75e4 eb3c b626 c0bc
000002f0: 9cc4 f93b 6a45 c73c 565e 323c a211 eb3c
00000300: 4319 6bbc 9088 a73c c72a 823c 8f13 c0bc
00000310: 8528 b2bc c6fb 783c 10f1 353c 6697 60bc
00000320: 4e64 76bc 790b e8bc 24be 93bb 494b 16bb
00000330: 5df8 1f3b 814c d6bb 0cef c5bc 94bb 96bc
00000340: 44c7 883c 8389 273c ce2e 02bc 8585 c3bb
00000350: 193b 64bc 5967 013c 20c0 22b9 9d07 c0bc
00000360: a074 82bc 0fe7 d7bc 8ed7 e0bc 1f76 c63c
00000370: ff71 77bc 5b48 a53c 0e1a 813c 702e c63c
00000380: bdb3 b6bc 81da 343b 2b60 21bc 6c7e a53c
00000390: f013 37bb e157 28bc fa5f 16bc 6020 87bc
000003a0: 363f 6f3c e683 cf3a ed72 7f3c 7a11 3bbb
000003b0: 87b5 da3b 25e0 763c b121 4c3c 97d4 6e3c
000003c0: 06e9 b8bc 6de0 ef3c a2f0 9c3c ce01 113c
000003d0: ec8e 713c b4df 89bc 20ce 9a3b 82eb 243c
000003e0: db37 893c 8219 9d3c 96cd 263c 9f45 9f3c
000003f0: c77a bb3c 7a0c 8ebc 5706 36bc 621b ad3c

fc1.bias f4 [100]
-0.003916943 -0.013016206 -0.00764209 0.027392928 0.02870907 -0.00035343925 0.0022950214 0.01735087
-0.016531458 -0.007405369 -0.003680598 0.014179421 -0.00925495 -0.02721012 0.027746012 -0.0048719724
-0.020634497 0.00075208774 0.03857787 7.786177e-05 -0.020578755 0.0054690884 0.0052488535 0.009221769
0.027759043 0.017610393 -0.022255037 0.020205079 -0.025506623 0.0025642025 0.009686187 0.016513057
-0.005616142 -0.011004593 0.026982948 0.006847356 0.021680078 0.001813497 0.0078015705 -0.030855691
0.017486325 0.025433775 -0.018328587 -0.030018996 0.030205011 -0.0035464694 0.031982034 -0.012944123
-0.0047565037 -0.0050339475 0.02391818 3.004314e-08 -0.020779615 0.015029781 -0.018351803 -0.016010636
0.0053994264 0.02844595 -0.012083711 -0.02181216 -0.01800457 0.008656233 -0.002831458 0.031491585
-0.021888776 0.006657154 0.023893077 -0.012005695 -0.013956471 -0.014209759 -0.011278258 -0.026199419
-0.0121306 0.00028306508 0.0042508435 -0.019957144 -0.0040622056 0.0050979457 0.02400933 0.0009802846
0.0032188012 0.02746725 0.031340234 0.010008359 0.01485712 -0.022309292 0.001047534 0.0111484
-0.017701294 0.011801504 0.02987148 0.0042774314 -0.012592816 -0.01320278 0.0014512609 0.0037505578
0.022193203 -0.004603468 0.005869113 -0.0030792048
00000000: b359 80bb ed41 55bc 7f6a fabb 2267 e03c
00000010: 492f eb3c d04d b9b9 1268 163b 6923 8e3c
00000020: fb6c 87bc bda8 f2bb 3036 71bb cd50 683c
00000030: 13a2 17bc c2e7 debc 9b4b e33c 11a5 9fbb
00000040: ad09 a9bc c127 453a d403 1e3d b849 a338
00000050: c794 a8bc 0a36 b33b 93fe ab3b e716 173c
00000060: ef66 e33c ac43 903c 3250 b6bc 1f85 a53c
00000070: 44f3 d0bc 2e0c 283b d0b2 1e3c 6446 873c
00000080: 9d07 b8bb 9c4c 34bc 580b dd3c c95f e03b
00000090: 6b9a b13c ddb2 ed3a 51a4 ff3b 13c5 fcbc
000000a0: 7b3f 8f3c 7e5a d03c d525 96bc 66ea f5bc
000000b0: 8070 f73c e26b 68bb 98ff 023d 9613 54bc
000000c0: 72dc 9bbb d0f3 a4bb 0ff0 c33c c808 0133
000000d0: 033a aabc 783f 763c 8556 96bc bd28 83bc
000000e0: aced b03b 7b07 e93c c2fa 45bc 6aaf b2bc
000000f0: 527e 93bc dfd2 0d3c fc8f 39bb 52fd 003d
00000100: 1750 b3bc 4124 da3b 6abb c33c 89b3 44bc
00000110: afa9 64bc 0dd0 68bc 71c8 38bc 2aa0 d6bc
00000120: 6dbf 46bc 5a68 9439 a94a 8b3b 2a7d a3bc
00000130: 401c 85bb ab0c a73b 37af c43c e57c 803a
00000140: 86f2 523b 0003 e13c 9e5e 003d 1afa 233c
00000150: 476b 733c fac1 b6bc 694d 893a c7a7 363c
00000160: 4e02 91bc 185b 413c 09b5 f43c b229 8c3b
00000170: 1952 4ebc 7950 58bc 3c38 be3a ebcb 753b
00000180: 85ce b53c b0d8 96bb b051 c03b 7ccc 49bb

ln1.weight f4 [100]
0.98851997 0.98724943 0.9837889 0.9887503 0.9842612 0.98398405 0.9855325 0.98237497
0.9840909 0.98267514 0.98013866 0.9800093 0.9843153 0.9864495 0.9870399 0.9831363
0.9853717 0.985926 0.99523795 0.9830782 0.9856809 0.9778501 0.9850734 0.9768477
0.9915916 0.9895373 0.98138773 0.9838928 0.9883393 0.9879059 0.98596644 0.9840517
0.98684734 0.9857875 0.98502266 0.9786123 0.9881259 0.9861905 0.987482 0.98197466
0.9947789 0.996048 0.98002726 0.99483144 0.9863523 0.9854187 0.98824954 0.9883877
0.9853037 0.9814926 0.98467284 0.99102426 0.986159 0.996266 0.98835146 0.98925024
0.98094994 0.98503363 0.982685 0.9840284 0.98553777 0.9894542 0.9890967 0.99136037
0.98071676 0.9789728 0.99024886 0.98680365 0.98587716 0.9821714 0.98846227 0.9854001
0.98820364 0.98153204 0.9858049 0.9845947 0.9860426 0.98353374 0.9808454 0.9850154
0.9953692 0.98760694 0.99560964 0.98537165 0.9815214 0.9868957 0.98155683 0.98370266
0.9866571 0.9990347 0.9884348 0.9853426 0.98647267 0.9817168 0.9873654 0.9858833
0.98622483 0.98400754 0.983584 0.98755866
00000000: a50f 7d3f 61bc 7c3f 97d9 7b3f bd1e 7d3f
00000010: 8bf8 7b3f 61e6 7b3f dc4b 7c3f ed7c 7b3f
00000020: 62ed 7b3f 9990 7b3f 5eea 7a3f e4e1 7a3f
00000030: 16fc 7b3f f487 7c3f a6ae 7c3f d2ae 7b3f
00000040: 5241 7c3f a565 7c3f eac7 7e3f 03ab 7b3f
00000050: 9555 7c3f 6254 7a3f c52d 7c3f b112 7a3f
00000060: f2d8 7d3f 5152 7d3f 3a3c 7b3f 66e0 7b3f
00000070: ce03 7d3f 67e7 7c3f 4c68 7c3f d0ea 7b3f
00000080: 07a2 7c3f 925c 7c3f 722a 7c3f 5686 7a3f
00000090: d2f5 7c3f fb76 7c3f 9fcb 7c3f b162 7b3f
000000a0: d4a9 7e3f 00fd 7e3f 11e3 7a3f 46ad 7e3f
000000b0: 9681 7c3f 6644 7c3f ecfd 7c3f fa06 7d3f
000000c0: dd3c 7c3f 1943 7b3f 8513 7c3f c4b3 7d3f
000000d0: eb74 7c3f 4a0b 7f3f 9a04 7d3f 813f 7d3f
000000e0: 891f 7b3f 2a2b 7c3f 3f91 7b3f 49e9 7b3f
000000f0: 344c 7c3f df4c 7d3f 7135 7d3f cbc9 7d3f
00000100: 4110 7b3f f69d 7a3f f380 7d3f 2a9f 7c3f
00000110: 7262 7c3f 966f 7b3f dd0b 7d3f 2e43 7c3f
00000120: eafa 7c3f af45 7b3f b65d 7c3f 660e 7c3f
00000130: 4a6d 7c3f dec8 7b3f af18 7b3f f829 7c3f
00000140: 84d0 7e3f cfd3 7c3f 46e0 7e3f 5141 7c3f
00000150: fd44 7b3f 32a5 7c3f 4f47 7b3f f0d3 7b3f
00000160: 8f95 7c3f bdc0 7f3f 100a 7d3f 6a3f 7c3f
00000170: 7989 7c3f cb51 7b3f fbc3 7c3f d962 7c3f
00000180: 3b79 7c3f ebe7 7b3f 29cc 7b3f a5d0 7c3f

ln1.bias f4 [100]
-0.0005180243 0.0011987198 -0.0044616456 -0.001895459 -0.00034947062 -0.0008318936 -0.0042963056 -0.0057498217
0.0013722337 0.0002118158 -0.00933114 -0.0076860995 -0.0040875636 -0.002260358 -0.00093553535 -0.009415618
-0.0019968424 -0.00079469685 0.007456116 -0.008220237 -0.0101378 0.0004841366 -0.0013905528 -0.008855245
0.0063241064 -0.0009772357 -0.009962724 -0.001018494 -0.0057621985 0.002146806 -0.0039221686 -0.0042812014
-0.0004432672 -0.010125198 0.0020698027 -0.008223364 -0.00081518455 0.0011764618 -0.0032901834 -0.0057034767
0.002277281 -0.0009009802 -0.0040656556 -0.0076008146 0.0014790968 -0.0026191638 0.002923421 -0.0005152834
-0.0015427805 -0.007517896 -0.0043125427 0.0040775365 0.00036205337 0.002878477 0.0007777766 0.003363393
-0.010895796 -0.00027324015 -0.0039497325 -0.0110815335 0.0025339266 0.0009925752 -0.006249733 0.0035726295
-0.005357567 -0.0072901784 0.0027098039 -0.004304687 -0.00011686961 -0.006455051 -0.004324672 -0.01176503
0.0017852761 -0.002761921 -0.00057929626 -0.00070047344 -0.0035934055 -0.003209801 -0.004413282 -0.004743132
0.0015714297 -3.6785324e-05 0.0060963877 -0.0033317676 -0.0036846262 -0.0030683163 -0.0037486397 -0.0010720729
0.0024879829 0.00686381 0.0037662254 -0.0031182377 -0.008456088 0.0012606957 -0.002545505 -0.005490822
-0.003029186 -0.0010950895 0.00065696734 -0.003972902
00000000: 06cc 07ba 5d1e 9d3a ff32 92bb 0d71 f8ba
00000010: 2739 b7b9 6f13 5aba 06c8 8cbb 0069 bcbb
00000020: 86dc b33a df1a 5e39 a3e1 18bc addb fbbb
00000030: f8f0 85bb 8422 14bb b73e 75ba f743 1abc
00000040: 75dd 02bb 3453 50ba 6f52 f43b 2cae 06bc
00000050: 0419 26bc b7d3 fd39 3643 b6ba 9715 11bc
00000060: 733a cf3b 9716 80ba b13a 23bc fd7e 85ba
00000070: d3d0 bcbb 6eb1 0c3b 8985 80bb 5249 8cbb
00000080: 5166 e8b9 29e4 25bc 87a5 073b 4abb 06bc
00000090: 1cb2 55ba 8233 9a3a 1ea0 57bb 3be4 babb
000000a0: 6f3e 153b c22f 6cba 3139 85bb 4110 f9bb
000000b0: 41de c13a 47a6 2bbb de96 3f3b 1514 07ba
000000c0: 2037 caba af58 f6bb 3b50 8dbb db9c 853b
000000d0: fbd1 bd39 d5a4 3c3b b4e3 4b3a 5f6c 5c3b
000000e0: 4884 32bc ac41 8fb9 c26c 81bb 528f 35bc
000000f0: 3c10 263b 4c19 823a 8fca ccbb c722 6a3b
00000100: 888e afbb 73e2 eebb f796 313b 550e 8dbb
00000110: e517 f5b8 e484 d3bb fab5 8dbb 1dc2 40bc
00000120: edff e93a 5801 35bb eadb 17ba fa9f 37ba
00000130: 577f 6bbb 865b 52bb 4b9d 90bb 466c 9bbb
00000140: 6ef8 cd3a f149 1ab8 35c4 c73b c959 5abb
00000150: c579 71bb ce15 49bb bdab 75bb cc84 8cba
00000160: 6d0d 233b d0e9 e03b c7d2 763b 595b 4cbb
00000170: 678b 0abc ee3d a53a 7dd2 26bb 5aec b3bb
00000180: 4f85 46bb 1b89 8fba 5538 2c3a 1e2f 82bb

fc2.weight f4 [50, 100]
-0.01806475 -0.19008462 0.08943455 0.0043960204 0.035794146 -0.21023951 -0.007923529 0.1678096
-0.056840144 0.13672638 0.14398618 0.040382028 -0.12318252 0.07230924 0.13406095 -0.022212908
0.008809952 -0.012471786 -0.06316598 0.049143773 0.060500834 -0.035799265 -0.07493656 0.016888611
0.115248 -0.01228037 -0.04989278 -0.13168474 -0.11552674 0.004234557 -0.009016659 0.03220743
0.0018122304 0.22783893 -0.010261237 -0.020597072 0.006657631 -0.0912085 -0.09093344 -0.14886051
0.07004803 -0.08613672 0.014690138 0.045357984 0.16303067 0.005425383 -0.0008077078 0.121537566
-0.098498546 -0.1712238 0.1929821 -0.033019982 -0.19339858 0.10484478 -0.14839864 -0.11645486
0.08317592 0.03598618 0.05261299 0.06338045 -0.021779811 -0.0115819285 -0.051405687 0.12590681
-0.03429741 0.11293536 0.042779025 -0.007842666 0.2271875 -0.050315127 -0.09904774 0.05986429
0.074309856 0.087564774 0.046278827 -0.03682112 -0.060630422 -0.058612183 0.06767501 -0.18643157
0.05158263 0.0111497 -0.023960918 0.12217419 -0.073981635 -0.16778511 0.17704393 0.20788902
0.123768136 -0.12378986 0.023720615 0.1723844 0.19423363 0.19653322 0.09826695 0.10213205
-0.0026067558 -0.14856234 0.039208334 0.030668177 -0.05660116 -0.13726498 0.033067536 -0.010539773
0.12156484 -0.12122743 -0.021002963 -0.060179934 -0.0037038832 -0.15102527 0.04647534 -0.012162759
-0.06193618 -0.02853571 0.082342155 0.076153636 -0.06650847 -0.12235012 -0.22685944 0.17949879
-0.07648603 -0.056806583 -0.1140462 0.09175559 -0.17428665 -0.009182595 0.029715436 -0.046493787
0.15937997 0.09236019 -0.17395744 0.00707034 0.12066307 0.082929194 0.27715135 0.14464828
0.03213916 -0.10324376 0.015710453 -0.09674463 0.109651834 -0.020859972 -0.09426664 -0.10870139
0.12228181 -0.05195857 -0.07021915 -0.11346006 -0.12367315 0.030441364 0.20765713 -0.06057706
0.10748689 -0.13094862 -0.016601115 0.094292074 0.076653406 -0.14571105 0.07846471 -0.03133231
0.12802342 0.03354102 -0.009403793 -0.025369493 0.13447341 0.07552698 0.11188727 -0.1019685
-0.2192678 0.0148881525 -0.03034674 -0.06524945 -0.12535217 -0.028884694 0.028449733 0.025854541
0.0030496106 0.028223356 0.2391963 0.17780922 0.0030601772 0.21105133 -0.102457866 -0.073425785
0.008922479 -0.14468037 -0.017739652 -0.032907818 -0.012131224 0.24070154 -0.10635974 -0.02229572
0.069911376 -0.04670974 -0.052487373 0.011720101 0.044818923 -0.08925198 0.15554024 0.067414805
0.043197416 -0.1760407 -0.044217236 0.09316479 0.07829988 0.010211741 -0.1923751 0.17822082
0.05226812 -0.093299255 -0.109433025 0.0037382073 0.005713116 -0.11229399 0.25108308 0.07527756
-0.013699993 -0.04332628 -0.044051323 -0.23804468 0.10626604 -0.09960681 -0.08547136 0.17900725
-0.06048196 -0.06206363 -0.13193174 -0.080853924 -0.0718016 0.06268541 -0.04997262 0.009118785
-0.12856978 -0.08108714 0.0885226 0.21931314 -0.11018822 0.082900755 0.30149534 0.12944756
-0.12683426 0.0083554275 -0.15083767 0.054318346 -0.05520725 -0.042567268 -0.009913958 0.023825638
0.18697584 0.023169922 -0.33597735 -0.037966076 0.22849037 -0.124878325 -0.14124061 -0.032750715
00000000: 87fc 93bc 8ba5 42be 7629 b73d 7e0c 903b
00000010: e29c 123d 0749 57be b0d1 01bc 48d6 2b3e
00000020: 36d1 68bd 0002 0c3e 1d71 133e a067 253d
00000030: 1e47 fcbd de16 943d 4647 093e d8f7 b5bc
00000040: 9e57 103c 7656 4cbc 2a5d 81bd fb4a 493d
00000050: b9cf 773d 40a2 12bd 5778 99bd fc59 8a3c
00000060: 2507 ec3d 9b33 49bc 5f5c 4cbd 5dd8 06be
00000070: 4999 ecbd 0ac2 8a3b 9cba 13bc f0eb 033d
00000080: 5d88 ed3a 9c4e 693e bf1e 28bc 31bb a8bc
00000090: 4228 da3b 86cb babd 503b babd e46e 18be
000000a0: 5775 8f3d 7368 b0bd e8ae 703c 4bc9 393d
000000b0: 83f1 263e 69c7 b13b 5abc 53ba b0e8 f83d
000000c0: 9bb9 c9bd 4b55 2fbe 1a9d 453e f63f 07bd
000000d0: 470a 46be dcb8 d63d d0f5 17be e37f eebd
000000e0: 2358 aa3d 3f66 133d b880 573d 9ccd 813d
000000f0: 936b b2bc 21c2 3dbc c58e 52bd b7ed 003e
00000100: 717b 0cbd a74a e73d 0f39 2f3d 867e 00bc
00000110: d7a3 683e 3c17 4ebd 8bd9 cabd 4234 753d
00000120: c42f 983d 2955 b33d de8e 3d3d bed1 16bd
00000130: 9b57 78bd 5413 70bd 3299 8a3d ebe7 3ebe
00000140: 4f48 533d 3bad 363c b049 c4bc 7636 fa3d
00000150: af83 97bd dccf 2bbe 014b 353e dce0 543e
00000160: 267a fd3d 8a85 fdbd bc51 c23c 8985 303e
00000170: 2ee5 463e 0140 493e 2f40 c93d 9c2a d13d
00000180: 1bd6 2abb ba20 18be eb98 203d d43b fb3c
00000190: 9ed6 67bd 318f 0cbe d371 073d 03af 2cbc
000001a0: fdf6 f83d 1646 f8bd 680e acbc 3c7f 76bd
000001b0: d9bc 72bb 5ea6 1abe ed5c 3e3d 4f46 47bc
000001c0: cbb0 7dbd b9c3 e9bc 01a3 a83d 70f6 9b3d
000001d0: 9835 88bd b392 fabd d74d 68be 88ce 373e
000001e0: b5a4 9cbd 05ae 68bd 0e91 e9bd 5bea bb3d
000001f0: 3378 32be 9872 16bc c96d f33c 4570 3ebd
00000200: 8134 233e 5727 bd3d e621 32be 50ae e73b
00000210: 331e f73d c8d6 a93d c8e6 8d3e ae1e 143e
00000220: 5aa4 033d 7771 d3bd 35b3 803c 0c22 c6bd
00000230: 2491 e03d 88e2 aabc de0e c1bd d69e debd
00000240: e36e fa3d 82d2 54bd 0fcf 8fbd bf5d e8bd
00000250: 5948 fdbd 2b60 f93c 12a4 543e a71f 78bd
00000260: 1622 dc3d 6517 06be 10ff 87bc 341c c13d
00000270: 76fc 9c3d 4735 15be 1bb2 a03d 4f56 00bd
00000280: 9218 033e 4f62 093d 5e12 1abc afd3 cfbc
00000290: 66b3 093e e4ad 9a3d 2725 e53d dcd4 d0bd
000002a0: bd87 60be 70ed 733c ba99 f8bc 81a1 85bd
000002b0: 525c 00be 989f ecbc 6a0f e93c e7cc d33c
000002c0: fadb 473b ab34 e73c e0ef 743e 9f13 363e
000002d0: 418d 483b d71d 583e 6ed5 d1bd 4260 96bd
000002e0: 972f 123c 1727 14be bf52 91bc 59ca 06bd
000002f0: 0bc2 46bc 777a 763e 23d3 d9bd 84a5 b6bc
00000300: b22d 8f3d b652 3fbd 00fd 56bd ab05 403c
00000310: 0c94 373d bec9 b6bd f145 1f3e c610 8a3d
00000320: c6ef 303d 0344 34be 221d 35bd 2ecd be3d
00000330: b05b a03d 254f 273c fafd 44be 857f 363e
00000340: 1917 563d ae13 bfbd 6c1e e0bd b6fc 743b
00000350: 1735 bb3b 64fa e5bd f68d 803e 1f2b 9a3d
00000360: ef75 60bc e676 31bd 296f 34bd fcc1 73be
00000370: 02a2 d93d a8fe cbbd 9c0b afbd ad4d 373e
00000380: efbb 77bd 6f36 7ebd 1d19 07be be96 a5bd
00000390: b80c 93bd 3561 803d 17b0 4cbd f566 153c
000003a0: cca7 03be 0411 a6bd 564b b53d a093 603e
000003b0: 5daa e1bd dfc7 a93d 995d 9a3e e78d 043e
000003c0: d7e0 01be 34e5 083c 3175 1abe ea7c 5e3d
000003d0: ff20 62bd 045b 2ebd 276e 22bc fc2d c33c
000003e0: 9876 3f3e d9ce bd3c 3905 acbe 5182 1bbd
000003f0: 61f9 693e 35c0 ffbd 61a1 10be 9d25 06bd

fc2.bias f4 [50]
-0.008699404 -0.004781777 -0.0031082567 -0.009293338 -0.0015131427 -0.0041333567 0.010025207 0.012456806
0.0036534225 -0.006133872 -0.0061660795 0.012386742 0.00040988158 0.0006769468 -0.012132067 0.012637614
0.0073824124 9.041633e-05 0.003159229 0.008771721 0.0053295013 -0.0055453763 0.0022188402 0.0030254894
0.01249383 0.0075471746 -0.0054849545 0.0012137288 -0.006037242 0.008806614 0.0004055549 -0.017357295
0.002295055 -0.0035391804 -0.0034317572 0.008795754 -0.0029603257 -0.00017456185 -0.010692483 0.00020563148
-0.0037005977 0.004080723 -0.0039352593 0.002733823 0.0075318944 -0.001219612 -0.011845439 -0.0054037706
0.0010424844 -0.0020872932
00000000: f287 0ebc 74b0 9cbb e5b3 4bbb 1643 18bc
00000010: a554 c6ba 1c71 87bb c440 243c a217 4c3c
00000020: 426e 6f3b a6fe c8bb d30c cabb c3f1 4a3c
00000030: 60e5 d639 2175 313a 94c5 46bc ff0d 4f3c
00000040: 2ae8 f13b e69d bd38 110b 4f3b 44b7 0f3c
00000050: 19a3 ae3b fdb5 b5bb f669 113b 4a47 463b
00000060: ecb2 4c3c 4a4e f73b 22bb b3bb fb15 9f3a
00000070: 0ed4 c5bb 9e49 103c a8a0 d439 e330 8ebc
00000080: a268 163b 98f1 67bb 55e7 60bb 111c 103c
00000090: 0602 42bb 970a 37b9 862f 2fbc c89e 5739
000000a0: ba85 72bb 96b7 853b 59f3 80bb f029 333b
000000b0: 1cce f63b 63db 9fba 5f13 42bc 1d12 b1bb
000000c0: f9a3 883a f8ca 08bb

ln2.weight f4 [50]
0.9860626 0.9855135 0.9825389 0.98700285 0.9844507 0.98559463 0.99154276 1.0016016
0.9923175 0.9838892 0.98340756 1.0146797 0.9845379 0.99863356 1.0043076 0.9903533
1.01175 0.98739195 0.9889316 0.99686486 1.0011637 0.9891472 0.985889 0.99274474
0.9901946 0.99362135 0.98239803 0.98835504 0.9818654 0.9920289 0.9858872 1.0013448
0.9863353 1.0072466 0.9846472 0.98926425 1.0115156 0.9873084 0.98809993 0.9852438
0.99587214 0.9866606 0.98350173 0.989116 0.9956983 0.99739474 0.97768116 0.98312175
0.9987909 0.9848083
00000000: 996e 7c3f 9d4a 7c3f ab87 7b3f 38ac 7c3f
00000010: f604 7c3f ee4f 7c3f bfd5 7d3f 7b34 803f
00000020: 8508 7e3f 2ae0 7b3f 99c0 7b3f 06e1 813f
00000030: ad0a 7c3f 73a6 7f3f 278d 803f cb87 7d3f
00000040: 0681 813f b8c5 7c3f 9f2a 7d3f 8932 7f3f
00000050: 2226 803f c038 7d3f 3963 7c3f 8524 7e3f
00000060: 657d 7d3f f85d 7e3f 707e 7b3f d604 7d3f
00000070: 885b 7b3f 9bf5 7d3f 1b63 7c3f 112c 803f
00000080: 7880 7c3f 75ed 803f d711 7c3f 6c40 7d3f
00000090: 5879 813f 3ec0 7c3f 1ef4 7c3f f038 7c3f
000000a0: 7af1 7e3f ca95 7c3f c5c6 7b3f b536 7d3f
000000b0: 15e6 7e3f 4355 7f3f 5049 7a3f dead 7b3f
000000c0: c3b0 7f3f 661c 7c3f

ln2.bias f4 [50]
-0.004656688 -0.002692108 -0.0025210811 -0.0073007313 -0.0019744488 -0.0022137272 0.008813221 0.009914926
0.003451416 -0.004641149 -0.0044279154 0.008775589 -0.0021146147 0.004883469 -0.0050702286 0.006746893
0.008540673 0.00080077373 0.0022603616 0.006446864 0.007962864 -0.0019234155 -0.0014917825 0.0023906534
0.0064854883 0.006152957 -0.0035093427 0.0019166616 -0.0044919504 0.0068355133 -0.0014268797 -0.0081178965
0.0011935248 -0.00023386106 -0.002994328 0.0036388892 0.00062649423 -0.0014798056 -0.0072751404 -0.0010207724
0.0003324327 0.0012398011 -0.0019241595 0.0020514994 0.00403442 -0.00019893714 -0.007352871 -0.0040379544
0.0025944547 -0.0021039716
00000000: 2197 98bb 146e 30bb b938 25bb f93a efbb
00000010: c165 01bb 2e14 11bb 5465 103c 3772 223c
00000020: 2731 623b c814 98bb 0c18 91bb 7dc7 0f3c
00000030: 5995 0abb 8205 a03b 2924 a6bb 0a15 dd3b
00000040: 2eee 0b3c 04eb 513a 9322 143b 3740 d33b
00000050: ac76 023c 1d1b fcba ea87 c3ba 82ac 1c3b
00000060: 3884 d43b bf9e c93b 00fd 65bb 7e38 fb3a
00000070: 3631 93bb 71fc df3b 2306 bbba ed00 05bc
00000080: 0c70 9c3a 9a38 75b9 7d3c 44bb 6e7a 6e3b
00000090: 513b 243a 09f6 c1ba 4d64 eebb 70cb 85ba
000000a0: 5d4a ae39 d280 a23a 1434 fcba 7372 063b
000000b0: 2b33 843b c899 50b9 5af0 f0bb d150 84bb
000000c0: ba07 2a3b c9e2 09bb
