Source_combined/ckps/seizure/source/Except_S3/source_F.pt (torch, 557199 bytes, 8 tensors)

fc1.weight f4 [100, 1332]
0	0x3c232a92	0.00995888
1	0xbcb7af3a	-0.022422422
2	0x3ba0931b	0.004900349
3	0x3ca71eed	0.020400489
4	0x3c9d92c9	0.019235032
5	0xbcb798bb	-0.022411695
6	0x3b64b1ac	0.003489594
7	0xbc888297	-0.016663833
8	0x3b97eabe	0.0046361377
9	0xbc95d397	-0.01828937
10	0xbb38194a	-0.0028091245
11	0x3ca19016	0.019722026
12	0x3c331ef5	0.010932674
13	0x3c9709f9	0.018437373
14	0x3bff1cf5	0.0077854344
15	0xbbe17a43	-0.00688103
16	0xbc0251b6	-0.007954052
17	0x3c9d7e16	0.019225162
18	0xbc411baf	-0.011786385
19	0xbba0f759	-0.0049122986
20	0x3c84d389	0.01621415
21	0x3bcba879	0.006215152
22	0xbcad3a6e	-0.021146026
23	0x3cbbcafa	0.022923935
24	0x3bc9b081	0.006155074
25	0xbc6973a4	-0.014248762
26	0xbbb430a4	-0.0054989625
27	0x3baa0b6e	0.005189351
28	0xbc42e548	-0.011895485
29	0x3c933e9f	0.017974196
30	0xbbd4aad6	-0.006490092
31	0x3ca7db01	0.020490171
32	0xbca3e1a6	-0.020005058
33	0xbbb48840	-0.0055094063
34	0xbbd6c6a2	-0.0065544406
35	0xbc703a1e	-0.014662294
36	0xbc85978f	-0.01630762
37	0xbcbb67b3	-0.022876596
38	0xbc5e3f48	-0.013564892
39	0x3b420535	0.0029605154
40	0x3cc1c78d	0.023654724
41	0x3a92abf9	0.0011190168
42	0xbc524f7f	-0.012836336
43	0xbc816328	-0.015794352
44	0xbc4a9bdf	-0.012366264
45	0xbb983792	-0.0046452964
46	0xbc522e90	-0.012828484
47	0x3cbd9d96	0.023146432
48	0x3c642289	0.013924249
49	0xbc12cae6	-0.008959508
50	0x3c6182bd	0.013764081
51	0xba9ebf80	-0.0012111515
52	0xbc41e807	-0.011835105
53	0x3c9519df	0.018200813
54	0x3c224889	0.009904989
55	0xbc776233	-0.015099096
56	0x3ca9c412	0.020723376
57	0x3c1383b6	0.00900357
58	0x3c886a9e	0.016652402
59	0x3c5a4d4a	0.013324091
60	0xbcd39697	-0.025828643
61	0xbc8bfc8e	-0.0170882
62	0xbbad4c87	-0.005288664
63	0xbb088c94	-0.0020835744
64	0x3c5a2f88	0.013316996
65	0x3cc10e9a	0.023566533
66	0x3c6bd598	0.014394186
67	0xbb77e458	-0.0037825312
68	0xbbfb2db4	-0.0076653603
69	0x3cd6976e	0.026195254
70	0x3c8547bf	0.016269563
71	0x3b9cd6fc	0.0047863703
72	0x3b756f48	0.0037450362
73	0xbc5f30ee	-0.013622506
74	0x3b67783a	0.0035319463
75	0x3cbfbb31	0.02340469
76	0x3c89767d	0.016780132
77	0x3bf24dee	0.007394544
78	0x3c8a4912	0.016880546
79	0x3c8e4021	0.017364563
80	0x3ce18bf2	0.027532551
81	0x3cb7f761	0.022456827
82	0x3c078bc2	0.008273067
83	0x3cd01760	0.025401771
84	0x3cbb7dfe	0.022887226
85	0xbcd69fbf	-0.02619922
86	0xbba8afd1	-0.005147912
87	0xbc657706	-0.014005428
88	0x3be51f51	0.0069922586
89	0xbc225f48	-0.009910412
90	0x3cbba024	0.02290351
91	0x3c111c4d	0.008856845
92	0x3b7d90d2	0.0038691056
93	0x3c27be48	0.010238238
94	0xbc5b90c0	-0.01340121
95	0x3c09b2ce	0.008404447
96	0xb85cb238	-5.2618067e-05
97	0xbc52b763	-0.012861106
98	0x3c9ad957	0.018902464
99	0x3b1884d3	0.0023272529
100	0xbcdb30c2	-0.026756648
101	0xbcc7eb3d	-0.024404163
102	0x3c9d93d8	0.019235536
103	0xbc818682	-0.015811209
104	0xbbf2d9a0	-0.007411197
105	0xbc98a7e4	-0.018634744
106	0x3cb92096	0.022598546
107	0xbc5fc184	-0.013656978
108	0xba48561a	-0.00076422247
109	0x3ca49b06	0.020093452
110	0x3c315622	0.010823758
111	0x3c9e2ceb	0.019308528
112	0x3c51ac9c	0.012797501
113	0xbc86ba52	-0.016446266
114	0x3ca64c7b	0.02030014
115	0x3c1fadb2	0.009746002
116	0xbbe732bf	-0.00705561
117	0xbcb1a80f	-0.021686582
118	0xbb150491	-0.0022738317
119	0x3c077e5c	0.0082698725
120	0xbc9fc740	-0.01950419
121	0xbcd052f2	-0.025430176
122	0x3befd4a0	0.007319048
123	0x3c225c24	0.009909663
124	0xbcc4592c	-0.023968302
125	0x3b757b1f	0.003745742
126	0x3c92252c	0.01783999
127	0x3c55a266	0.013039207
128	0x3cc746cd	0.024325753
129	0xbc4f721e	-0.012661485
130	0xbd0168ad	-0.031593967
131	0x3c34501f	0.0110054305
132	0xbce4d0bb	-0.027931562
133	0x3b1ca02b	0.0023899178
134	0xbc9c64d6	-0.019091051
135	0x3c84bce8	0.016203359
136	0x3c1804b5	0.009278466
137	0x3cc0c2fa	0.023530472
138	0x3c9fbec2	0.01950014
139	0xbcf12d31	-0.029440494
140	0x3a3a1ac5	0.0007099326
141	0x3cac2b05	0.021016607
142	0x3c508361	0.012726636
143	0x3cec8724	0.028873034
144	0xbc889c38	-0.016676053
145	0x3cc346dc	0.0238375
146	0x3ca01f10	0.019546062
147	0xbc82b719	-0.015956448
148	0xbcbca4ad	-0.023027742
149	0x3c47fe5e	0.012206642
150	0x3c5c9d6a	0.013465265
151	0xbc9091fa	-0.017647732
152	0xbc91d624	-0.017802306
153	0xbce5b9f8	-0.028042778
154	0xbb01391a	-0.0019717873
155	0x3b1c3893	0.0023837432
156	0x38d55f75	0.00010174412
157	0xba716811	-0.00092089275
158	0xbcb93a8b	-0.022610923
159	0xbc6b43a5	-0.014359389
160	0x3c7375c3	0.01485962
161	0x38af3d37	8.3560524e-05
162	0xbc5f9e13	-0.013648528
163	0xba098eb2	-0.00052473985
164	0xbcae3872	-0.02126715
165	0x3a5ff4b6	0.00085432397
166	0xb9e4ef3c	-0.00043665792
167	0xbcc73707	-0.024318231
168	0xbca41d95	-0.020033637
169	0xbcbf6e9a	-0.023368169
170	0xbcd61d9e	-0.02613717
171	0x3cb0b119	0.021568822
172	0xbc786eb2	-0.015163111
173	0x3c6f5104	0.014606718
174	0x3c8b402c	0.016998373
175	0x3c962671	0.018328877
176	0xbc66eab2	-0.014094042
177	0x3b3d6d1d	0.0028904148
178	0xbc05eae2	-0.008173676
179	0x3cc21d8a	0.023695726
180	0xbb8578ea	-0.004073252
181	0xbc2f183a	-0.010686928
182	0xbc211767	-0.00983224
183	0xbc224db5	-0.009906222
184	0x3c93ed02	0.01805735
185	0x3bb1d3bb	0.0054268516
186	0x3ccfde29	0.025374489
187	0xbae2bc4f	-0.0017298552
188	0x3c30a8b7	0.010782412
189	0x3ca6ba99	0.020352649
190	0x3c8176fc	0.015803806
191	0x3c684815	0.014177342
192	0xbc9a9777	-0.018871052
193	0x3ce30603	0.027712828
194	0x3ca5d172	0.020241473
195	0x3c33f701	0.010984183
196	0x3cce0d7b	0.025152912
197	0xbcb3bf43	-0.021941787
198	0xbb3d987a	-0.0028929994
199	0x3c61aff0	0.013774857
200	0x3c82ac08	0.015951172
201	0x3ca373d6	0.019952696
202	0x3c8a0c28	0.0168515
203	0x3c515963	0.012777659
204	0x3c712e5f	0.014720528
205	0xbc2534f6	-0.010083428
206	0xbc958b44	-0.018254884
207	0x3cf2741f	0.029596386
208	0x3c610182	0.01373327
209	0xbcd34ef3	-0.025794482
210	0x3ca2659e	0.019823845
211	0xbc95c76b	-0.018283566
212	0xbcd1f6ff	-0.025630472
213	0x3b153d83	0.002277226
214	0x3c63536c	0.01387487
215	0xbca07dc2	-0.019591216
216	0xbc8694eb	-0.016428431
217	0xbcc40bc3	-0.02393139
218	0xbca7acd1	-0.020468147
219	0x3cae69a5	0.02129061
220	0x3c620ef1	0.013797508
221	0xbc1331a6	-0.008984005
222	0x3bd1cc56	0.0064025326
223	0x3c47f671	0.012204752
224	0xbc89f7c9	-0.016841786
225	0x3c5e4efb	0.013568635
226	0x3b14a061	0.00226786
227	0x3c17d251	0.009266452
228	0x3b06fa7d	0.002059608
229	0x3cabd8d1	0.02097741
230	0xbc939150	-0.018013626
231	0x3cd538f4	0.026028134
232	0x3b49b7e6	0.0030779778
233	0xbcd6a867	-0.026203347
234	0xbcd96247	-0.02653612
235	0xbc5604f1	-0.013062702
236	0xbcc79622	-0.024363581
237	0x3cb6eb9f	0.02232915
238	0xbc760d31	-0.0150177935
239	0xbc1dc087	-0.009628422
240	0x3c3b25b2	0.0114225615
241	0x3c4da372	0.012551175
242	0xbbab0f6c	-0.0052203443
243	0xbce1a4a3	-0.027544325
244	0xbb8dd410	-0.0043282583
245	0x3ba379b4	0.0049888734
246	0x3cd28f7c	0.025703184
247	0x3c2e706c	0.010646921
248	0x3cdcd141	0.026955249
249	0x3c747a29	0.014921703
250	0xbc94871a	-0.018130828
251	0xbca8f0bb	-0.020622602
252	0xbc712e09	-0.014720448
253	0x3c54c572	0.012986528
254	0x3c454ded	0.012042505
255	0x3cabbfb8	0.020965442

fc1.bias f4 [100]
0	0xbb8a3936	-0.004218246
1	0x3b501bc0	0.0031754822
2	0x3cc61257	0.024178667
3	0xbc4c3efc	-0.0124661885
4	0xbcbe3f63	-0.023223585
5	0x3bfcd635	0.007715965
6	0xbcb03bc0	-0.021512866
7	0xbce07906	-0.027401458
8	0x3ca4165f	0.020030199
9	0x3cd7b257	0.026330156
10	0xbbd960a9	-0.0066338372
11	0xbc3d51f1	-0.011555181
12	0xbcc9f93d	-0.024654979
13	0x3bd1d12e	0.00640311
14	0x3bb8f984	0.005644979
15	0x3cd7604e	0.026291039
16	0xbcad7345	-0.021173129
17	0x3c8a6675	0.016894558
18	0x3c962f39	0.018333064
19	0xbc1f61e3	-0.009727928
20	0xbc57d02c	-0.013172191
21	0xbbe0cb38	-0.006860163
22	0xbc0e6f47	-0.008693523
23	0xbc90dccd	-0.017683411
24	0xbc9c8c76	-0.019109946
25	0x3b20f040	0.0024557263
26	0x3b1e90b4	0.0024195137
27	0xbcadf5de	-0.021235403
28	0xbb8073dd	-0.003920062
29	0x3c470154	0.012146313
30	0x3cd2d612	0.025736842
31	0x3b12c939	0.002239777
32	0xbac0f299	-0.0014720737
33	0x3c9bc736	0.01901589
34	0x3c64069c	0.013917591
35	0x3c32aa3c	0.010904845
36	0x3c511acb	0.012762736
37	0xbc907b4c	-0.017636918
38	0x3a254a24	0.00063052983
39	0x3c2aa307	0.010414845
40	0xbcb3410c	-0.021881603
41	0x3b11b2ba	0.0022231773
42	0x3cb09b01	0.021558287
43	0x3b726f7b	0.0036992717
44	0xbbc184c2	-0.0059057185
45	0xbc99ded2	-0.018783007
46	0x3b2e1b00	0.0026566386
47	0x3c16f92c	0.009214681
48	0x3cda99f1	0.026684733
49	0xbbd8fd6e	-0.006622008
50	0x3a39a80d	0.00070822315
51	0x3b3b91b0	0.0028620772
52	0x3c45beb1	0.01206939
53	0x3c17f35c	0.00927433
54	0xbc020f60	-0.007938236
55	0xbb75f30b	-0.0037528898
56	0xbaea14c1	-0.0017858968
57	0x3bd1ceb8	0.0064028166
58	0xbcc12d98	-0.023581311
59	0x3ccd0672	0.025027487
60	0x3c67bfe1	0.014144869
61	0xbc299842	-0.0103512425
62	0x3ca1bc7d	0.019743199
63	0x3ce03844	0.02737058
64	0x3cb7f93f	0.022457717
65	0xbc630fa2	-0.013858708
66	0x3cc4250a	0.023943443
67	0xbcc9f6e0	-0.024653852
68	0x3a71c5e0	0.0009222906
69	0xbb90d5ac	-0.004420003
70	0x3c3d436b	0.011551718
71	0xbc91e71e	-0.0178104
72	0xbbaae708	-0.0052155294
73	0x3cc14750	0.023593575
74	0xbbbea60f	-0.0058181356
75	0xbc65f549	-0.014035531
76	0x3ca1b4f0	0.019739598
77	0x3cbd95f6	0.023142796
78	0x3c9f22f9	0.019425856
79	0x3b4df37f	0.0031425653
80	0xbcba8bc0	-0.022771716
81	0x390587bc	0.00012734433
82	0xbc379a10	-0.011206165
83	0x3ca36131	0.019943805
84	0x3c7d9fee	0.015480025
85	0xbca37070	-0.019951075
86	0xbb4554a6	-0.003011027
87	0xbabaeeaf	-0.0014261807
88	0xbb0d7e05	-0.0021590006
89	0x3c2822cb	0.010262202
90	0x3b97f1b2	0.0046369666
91	0xbb8dba38	-0.0043251775
92	0xbcb710dd	-0.022346908
93	0x3c985dc4	0.018599398
94	0xbcb4cae9	-0.022069411
95	0xbc864a6e	-0.016392913
96	0xbc6e18d1	-0.014532284
97	0x3b2d4fc3	0.0026445247
98	0x3c877946	0.01653732
99	0x3c4dc647	0.01255948

ln1.weight f4 [100]
0	0x3f7e3377	0.9929728
1	0x3f7dfa43	0.99209994
2	0x3f7e2bd7	0.99285644
3	0x3f7f3530	0.9969053
4	0x3f7e3474	0.9929879
5	0x3f7e734f	0.99394697
6	0x3f7e0066	0.9921936
7	0x3f7e272a	0.9927851
8	0x3f7e5bcf	0.9935884
9	0x3f7dee56	0.99191797
10	0x3f7e29e2	0.9928266
11	0x3f7e3817	0.99304336
12	0x3f7e5764	0.993521
13	0x3f7e3d4c	0.9931228
14	0x3f7db7d8	0.9910865
15	0x3f7e1ea7	0.9926552
16	0x3f7e86ec	0.99424624
17	0x3f7decf5	0.9918969
18	0x3f7e1eae	0.99265563
19	0x3f7de41b	0.99176186
20	0x3f7e1db9	0.99264103
21	0x3f7de8be	0.9918326
22	0x3f7e3ffe	0.99316394
23	0x3f7de277	0.9917368
24	0x3f7e4658	0.99326086
25	0x3f7dba29	0.9911218
26	0x3f7e545c	0.9934747
27	0x3f7e25ce	0.99276435
28	0x3f7dc9a6	0.99135816
29	0x3f7e6471	0.9937201
30	0x3f7e9970	0.9945288
31	0x3f7dbf8c	0.991204
32	0x3f7e06da	0.99229205
33	0x3f7db1dc	0.99099517
34	0x3f7dc790	0.99132633
35	0x3f7dd835	0.9915803
36	0x3f7e5be2	0.9935895
37	0x3f7ec78e	0.99523246
38	0x3f7da1e9	0.9907518
39	0x3f7df1db	0.9919717
40	0x3f7f3278	0.99686384
41	0x3f7e338e	0.99297416
42	0x3f7e5040	0.993412
43	0x3f7dc432	0.99127495
44	0x3f7deaab	0.991862
45	0x3f7e4e8c	0.99338603
46	0x3f7de89a	0.99183047
47	0x3f7e449e	0.9932345
48	0x3f7e6c81	0.99384314
49	0x3f7e15fb	0.9925229
50	0x3f7df7db	0.9920632
51	0x3f7e2f2e	0.9929074
52	0x3f7de657	0.99179596
53	0x3f7de05e	0.9917048
54	0x3f7e2c76	0.9928659
55	0x3f7f34f8	0.996902
56	0x3f7dd293	0.99149436
57	0x3f7df2a8	0.9919839
58	0x3f7e8ca2	0.9943334
59	0x3f7e4178	0.9931865
60	0x3f7e6ce1	0.99384886
61	0x3f7dd116	0.99147165
62	0x3f7e4e96	0.9933866
63	0x3f7e13bf	0.9924888
64	0x3f7e1273	0.992469
65	0x3f7e4658	0.99326086
66	0x3f7e5a02	0.9935609
67	0x3f7e5a32	0.9935638
68	0x3f7dd631	0.99154955
69	0x3f7e0e1d	0.99240285
70	0x3f7ef756	0.99596155
71	0x3f7dd8dd	0.9915903
72	0x3f7e12d4	0.9924748
73	0x3f7ddf7e	0.99169147
74	0x3f7e6202	0.993683
75	0x3f7ed6df	0.9954662
76	0x3f7dd079	0.9914623
77	0x3f7de770	0.9918127
78	0x3f7d95d7	0.9905676
79	0x3f7d9578	0.99056196
80	0x3f7deb97	0.99187607
81	0x3f7df4b4	0.9920151
82	0x3f7e1367	0.99248356
83	0x3f7deed8	0.9919257
84	0x3f7e29d4	0.99282575
85	0x3f7ddc33	0.9916412
86	0x3f7df42e	0.99200714
87	0x3f7e2111	0.99269205
88	0x3f7dcf1e	0.9914416
89	0x3f7e0d31	0.9923888
90	0x3f7dccdd	0.9914072
91	0x3f7e6bb4	0.9938309
92	0x3f7e1af0	0.99259853
93	0x3f7dcdc0	0.99142075
94	0x3f7eb0de	0.9948863
95	0x3f7e35c2	0.9930078
96	0x3f7e1215	0.9924634
97	0x3f7dd833	0.9915802
98	0x3f7dc8bf	0.9913444
99	0x3f7e4c2d	0.99334985

ln1.bias f4 [100]
0	0xbafc546b	-0.0019251233
1	0xb980e37b	-0.0002458355
2	0xba38b6e9	-0.00070462987
3	0x3ad5e33a	0.0016318329
4	0xbacce6d7	-0.001563276
5	0x3aa95c9a	0.0012921274
6	0xb904cf6b	-0.0001266577
7	0xba120ecd	-0.00055716635
8	0x3a13333f	0.0005615241
9	0xbac612af	-0.0015111769
10	0x3acbb265	0.0015540837
11	0xb94422fe	-0.00018705052
12	0x394e9617	0.00019701604
13	0xba836741	-0.0010025279
14	0xba461bcc	-0.00075572426
15	0x39cd21db	0.0003912587
16	0xba9faf9b	-0.0012183072
17	0x399756a0	0.00028865505
18	0xba9b89dc	-0.0011866647
19	0xba615bbc	-0.00085967383
20	0xbaaf5dbb	-0.0013379374
21	0xba8efb94	-0.0010908716
22	0x39f4bf34	0.00046681764
23	0xba4362b5	-0.0007453368
24	0xbb2346b3	-0.0024913966
25	0xba91edec	-0.0011133528
26	0x3a465b5b	0.00075667136
27	0xb8d3825f	-0.000100855475
28	0xbaa6f7e7	-0.0012738676
29	0x3a187ce0	0.00058169477
30	0x3a35a49d	0.00069291313
31	0xbae1caf0	-0.0017226618
32	0x39250586	0.00015737684
33	0xbad7ef9d	-0.0016474609
34	0xbac1a235	-0.0014773073
35	0xba424b3f	-0.0007411725
36	0xba9fd77c	-0.0012194957
37	0x3988c9fa	0.00026090426
38	0xbb26b048	-0.0025434662
39	0xb9a0be1d	-0.00030659224
40	0x3aebe54a	0.0017997411
41	0x3a18812a	0.0005817587
42	0xb9f381c2	-0.0004644525
43	0xbaf0bd67	-0.0018366993
44	0xbacdfcaa	-0.0015715559
45	0x3a40c97f	0.0007354244
46	0xbaa81c93	-0.0012825899
47	0xb97fb6d4	-0.00024386804
48	0x3a6203fa	0.00086218084
49	0x3951e18c	0.00020015816
50	0xb9967b61	-0.00028702154
51	0x3a97f7b9	0.0011594213
52	0xba8e9d87	-0.0010880687
53	0xba4fc09b	-0.0007925124
54	0x3a66ee2b	0.00088092935
55	0x38eb546b	0.00011221397
56	0xbaa66b7a	-0.0012696825
57	0xba025518	-0.00049717864
58	0x3a4a5ca6	0.0007719494
59	0x3a3e6c04	0.00072640204
60	0xba1d3c2f	-0.0005998043
61	0xba3517de	-0.00069081585
62	0xb99a7b87	-0.00029465204
63	0xba1ddb15	-0.00060217205
64	0x39d55861	0.00040692373
65	0x39202025	0.00015270764
66	0xb9e0f2b1	-0.0004290543
67	0x39842e27	0.00025211388
68	0xba4c943d	-0.00078040716
69	0xb990a815	-0.0002759105
70	0x3b2850ed	0.0025683
71	0xb9fbdcbb	-0.00048038908
72	0xb99f0982	-0.00030333927
73	0xb99de20b	-0.0003011379
74	0x3a2a2d97	0.0006491779
75	0xb9a0a99a	-0.0003064394
76	0xba4e43c5	-0.0007868375
77	0xba0c17c5	-0.0005344118
78	0xbac2c44c	-0.0014859526
79	0xbb354e70	-0.002766516
80	0xba9c77f7	-0.0011937608
81	0xba803990	-0.000978278
82	0x38e90328	0.00011110894
83	0xba9db31f	-0.0012031532
84	0xb9a248b5	-0.0003095322
85	0xbb009d75	-0.0019625102
86	0x390efc0f	0.00013636074
87	0xba6ce817	-0.00090372696
88	0xba91237e	-0.00110732
89	0x3850e9ea	4.9808914e-05
90	0xbad25b66	-0.0016048967
91	0x3a964126	0.0011463508
92	0xba1c953f	-0.0005973167
93	0xbb42abb7	-0.00297044
94	0x3aee8969	0.001819891
95	0x3a506314	0.0007949334
96	0x38bc1f4a	8.9703666e-05
97	0xba2f78f3	-0.0006693743
98	0xbaaf2d79	-0.0013364992
99	0xb84b79e4	-4.851249e-05

fc2.weight f4 [50, 100]
0	0xbdc7b2f2	-0.09750928
1	0xbe2c6cec	-0.16838425
2	0x3e4722e2	0.194469
3	0xbccb6f39	-0.024833309
4	0xbe4018ae	-0.18759415
5	0x3de64da5	0.11245278
6	0xbe150508	-0.145527
7	0xbdeb1395	-0.11478344
8	0x3da85e34	0.08221093
9	0x3d119bbd	0.035548914
10	0x3d855139	0.065096326
11	0x3d8474d1	0.064675935
12	0xbca5d3c4	-0.02024258
13	0xbc0095f5	-0.007848253
14	0xbd5789c5	-0.05262162
15	0x3e0b850c	0.13624972
16	0xbcf2782b	-0.029598316
17	0x3df5d719	0.12003917
18	0x3d4d2e47	0.05009296
19	0xbbef27c8	-0.0072984435
20	0x3e6bdd19	0.23033561
21	0xbd357e7a	-0.04431007
22	0xbdb30edd	-0.08743069
23	0x3d718e61	0.058973674
24	0x3d939620	0.072063684
25	0x3db53f3b	0.08849951
26	0x3d57fd8e	0.052732043
27	0xbd01f311	-0.031725947
28	0xbd721dd0	-0.059110463
29	0xbd72b30a	-0.059252776
30	0x3d92615d	0.07147477
31	0xbe3be07d	-0.18347354
32	0x3d80dde8	0.06292325
33	0x3c9632d6	0.018334787
34	0xbc9cb08f	-0.019127158
35	0x3e049145	0.12946041
36	0xbd8d0f47	-0.068876795
37	0xbe262df1	-0.16228463
38	0x3e3a4a71	0.1819246
39	0x3e597953	0.21237688
40	0x3e07c54c	0.13258857
41	0xbe016c5a	-0.12638989
42	0x3cc51ed3	0.02406255
43	0x3e3249b9	0.17410935
44	0x3e49ba6a	0.19700018
45	0x3e5205d9	0.20510043
46	0x3dc5a0b0	0.09649789
47	0x3dcfd9a7	0.10148936
48	0xbba4493a	-0.005013612
49	0xbe1a798f	-0.15085433
50	0x3d2d12c5	0.04225423
51	0x3ceb2eb7	0.028708799
52	0xbd6d494d	-0.057931233
53	0xbe0aa901	-0.13541032
54	0x3d0870da	0.03331075
55	0xbc25c68d	-0.010118139
56	0x3dfedc31	0.12444342
57	0xbdfcb338	-0.12338871
58	0xbc9db628	-0.019251898
59	0xbd69e4ee	-0.05710309
60	0x3a5a1801	0.0008319617
61	0xbe1c809f	-0.1528344
62	0x3d398fd6	0.04530319
63	0xbc547117	-0.012966416
64	0xbd716bb0	-0.05894059
65	0xbcfc5565	-0.030802438
66	0x3da60aff	0.08107566
67	0x3daa906c	0.083283275
68	0xbd851bef	-0.064994685
69	0xbdf2c599	-0.11854095
70	0xbe6736a5	-0.22579439
71	0x3e3a515e	0.18195102
72	0xbd9c32e9	-0.07626898
73	0xbd603c0a	-0.054744758
74	0xbde2dc7f	-0.110772125
75	0x3dbfc390	0.093634725
76	0xbe329c29	-0.17442383
77	0xbaf30423	-0.0018540662
78	0x3d1d4c63	0.038402926
79	0xbd426781	-0.04746199
80	0x3e20c201	0.15699007
81	0x3dc47d32	0.095941916
82	0xbe305f97	-0.17223965
83	0x3c38fbab	0.011290471
84	0x3df85526	0.12125616
85	0x3db6b875	0.08921901
86	0x3e91ca04	0.28474438
87	0x3e19c2eb	0.15015762
88	0x3d0dfacf	0.034663018
89	0xbdcc6d9e	-0.09981845
90	0x3cb10e4a	0.021613259
91	0xbdc5717c	-0.09640786
92	0x3deabeca	0.114621714
93	0xbcb01890	-0.021496087
94	0xbdc00212	-0.09375395
95	0xbdd0b52e	-0.10190807
96	0x3dfe3dd6	0.12414138
97	0xbd62a607	-0.055334117
98	0xbd89c7de	-0.06727575
99	0xbde1b05c	-0.11019966
100	0xbdfa446a	-0.1222008
101	0x3d07806d	0.03308146
102	0x3e5aa2a2	0.21351102
103	0xbd657c24	-0.056026593
104	0x3de11068	0.10989457
105	0xbe07ff05	-0.13280876
106	0xbc72a84c	-0.014810633
107	0x3dc998b2	0.098435774
108	0x3d9a3ded	0.07531343
109	0xbe1251d8	-0.14289033
110	0x3d9e0dcb	0.077174746
111	0xbce9418d	-0.02847364
112	0x3e05880c	0.13040179
113	0x3d00c7b6	0.03144046
114	0xbb7750c4	-0.003773735
115	0xbcde95c7	-0.027171029
116	0x3e0f01c3	0.13965516
117	0x3da327f6	0.07966606
118	0x3de905bc	0.11378047
119	0xbdc79e36	-0.09746973
120	0xbe621547	-0.22078429
121	0x3c828f6f	0.015937535
122	0xbd061d8d	-0.032743026
123	0xbd72ba0b	-0.059259456
124	0xbe0315da	-0.12801304
125	0xbcf6730d	-0.030084157
126	0x3ce68965	0.028141687
127	0x3ce2038a	0.027589578
128	0x3b391815	0.0028243114
129	0x3cf816fd	0.0302844
130	0x3e757319	0.23969688
131	0x3e33d9ea	0.17563596
132	0x3b83d706	0.0040234355
133	0x3e5c5e1d	0.21520276
134	0xbdc9f1e3	-0.09860589
135	0xbd9b7c45	-0.07592062
136	0x3c37b9c6	0.011213725
137	0xbe18db9c	-0.14927524
138	0xbc83db98	-0.016095921
139	0xbd0a811f	-0.033814546
140	0xbbebe3e3	-0.007198797
141	0x3e7e58b2	0.24838522
142	0xbdd9f309	-0.106420584
143	0xbc9ec05f	-0.019378839
144	0x3d9e5385	0.07730774
145	0xbd3e822f	-0.04651087
146	0xbd3c918d	-0.046037246
147	0x3c7da8fa	0.015482182
148	0x3d433a4e	0.047663026
149	0xbdbb9347	-0.0915895
150	0x3e22e39a	0.15907136
151	0x3d928703	0.07154658
152	0x3d36588d	0.044518042
153	0xbe33b46d	-0.17549296
154	0xbd381785	-0.044944305
155	0x3dc555da	0.096355155
156	0x3da8bcd3	0.0823914
157	0x3c3bad48	0.011454888
158	0xbe46a600	-0.19399261
159	0x3e39e1dd	0.18152566
160	0x3d5ce475	0.05392881
161	0xbdc26586	-0.0949202
162	0xbde31687	-0.11088281
163	0x3b9bfcdb	0.0047603673
164	0x3be4d059	0.006982845
165	0xbde87958	-0.113512695
166	0x3e8203d3	0.25393543
167	0x3da3a14c	0.07989749
168	0xbc3bae39	-0.011455112
169	0xbd2a5b5b	-0.04159103
170	0xbd31798a	-0.0433288
171	0xbe73e386	-0.23817262
172	0x3de0ed01	0.10982705
173	0xbdccafb2	-0.09994449
174	0xbdadd218	-0.08487338
175	0x3e3c2522	0.1837354
176	0xbd7bb4a2	-0.06145156
177	0xbd6e1a66	-0.058130644
178	0xbe04085c	-0.12893814
179	0xbda947a2	-0.08265616
180	0xbd993180	-0.074801445
181	0x3d805daa	0.06267865
182	0xbd4ab752	-0.049491234
183	0x3c3213f4	0.010869015
184	0xbe036e9a	-0.1283516
185	0xbda31189	-0.07962329
186	0x3dbd7190	0.09250176
187	0x3e645ee5	0.22301824
188	0xbde18d2f	-0.11013257
189	0x3daefc8e	0.08544265
190	0x3e9d4abf	0.3072109
191	0x3e074a29	0.13211884
192	0xbe042c34	-0.12907487
193	0x3c1a148b	0.009404312
194	0xbe1a8dde	-0.1509318
195	0x3d76ee7b	0.060286026
196	0xbd66bea9	-0.05633417
197	0xbd2c9f14	-0.042143896
198	0xbc1682f4	-0.009186495
199	0x3cd9ce8d	0.026587749
200	0x3e474d42	0.19463065
201	0x3cbad5db	0.022807052
202	0xbeacc280	-0.33742142
203	0xbd30d0a1	-0.043167714
204	0x3e6e5653	0.23275118
205	0xbe0144a3	-0.12623839
206	0xbe1374a9	-0.14399971
207	0xbd0aaf02	-0.033858307
208	0xbd8d7b8d	-0.06908331
209	0xbd96ed71	-0.07369507
210	0x3e03db84	0.12876707
211	0xbd8da8d9	-0.06916971
212	0x3d2422f9	0.040072415
213	0x3d730642	0.05933214
214	0xbd90a83f	-0.070633404
215	0xbdf89fb5	-0.12139837
216	0xbd8cfc72	-0.068840876
217	0xbd6d94df	-0.058003303
218	0x3d07c7f3	0.03314967
219	0x3d6b5917	0.05745801
220	0xbdbf61d1	-0.09344829
221	0x3cd22e01	0.025656702
222	0x3d132581	0.03592444
223	0x3d39bc1e	0.04534542
224	0x3d9246c5	0.071424045
225	0x3ca31ac6	0.019910228
226	0x3d826659	0.063671775
227	0xbdc9e606	-0.098583266
228	0x3e5e908c	0.21734828
229	0x3e2ed16e	0.17072079
230	0x3d12476f	0.035712656
231	0x3e14d154	0.14532977
232	0xbd989fd8	-0.07452363
233	0xbe2c5a33	-0.16831283
234	0xbc44b2f6	-0.012005558
235	0x3bb093a2	0.005388693
236	0xbd8b33c1	-0.06796981
237	0x3e1b7713	0.15182142
238	0x3e0b76ac	0.13619488
239	0xbda0fa6f	-0.078602664
240	0x3d901d83	0.07036879
241	0x3d536f5f	0.051619884
242	0xbe01f1b8	-0.12689865
243	0x3d777c12	0.060421057
244	0xbd8d8e31	-0.069118865
245	0x3deeda74	0.116627604
246	0xbd822963	-0.0635555
247	0x3d984826	0.07435636
248	0xbdd3a9f8	-0.10335153
249	0xbc0823e9	-0.008309343
250	0x3d191e37	0.03738233
251	0x3b81f0d6	0.0039654775
252	0x3d89a3a8	0.06720668
253	0x3e00f254	0.12592441
254	0x3dbd5221	0.092441805
255	0xbb1d608c	-0.0024013845

fc2.bias f4 [50]
0	0xb98b81e2	-0.00026608916
1	0xb93bc916	-0.0001790862
2	0xbb0a0513	-0.0021060153
3	0x3a14125b	0.0005648487
4	0x3b0a684f	0.0021119302
5	0x3a22f118	0.00062157353
6	0xbb1cbee0	-0.0023917481
7	0xb8c00cae	-9.157635e-05
8	0xb9f04490	-0.0004582745
9	0xbbc2f02e	-0.005949042
10	0x3a2b3126	0.0006530456
11	0x3a6d44f0	0.0009051105
12	0xba6ba71d	-0.00089894404
13	0x3b7c994b	0.0038543518
14	0x3abad91d	0.0014255379
15	0x3a581748	0.0008243215
16	0x3b48e7af	0.0030655672
17	0xbaa38e33	-0.0012478292
18	0x3b288299	0.0025712608
19	0x3a50209f	0.0007939431
20	0xbad95d02	-0.0016583505
21	0x39b07562	0.00033656793
22	0x3ae44306	0.0017414994
23	0xb994c675	-0.00028376622
24	0x398829db	0.00025971126
25	0xbb1f63f0	-0.0024321042
26	0xbaaf2bd2	-0.00133645
27	0xba821c72	-0.000992669
28	0x381e8eec	3.7803242e-05
29	0x3acd762e	0.0015675479
30	0x3afe2656	0.0019390087
31	0xb9f586ec	-0.00046830566
32	0xb8c772c2	-9.510435e-05
33	0xb9cac9cc	-0.00038678793
34	0xba38a62a	-0.00070438033
35	0x3afa993d	0.0019119155
36	0x3a349397	0.00068884477
37	0x3a9739e6	0.0011537641
38	0xbad2a3b7	-0.0016070519
39	0xb8529495	-5.020628e-05
40	0x3b4e7a2f	0.0031505933
41	0xba54e88d	-0.0008121811
42	0x3931a517	0.00016941536
43	0x39d19311	0.0003997316
44	0x3a79605b	0.0009512954
45	0x3a428f43	0.00074218604
46	0xbb252e3b	-0.0025204557
47	0xbb0ddd14	-0.0021646665
48	0xbaec2f90	-0.0018019546
49	0xbac9a14d	-0.0015383154

ln2.weight f4 [50]
0	0x3f7e9b21	0.9945546
1	0x3f7e3c3f	0.9931068
2	0x3f7ebbdc	0.995054
3	0x3f7e1d8d	0.9926384
4	0x3f7f834a	0.99809706
5	0x3f7e1fa6	0.9926704
6	0x3f7dc726	0.99132
7	0x3f7e156d	0.99251443
8	0x3f7e1399	0.99248654
9	0x3f7e2724	0.99278474
10	0x3f7e1d1d	0.99263173
11	0x3f7e296c	0.99281955
12	0x3f7e1a0e	0.99258506
13	0x3f7f5a07	0.99746746
14	0x3f7e700b	0.99389714
15	0x3f7e373c	0.9930303
16	0x3f7e2a52	0.99283326
17	0x3f7d5ffe	0.989746
18	0x3f7e7ef1	0.9941245
19	0x3f7f061d	0.99618703
20	0x3f7df218	0.9919753
21	0x3f7e06c0	0.9922905
22	0x3f7e1f50	0.9926653
23	0x3f7e217e	0.99269855
24	0x3f7e1a79	0.99259144
25	0x3f7e2b68	0.9928498
26	0x3f7e3e0f	0.99313444
27	0x3f7df1ed	0.99197274
28	0x3f7e3801	0.99304205
29	0x3f7e3f59	0.9931541
30	0x3f7f1c21	0.99652296
31	0x3f7e1ea0	0.9926548
32	0x3f7e00ef	0.99220175
33	0x3f7e05b4	0.9922745
34	0x3f7e1299	0.9924713
35	0x3f7e80bf	0.994152
36	0x3f7e1720	0.99254036
37	0x3f7e12fe	0.9924773
38	0x3f7e6faa	0.99389136
39	0x3f7e3a1e	0.9930743
40	0x3f80322e	1.0015314
41	0x3f7e1395	0.9924863
42	0x3f7e1836	0.9925569
43	0x3f7e3a0c	0.9930732
44	0x3f7e119c	0.9924562
45	0x3f7e2b14	0.9928448
46	0x3f7de0ab	0.9917094
47	0x3f7e740e	0.99395835
48	0x3f7e06bd	0.9922903
49	0x3f7daaeb	0.99088925

ln2.bias f4 [50]
0	0x3a17c4d7	0.00057895243
1	0xb93e5cb5	-0.00018154348
2	0xbaf4e1ac	-0.0018682978
3	0xb8729f9a	-5.7845937e-05
4	0x3aa823a6	0.0012828007
5	0xb8862ce7	-6.3979816e-05
6	0xba835971	-0.0010021162
7	0xb9c418f7	-0.00037402633
8	0xb99ec729	-0.00030284494
9	0xbb57ac92	-0.0032909256
10	0xb988deac	-0.00026105845
11	0x3907b2b4	0.00012941175
12	0xb9b6ae05	-0.000348434
13	0x3b3c603d	0.0028743886
14	0x3a85369a	0.0010163367
15	0x39ffa08f	0.00048757016
16	0x3a942e10	0.0011305232
17	0xba84e43d	-0.0010138821
18	0x3a9e201e	0.0012064015
19	0x3a1dd602	0.00060209644
20	0xbabae67c	-0.0014259364
21	0x39cd1b68	0.00039121066
22	0xb80d0a83	-3.362681e-05
23	0xb8355bcf	-4.3239266e-05
24	0xb981e9f4	-0.00024779106
25	0xbaab6397	-0.0013075945
26	0xbaaf350a	-0.0013367247
27	0xba35acaf	-0.0006930334
28	0xba038a37	-0.0005017849
29	0x3a97dd1d	0.0011586283
30	0x3a20cf81	0.0006134436
31	0x391287d2	0.00013974242
32	0xba2154ce	-0.00061542995
33	0x394bff0c	0.00019454601
34	0xba38e91c	-0.0007053779
35	0x3af03995	0.0018327708
36	0xb9a734d8	-0.00031892094
37	0xb90a70c2	-0.00013202711
38	0xba7862dd	-0.0009475181
39	0xb81fb515	-3.80772e-05
40	0x3b4564ad	0.0030119822
41	0xb925166a	-0.00015743976
42	0x37ff2f08	3.042027e-05
43	0xb89469c3	-7.0768896e-05
44	0x3a469682	0.0007575528
45	0x3980be5f	0.000245559
46	0xba04a965	-0.0005060642
47	0xbb45f0a5	-0.003020325
48	0xbb020392	-0.0019838554
49	0xbab76607	-0.0013992199
