Source_combined/ckps/seizure/source/Except_S14_sort/source_C.pt (torch, 1763 bytes, 3 tensors)

fc.bias f4 [2]
000000 81 fb cf bd ff f6 cf 3d
       -0.101553924 0.10154533

fc.weight_g f4 [2, 1]
000000 a3 9f e0 3f c8 39 e2 3f
       1.7548717 1.7673883

fc.weight_v f4 [2, 50]
000000 47 56 aa 3d 4b 85 0a be 60 7c ea 3d 30 16 f1 3d
       0.08317237 -0.1352741 0.11449504 0.1177181
000010 79 ad 79 bd 93 19 2b 3e 31 a9 7d bd af e1 10 3e
       -0.060956452 0.16708975 -0.06192893 0.14148591
000020 c5 17 9b bd 69 67 ad 3d 20 30 b3 3d 0e fa c5 bd
       -0.07572893 0.084669895 0.087494135 -0.09666835
000030 23 d0 33 bd fa a8 9e 3d 00 c1 14 be 2c 02 a9 3d
       -0.043899667 0.077470735 -0.14526749 0.082523674
000040 39 92 12 be b6 f2 4e bd ec 23 b5 bd f2 0d 2b 3c
       -0.14313592 -0.050524436 -0.08844742 0.010440337
000050 a0 78 96 bd 47 26 ac bc fb 99 cc bd 05 cb e2 3d
       -0.07347226 -0.021014346 -0.09990307 0.11073879
000060 47 e2 43 be af 0a db 3c c7 ab 3f bd ac 97 ea 3d
       -0.19129287 0.026738493 -0.04679468 0.1145471
000070 3e 25 89 3c 43 42 88 bd ad 88 e5 bd 1d 92 2b be
       0.016741391 -0.066532634 -0.112077095 -0.16754957
000080 61 a4 99 bd 7d 3b 14 be 28 ba b0 3d 6c b2 d3 3d
       -0.07502056 -0.14475818 0.086292565 0.10336766
000090 e0 f8 f6 bd fc 5d 98 3d e0 18 2f bd d1 f8 e0 3d
       -0.12059188 0.07439801 -0.042748332 0.10984958
0000a0 d2 ff 32 3e f9 58 52 be a8 82 82 3d 04 ee 9c bd
       0.174804 -0.20541753 0.06372577 -0.076625854
0000b0 ac 23 5e bc 5b d9 12 3e 25 d8 e9 bd bf 7a b7 3d
       -0.0135583095 0.14340727 -0.114181794 0.08958959
0000c0 99 9b 11 be 27 e8 8c 3d a2 55 aa bd 63 20 0b 3e
       -0.14219512 0.06880217 -0.083171144 0.13586573
0000d0 2f f3 ea bd df 99 f2 bd a6 4d 78 3d 65 a7 2b be
       -0.11472165 -0.11845755 0.060620926 -0.16763075
0000e0 77 48 7d 3d d7 36 12 be 41 07 9a 3d 90 f8 ad bd
       0.061836686 -0.14278732 0.07520915 -0.08494675
0000f0 95 01 b2 bd 72 de ca 3d d7 a4 33 3d 3b fd 9e bd
       -0.08691708 0.09905709 0.043858375 -0.07763144
000100 43 16 16 3e 7b 16 a8 bd b4 db 13 3e 16 17 49 3d
       0.1465693 -0.08207413 0.14439279 0.049094282
000110 fc 96 b7 3d da 82 4c bc be 7e 95 3d be ed b1 3c
       0.08964345 -0.012482369 0.07299565 0.02171981
000120 4f 84 d1 3d a5 65 e5 bd 99 52 44 3e 10 23 d0 bc
       0.10230314 -0.11201028 0.19172134 -0.025407344
000130 dd ef 44 3d 18 b2 ea bd ae 8a 87 bc 9c 99 88 3d
       0.048080314 -0.1145975 -0.01654562 0.06669924
000140 56 17 e4 3d db bc 2d 3e e8 02 99 3d 7e be 16 3e
       0.111372635 0.16966574 0.074712574 0.14721105
000150 b0 b2 b3 bd 99 80 d2 bd cb 73 f8 3d e0 3a 97 bd
       -0.08774316 -0.10278434 0.12131461 -0.073842764
000160 81 ed 36 3d fa f6 de bd fd 0a 35 be 95 31 54 3e
       0.044660095 -0.10886951 -0.17679973 0.20722039
000170 94 4d 83 bd b3 01 9a 3d 45 86 6f 3c 3d 40 13 be
       -0.06411281 0.07519855 0.014619415 -0.14379974
000180 55 c0 eb 3d 54 fd b9 bd 35 d8 11 3e 77 a5 8d bd
       0.11511294 -0.09081522 0.14242633 -0.069163255
