Source_combined/ckps/seizure/source/Except_S4/source_C.pt (torch, 1763 bytes, 3 tensors)

fc.bias f4 [2]
000000 55 14 b4 3c e9 16 b4 bc
       0.021982351 -0.02198358

fc.weight_g f4 [2, 1]
000000 e8 7d 34 3f e3 57 3e 3f
       0.7050462 0.74352854

fc.weight_v f4 [2, 50]
000000 e4 4a 39 bd 01 3e b8 3c 3d 00 b9 3d 47 c7 d3 bc
       -0.045237437 0.022490503 0.090332486 -0.025851859
000010 e6 aa d3 bb a2 61 a6 3d 9e 1e 35 bd 11 33 f3 bc
       -0.0064595817 0.08124091 -0.044218652 -0.029687436
000020 32 c8 a0 3d 22 b4 31 3c b8 a1 1d be 82 67 4a bd
       0.07850684 0.01084617 -0.15393722 -0.04941512
000030 30 eb 6d be 68 18 5d bd 59 3c 80 bc f0 80 a7 3c
       -0.23234248 -0.053978354 -0.015653776 0.020447224
000040 a1 d5 0e 3e 9b b1 9f bb a7 40 c2 3d 1c cf 52 bd
       0.1394868 -0.004873467 0.09484988 -0.051467046
000050 c4 a3 6d 3e 85 98 06 3e 7a f8 86 3d 46 47 0e be
       0.23207003 0.13144119 0.06590362 -0.13894376
000060 67 54 e5 3d 92 b7 03 be cb 4a fa 3d fe ed 4e 3d
       0.11197739 -0.12862995 0.12221297 0.050519936
000070 68 be c4 bd 5d 2d 23 bd cd 4a 91 3d 51 fb c2 bd
       -0.096066296 -0.039838184 0.07094345 -0.09520591
000080 86 b0 35 bc 8d db 01 bd 13 6b ef bd d7 ea b0 bd
       -0.01108945 -0.03170352 -0.11690345 -0.08638542
000090 84 a0 76 bd 0d 1a 11 3e 7f fb 70 3c 8e 50 07 bd
       -0.060211673 0.14170094 0.014708399 -0.033035807
0000a0 19 aa b5 bd 1e 6d 16 be 20 60 b9 bc 4a e1 c8 bc
       -0.08870334 -0.14690062 -0.022628844 -0.024521489
0000b0 03 cf 63 3d 54 56 d0 3d 85 61 d3 3d 73 48 57 be
       0.055617344 0.10172716 0.10321335 -0.21023731
0000c0 c6 5b 32 3e 4d 92 49 3d 55 fb 67 bd 3f e1 d5 bd
       0.17417821 0.04921179 -0.056636173 -0.10443353
0000d0 1f f2 64 bd 83 9b 0a bd 82 c2 78 bd 87 c6 b2 3d
       -0.055894967 -0.033839714 -0.060732372 0.08729272
0000e0 80 1d e5 bd 39 44 2f 3d fd e5 79 3d 0a 7e 27 be
       -0.11187267 0.04278967 0.06101035 -0.16356674
0000f0 39 40 82 3c 48 ed d0 bd 26 f2 9e 3e 03 3b 05 bd
       0.015899764 -0.10201508 0.3104412 -0.03252698
000100 19 dc d3 ba 33 95 07 be a2 87 4c b9 89 50 ae 3d
       -0.0016163617 -0.13240509 -0.00019505483 0.085114546
000110 7d ab 1a 3c ea e1 dd 3d 71 1c 5c bd 9b 83 1b be
       0.0094403 0.10834105 -0.05373806 -0.15186922
000120 d7 22 ef bd 26 37 01 3e da 31 15 3d c3 53 43 3d
       -0.11676567 0.12618694 0.036424495 0.047687303
000130 af a6 ed bd 48 22 33 3d 96 fa 03 3d 46 37 0d 3e
       -0.11604058 0.043733865 0.0322214 0.13790616
000140 09 68 0c be 88 f5 89 3d be 3e 8d 3d 8e 5a 68 3d
       -0.13711561 0.067362845 0.06896733 0.056726985
000150 58 ba 52 3d a1 02 37 bd ea 4a 8b 3d 06 d2 0c be
       0.051447242 -0.04468024 0.06801398 -0.13751993
000160 ef fb e5 bd 4c bc 02 3d a8 22 96 bd 7c cb 41 3e
       -0.11229693 0.031917855 -0.07330829 0.1892528
000170 a9 4b b7 3d 82 f4 b6 3d 6d e1 1e be 53 82 4d bd
       0.08949978 0.08933355 -0.1551568 -0.050173115
000180 56 ef d2 bd 0e 63 63 3e c9 0e 02 be 39 e7 6f 3d
       -0.10299556 0.22205755 -0.12700953 0.05857012
