Source_combined/ckps/seizure/source/Except_S73_sort/source_C.pt (torch, 1763 bytes, 3 tensors)

fc.bias f4 [2]
00000000: 0bfa 23bd 0af1 233d
-0.04003338 0.040024795

fc.weight_g f4 [2, 1]
00000000: bff1 df3f f279 db3f
1.749565 1.714659

fc.weight_v f4 [2, 50]
00000000: e07b 6abe 6b8c 023e 895b ebbd 0689 e03d
00000010: fe18 99bd 9aa8 49be 298d c43d c759 acbd
00000020: 4329 d53d c79e d13a 1743 6dbe 5c9f cf3d
00000030: 3ca3 c43d 4646 933d 9b7e 9d3d 1f5e 57be
00000040: 07b9 5e3d f1ca 30bd 9dff f53d 5933 e63d
00000050: 33ec 183d 1244 e73d 2251 08be fd24 013e
00000060: 7e62 6bbc 3ab5 d63b c150 02bd 7195 3e3d
00000070: 751f e43d 266e 9c3d 5dcc 043a ddda 163d
00000080: c53a b8bc cd9a 35bc a662 113e 0940 e13d
00000090: 1a6a b7bd 6c3a ac3d aa95 89bd ba7b debd
000000a0: e8e9 a3bd f461 503d 1c4f 503d 0592 a03d
000000b0: 27c4 7ebd c1e3 f73c b8f8 88be 607c f63c
000000c0: c2a5 aa3d f665 683d f69d 663e ac04 00be
000000d0: 1d7e e93d 27a8 d9bd 4bd9 993d c1d8 443e
000000e0: 6af6 c1bd b74c a83d 0e4a cfbd da66 b0ba
000000f0: 9b51 673e 85f4 c9bd c06b bcbd a8fe 93bd
00000100: 3de5 97bd 6d04 533e a507 5dbd 8faf 313d
00000110: 7194 efbd 9035 e2bd 6499 0fbd 3e3e dfbd
00000120: 18b6 043e c9ef fdbd 11a6 833c 06e1 dabb
00000130: 0901 f33c 7ff2 35bd 00f4 dfbd 2202 9cbd
00000140: f65b f2ba f62c 13bd af29 b23c fb9d 593c
00000150: 90bd 0dbe bbbb dfbd fadd ae3d dc9a abbd
00000160: a203 843d eeb8 d73d b87f a03d fa2c 4cbd
00000170: 5188 4abd 1fff 9ebd 0148 763d 355a e6bc
00000180: 1353 863e 6729 f5bc 6aa5 a5bd e686 69bd
-0.22898817 0.12748878 -0.11492068 0.10963635 -0.0747547 -0.19693223 0.09597237 -0.08415561
0.10408261 0.0015992754 -0.23170124 0.10137817 0.09601447 0.07191138 0.07690164 -0.21031998
0.054375675 -0.04316229 0.12011645 0.112402625 0.037334632 0.1129228 -0.133122 0.12611766
-0.014366744 0.0065523656 -0.031815294 0.046529237 0.111388125 0.07638197 0.0005065853 0.036829818
-0.022488961 -0.011084271 0.14197788 0.10998542 -0.08955784 0.084095806 -0.06717999 -0.10863443
-0.080035985 0.050874665 0.050856695 0.07840351 -0.062198784 0.030259969 -0.26752257 0.030088603
0.08332397 0.056737863 0.22521195 -0.12501782 0.11401007 -0.10627776 0.075121485 0.1922331
-0.09470828 0.08217757 -0.10121547 -0.0013458387 0.22589724 -0.098610915 -0.09200239 -0.07226306
-0.074167706 0.20607157 -0.05396237 0.043380316 -0.11698235 -0.110453725 -0.035058394 -0.10900544
0.12960088 -0.12399251 0.016070398 -0.006679657 0.02966358 -0.044420715 -0.10935211 -0.07617594
-0.0018490541 -0.03593155 0.021748392 0.013282294 -0.13841844 -0.109244786 0.085384324 -0.083791465
0.064460054 0.105333194 0.078368604 -0.04984758 -0.049446408 -0.07763504 0.060127262 -0.028119186
0.26235256 -0.029926969 -0.08088191 -0.057013415
