Source_combined/ckps/seizure/source/Except_S36/source_F.pt (torch, 557199 bytes, 8 tensors)

fc1.weight f4 [100, 1332]
00000000: 82a7 70bb 3fa1 ef3a 051f 8fbc 7328 403c
00000010: dd23 813c 6e3c a8bc 623c 91bc 6979 413c
00000020: 45f0 dd3c 8dc4 93bb 24ee 573c 89d9 b1bc
00000030: b17e b63c ada9 bb3c 3c52 773c 7066 4cbc
00000040: cc59 1abc 0bef bebc ed65 46bc bb8b 8d3c
00000050: cc16 fb3b b4ac c53c 0674 0e3c 029f 83bc
00000060: e555 adbb a9cf c93c a46f 833c c371 c83c
00000070: c8cb a7bb 8f84 043d 7e21 b23c ed94 523b
00000080: 29c1 1fbc b37d 10bc ba54 133c 9099 3a3c
00000090: 2e64 9ebc ced8 db3b 7b0c d3bc 8734 5bbc
000000a0: b9a5 d53b 9dc9 a1bc fc60 2fbc e3e3 c23c
000000b0: 62d3 d0bb ccaa 853c dcf3 583b 003a 4b3c
000000c0: 905d 1cbc 18c9 88bc ba92 9f3c 6769 b23c
000000d0: 3d30 05bd 23b5 033b 9b7b 3e3b a549 91bc
000000e0: d44f 66bc a957 323c 7e2a bd3c f751 663c
000000f0: 617f 48bc e77f 9ebb f876 c03c 798a 443a
00000100: 8701 163c e2b8 f0ba 831b 55bc c4ee 4c3a
00000110: 7dba dcbb fb39 1c3c c480 adbc e53b b3ba
00000120: b8ea 89bc 3e7f 6ebc 1ba9 b23b b77e 9ebc
00000130: 3625 253c 8494 2f3c 6dea 2bbc 9246 983b
00000140: 1bce a7bc 6e7b 90bc 7fbd a73c 8d38 a33c
00000150: b746 74bc 2453 043c a34a 95ba 885b 6d3c
00000160: a454 04bd 9ded cdba 2d12 95bc 9758 9ebc
00000170: afc6 e5bb 0296 bf3b bdef 1f3c c677 9a3c
00000180: 6643 c6ba b88e 9bbc 7acc 433c 89cb 853c
00000190: a55e d3bc 9343 ed3c 343e 23bc 99eb b7bc
000001a0: facb 9abc 16fd 04bb da96 94bc cf62 193c
000001b0: 4ace 133a 7d90 3a3c b3c5 a5bc 57f8 683c
000001c0: 7924 d1bc 1c40 bdbc 1480 e43b 8132 2c3c
000001d0: 2c38 86bc d590 44bc 3969 7fbc 8aa0 ce3b
000001e0: 39e5 ed3b 2453 a83c f898 bdbc 48c8 30bb
000001f0: 5656 a13c 44d5 8b3c 31fa 3fbc d63f 8d3c
00000200: 6986 49bc b175 81bc bc1d eebb 9325 0f3c
00000210: 028c 2abb 1a23 cb39 d0bd 6fbc 8245 2c3b
00000220: 2043 393c 9896 b5bc 1871 643c 0f95 803c
00000230: 8e01 9a3b e962 81bc 3eee f33b 24e3 20bc
00000240: ed3a 023c 1445 1bbc 00df d1bc 7e4d 403c
00000250: c068 8ebc 7a77 9cbc cebb b3bc 76db 153c
00000260: f705 b53b ff3f 4a3c b372 41bc 5e24 cd3c
00000270: 56b9 58bc 178f 27bc d23f 09bc 3345 cd3b
00000280: f0b3 903c 4025 8d3c 45f1 293b ba99 883c
00000290: 68ad 4b3c 9178 0abc 6ff4 eebb e314 813c
000002a0: c40e b83b 9079 93bc 0761 093c 48c3 26bc
000002b0: 3507 92bc 0944 42bc 4f92 94bc e108 9d3b
000002c0: 4a11 1a3c d39d 52bc 79ae 2d3c 8385 103c
000002d0: 031b b6bc 4f26 8bbc d65d e8bb d316 8bbc
000002e0: dd4c d2bb e268 e93a 661d 033c 1347 923c
000002f0: 4fbe 243b 2b53 12bb 295a 2f3b 47b2 b9bb
00000300: 9e2f 70bc b629 3cbc ba37 e23c e09f 51bc
00000310: 5083 a0bc bdae 07bc 9550 343c bb64 a33c
00000320: 7b21 bebc 0bc5 e13c 0045 9f3c 128e e4bb
00000330: 6a77 93bc 4800 fabb 5cd8 78bc a5a2 b63c
00000340: 0a5c 0abc 81a5 8abb 11e8 24bc e37f e63a
00000350: 31e0 8a3b 8eb7 19bb 7014 173c 446c 9abc
00000360: e697 9cb9 d44d 623b ee4e c7bc de72 0e3c
00000370: a9d7 d7bb c00c 97ba 68bb 933c 5a9d 04bd
00000380: 6247 c1bb acb4 073c 14b4 cf3c a85b 9a3c
00000390: bc8d 38bc 3925 8d38 91e4 0ebc fc26 de3b
000003a0: 6f21 a63b 7a67 2b3c b2f4 d93c 77d9 a93c
000003b0: 0664 a1bc e918 a7bc 4e5d fabb 81c8 75bc
000003c0: 72b8 e5bb 3382 ae3b db89 ad3c cda6 96bc
000003d0: 42ca adba 054a 103b 4b74 003c 0f77 1bbc
000003e0: 7ba7 393c 4e17 083c 1cdd 9e3c 8fcb 36bb
000003f0: b275 c23c 6504 a8bb 4eb4 99bc 025e 053c
-0.0036720936 0.0018282308 -0.017470846 0.011728394 0.015764171 -0.020536628 -0.017728988 0.011808732
0.027092109 -0.0045095147 0.013179336 -0.021710174 0.022277208 0.022908056 0.01509529 -0.012475595
-0.009420823 -0.023307344 -0.012109262 0.017278543 0.0076626297 0.024130203 0.008694654 -0.016067032
-0.0052897804 0.024635153 0.016044445 0.024468308 -0.005120728 0.03235298 0.021744486 0.0032132224
-0.009750643 -0.0088190315 0.008992368 0.011389151 -0.019334879 0.0067091947 -0.025762787 -0.013379223
0.00652 -0.019749457 -0.010704275 0.023790305 -0.006372855 0.016316794 0.0033104336 0.012403965
-0.009543791 -0.016697451 0.019479144 0.021778775 -0.032516707 0.002009698 0.0029065374 -0.017735312
-0.014057118 0.010885158 0.02309155 0.014057628 -0.012237401 -0.0048370245 0.023494229 0.00074974407
0.009155638 -0.0018365646 -0.013007048 0.0007817561 -0.0067360983 0.009535308 -0.021179564 -0.0013674466
-0.016835555 -0.014556704 0.005452288 -0.019347532 0.010079673 0.010716561 -0.010492903 0.0046470845
-0.020484021 -0.01763698 0.020476101 0.019924426 -0.014909438 0.008076463 -0.0011390041 0.014487155
-0.032307282 -0.0015711073 -0.018197143 -0.019329352 -0.0070122103 0.0058467397 0.009761748 0.01885594
-0.0015126287 -0.018988952 0.0119506065 0.016332405 -0.025801966 0.028962886 -0.009963561 -0.022451209
-0.018896092 -0.0020292453 -0.018138338 0.009361937 0.00056383444 0.011386988 -0.020235872 0.014219365
-0.025530087 -0.023101859 0.006973276 0.010510088 -0.016384207 -0.011997421 -0.015589052 0.006305759
0.0072599915 0.020547457 -0.02314423 -0.0026974846 0.019694488 0.017069466 -0.011717365 0.017242353
-0.012300112 -0.01580319 -0.007266728 0.008736986 -0.0026023393 0.0003874533 -0.014632657 0.0026286547
0.011307508 -0.022166535 0.013942979 0.015696077 0.0046998924 -0.015794234 0.007444172 -0.00981978
0.007948619 -0.009476919 -0.02561903 0.011737226 -0.017383933 -0.01909994 -0.021940138 0.009146562
0.0055243927 0.012344359 -0.011807132 0.025041755 -0.013227781 -0.010226986 -0.008377032 0.0062643527
0.017663926 0.017229676 0.0025931161 0.016674865 0.01243148 -0.008451597 -0.0072923223 0.01575703
0.0056169946 -0.018002301 0.0083849495 -0.010178395 -0.017825702 -0.011857041 -0.018136172 0.004792318
0.009403536 -0.012855011 0.01060068 0.008820894 -0.022229677 -0.01698604 -0.0070912642 -0.016978657
-0.006417854 0.0017807747 0.008002615 0.017856156 0.0025137847 -0.0022327404 0.002675662 -0.0056670043
-0.01465979 -0.011484554 0.027614463 -0.012794465 -0.019593865 -0.008281407 0.01100554 0.019945493
-0.023209324 0.027559778 0.019442081 -0.006974944 -0.018001277 -0.007629428 -0.015188303 0.022294352
-0.008444795 -0.0042311554 -0.010065095 0.0017585721 0.0042381515 -0.0023455354 0.009221181 -0.018850453
-0.00029867812 0.0034531252 -0.024329629 0.008694379 -0.006586988 -0.0011524186 0.018033698 -0.032376625
-0.005898402 0.008282822 0.025354423 0.018842533 -0.011264261 6.730337e-05 -0.008721487 0.0067795496
0.0050699036 0.010461682 0.026605938 0.020733578 -0.019701015 -0.02039762 -0.0076405173 -0.015001417
-0.007010513 0.0053255796 0.021183899 -0.018390084 -0.001325913 0.0022016775 0.007840226 -0.009488835
0.011331434 0.0083063375 0.019392543 -0.0027892326 0.023737762 -0.005127477 -0.018762734 0.008140089

fc1.bias f4 [100]
00000000: f99e edbc 214f 673c ff46 6a3c e545 733c
00000010: 2091 04bc b44c 253c 0635 2bbc 2f41 87bc
00000020: 0dfe ca3c 64cf 503b cbe9 9fbc 8aaf cb3c
00000030: d655 23bc a6be 963c a3d0 f9bb bbfa 033d
00000040: cabb dfba a34d ef3b ec0f ffbb 622f b33c
00000050: 4736 9abc a98d 9a3c bfb7 bc3c 0c9c f7bc
00000060: 8e89 543c b383 b03c 11a6 953b d2ce 8a3c
00000070: d6b6 c7bb 9fef 34bb 5837 dfbb 208d 2d3c
00000080: 0993 263d ed0f f93c 2a97 7c3b 1cd2 9a3b
00000090: 2328 d93c 4e92 28bd 4573 1c3d 4a7e 8fbc
000000a0: 66b1 05ba 7eb0 683c 3301 0039 ee81 163c
000000b0: 72c6 8ebb 74ef e63c 9dcd c7bb b1b8 feb9
000000c0: fabe 76bc f255 06bc e8f2 ac3c 5c79 823c
000000d0: 1937 71bc 0c5f 4b3c 2ec7 10bc a5f1 8dbc
000000e0: 789b 823c de8a 2139 d2c4 a3bb c138 bd3b
000000f0: 514e ebba 081c c93b 8708 253d 0f40 10bc
00000100: 7e92 c33a a85f 6dbc 2847 9e3b 77b4 3d3c
00000110: 99a4 9dbc 3678 553c 46ab debc 7b82 b0bc
00000120: 0d55 92bc c482 46bc 06e6 1e3c da7e a13c
00000130: deb9 49bc dd44 693b ccfd 85bb bcc0 a93c
00000140: 436f b83c 07ec aa3b dbf7 36bc 24f0 16bd
00000150: 62aa 20bc 9ded 893c 9575 bf3c 301f 7dbc
00000160: 5e89 a4bb 1fe3 d8bb f9d3 153b 1b55 953c
00000170: 1e8d 92bc 3035 b93b be6d a7bc b6b5 4dbc
00000180: d536 c7bb 2425 47bb a906 7cbc 5048 7cbc
-0.029006468 0.014117987 0.014299153 0.014848207 -0.008091241 0.010089088 -0.0104496535 -0.016510574
0.024779344 0.0031861896 -0.01952066 0.024863977 -0.009969195 0.018401455 -0.0076237484 0.032221537
-0.0017069515 0.007302956 -0.0077838805 0.02187318 -0.01882471 0.018866377 0.023036836 -0.030225776
0.012972249 0.021547174 0.004566916 0.016944323 -0.006094794 -0.0027608646 -0.0068120174 0.010592729
0.040667567 0.030403102 0.003854225 0.004724754 0.026508396 -0.041155152 0.038195867 -0.017516274
-0.0005099982 0.014202235 0.00012207478 0.009186251 -0.0043571526 0.028190352 -0.006097509 -0.0004858426
-0.015060181 -0.008199202 0.02111192 0.01592701 -0.014722609 0.012412798 -0.008836551 -0.01732714
0.015943274 0.00015405889 -0.004997828 0.005774588 -0.0017952417 0.006137375 0.040291335 -0.008804335
0.0014920977 -0.014488138 0.00483026 0.011578671 -0.019243525 0.013029149 -0.027181279 -0.021546593
-0.017862821 -0.012116138 0.009698397 0.019713808 -0.012312381 0.0035594024 -0.004089093 0.020721786
0.022513991 0.005216125 -0.011167492 -0.03685011 -0.009806247 0.016836936 0.023371497 -0.01544933
-0.0050212583 -0.006618872 0.0022861941 0.018229058 -0.017889556 0.0056520924 -0.020438071 -0.01255553
-0.0060795345 -0.0030387128 -0.015382447 -0.0153981

ln1.weight f4 [100]
00000000: ebd3 763f d494 743f 9644 763f 7d14 763f
00000010: 35f7 753f 9023 753f 95ec 743f 8fee 743f
00000020: 7e1f 773f 7331 763f 58b3 753f b602 763f
00000030: db65 763f 6aa6 753f 2ae3 753f 1766 733f
00000040: 985d 763f d5ff 753f ffaf 763f a76c 763f
00000050: 243e 753f 248f 753f d597 763f a9ae 763f
00000060: a01c 753f e232 763f cf2f 783f 38f5 753f
00000070: ee7a 753f f086 733f 62d4 763f 4bde 753f
00000080: 5133 763f a8fe 753f 3ade 763f 59b1 763f
00000090: e9dd 753f 9821 763f 51e4 743f 4cad 753f
000000a0: 0dc8 743f 9da7 743f 2ef3 763f 34de 753f
000000b0: c81d 763f 2850 753f a02f 773f 4fab 763f
000000c0: 536a 753f 6853 763f 4243 753f 6fbe 763f
000000d0: 183e 773f 1ae5 763f 3445 753f a0ff 773f
000000e0: 62f9 753f a604 763f 1253 753f 83e2 763f
000000f0: c0ff 713f 8fad 763f a152 753f b4f7 753f
00000100: 46e2 763f 43ea 763f 2457 773f 1a27 793f
00000110: c975 753f 8fee 743f ec5e 743f efed 783f
00000120: dca6 753f 5951 763f 5273 763f 5541 773f
00000130: 2d43 753f 976a 753f 2d3b 763f 14f0 753f
00000140: 7018 753f 52ea 753f bbe8 753f 0927 773f
00000150: cd98 763f 7cd3 753f 49c7 753f 9fc3 753f
00000160: ae10 763f 475d 763f 5446 763f 7b26 783f
00000170: 9a75 773f e414 763f e775 783f dc28 753f
00000180: 9fa5 753f a0d0 783f 5f37 763f 1dea 763f
0.9641711 0.95539594 0.96198404 0.9612501 0.96080333 0.9575739 0.95673496 0.9567651
0.9653243 0.96169204 0.9597678 0.96097887 0.9624917 0.9595705 0.9604975 0.9507765
0.9623656 0.96093494 0.963623 0.9625954 0.95797944 0.9592154 0.9632543 0.9636026
0.95746803 0.9617139 0.9694795 0.960773 0.958907 0.95127773 0.9641782 0.9604232
0.9617205 0.960917 0.9643284 0.9636436 0.96041733 0.9614501 0.95660883 0.95967555
0.95617753 0.9556826 0.9646481 0.9604218 0.9613919 0.95825434 0.96557045 0.96355146
0.9586536 0.9622102 0.9580575 0.9638433 0.9657912 0.9644333 0.9580872 0.9687443
0.9608365 0.9610084 0.9582988 0.9643938 0.9453087 0.9635858 0.95829207 0.9608109
0.96439016 0.96451205 0.9661734 0.9732529 0.9588285 0.9567651 0.9545734 0.9723806
0.9595773 0.96217877 0.96269715 0.96584064 0.9580563 0.9586577 0.96184045 0.96069455
0.95740414 0.9606067 0.96058244 0.9654394 0.96326905 0.96025825 0.9600721 0.9600162
0.961192 0.9623608 0.9620106 0.96933717 0.9666382 0.96125627 0.97054905 0.9576547
0.9595584 0.97193336 0.9617824 0.9645098

ln1.bias f4 [100]
00000000: 1ccc 95bb fad4 7cbc dd95 0aba 3935 cabb
00000010: d2cf 5cbb dbbc 05bc 305e 31bc f3a8 0cbc
00000020: 92eb 34bb 2810 18bb 4620 ddbb 84f7 c4bb
00000030: c813 dabb 299f 84bb cd72 8cbb bcd3 9ebb
00000040: d950 d7bb 948d 05bb b6ac a2bb 4af3 a4bc
00000050: 3253 cdbb ad97 acbb 8821 213b b88e bfba
00000060: 6fa0 0bbc 1ea3 69bb 47bf 5f3b f558 83bb
00000070: 4dcd c1ba a018 d6bc cd54 bcbb a08b d3bb
00000080: 9064 08bc 77e7 77bc 013b 12bb d821 a3ba
00000090: 9358 88bb 15e3 a2bb 8891 45bb 3aaf 27bb
000000a0: 6e16 50bc 5ecd eabb f227 d33a 360a 8dbb
000000b0: 8209 aabb ee76 22bc fd34 b5bb fe7e 40bb
000000c0: 8200 6bbb 5093 aabc 43db 07bc 252a 9e38
000000d0: 4e58 3abc 6f56 0dbb a3b9 d3bb 6a36 5b3a
000000e0: 001d 3bbb 736e 00bb a12c 63bb a0c3 3bba
000000f0: 5e64 91bc 2547 4abb c49b 19bb c712 bdbb
00000100: 838f 80bb 4706 6838 3f0c e13a 0df0 9c39
00000110: 3df7 a9bb ce04 01bc c2b8 d3bc 00a3 88bb
00000120: 166e bdbb 09f6 e8bb ebb2 443b b6c7 44bb
00000130: b74c 91bc 8896 babb 03a2 0abc a5cf 99bb
00000140: 647f dabb d4b4 03bc c0ac 31bb 54f1 29bb
00000150: 1d15 77bb 4a7c dabb 4754 fcbb 84db 77ba
00000160: 6791 f1bb 5634 80bb 1134 19bc a654 53ba
00000170: af72 cbbb f73f c6bc 3190 073b 85ba cebb
00000180: 193b e6ba f459 53bb ffbf 8dbb b42f ecbb
-0.004571451 -0.015431637 -0.00052866136 -0.0061708954 -0.0033693206 -0.008162702 -0.010825679 -0.0085852025
-0.002760623 -0.002320299 -0.006748232 -0.0060109515 -0.00665519 -0.0040472937 -0.0042861463 -0.004847018
-0.006570917 -0.0020378577 -0.0049644364 -0.02013554 -0.006266021 -0.0052671046 0.0024586637 -0.0014614677
-0.008522137 -0.0035650204 0.003414111 -0.0040084072 -0.0014785916 -0.026134789 -0.0057474137 -0.0064558536
-0.008324757 -0.015130869 -0.0022313 -0.0012445999 -0.0041609495 -0.004970918 -0.0030146558 -0.002558662
-0.01270066 -0.007165595 0.0016109927 -0.0043041958 -0.0051891217 -0.00991605 -0.0055299983 -0.0029372568
-0.0035858457 -0.020822197 -0.008292022 7.541877e-05 -0.011373593 -0.002156641 -0.0064613386 0.00083622953
-0.002855122 -0.0019597083 -0.0034664052 -0.0007162634 -0.017748054 -0.003086516 -0.002343879 -0.0057700607
-0.003923358 5.5318957e-05 0.0017169787 0.0002993349 -0.005186944 -0.007874681 -0.025844935 -0.0041698217
-0.0057809455 -0.007109408 0.003001387 -0.0030026264 -0.017736776 -0.0056942143 -0.008461478 -0.0046939426
-0.006668018 -0.008038718 -0.0027111024 -0.0025931196 -0.0037701793 -0.0066676484 -0.0077004763 -0.00094550126
-0.0073720696 -0.003912489 -0.0093507925 -0.0008061625 -0.0062087397 -0.024200423 0.002068531 -0.006308856
-0.001756522 -0.003224966 -0.0043258662 -0.007207835

fc2.weight f4 [50, 100]
00000000: 96eb 83bc 9bdf 573d f50f 893c cd1d 3dbe
00000010: d63e b83c 3e1c 993d b391 303e ebf4 d63d
00000020: c763 cdbd 4e2e b7bd 638a bdbd f137 97bc
00000030: 9423 ac3d 2ffd 3b3d bf4c 2f3e cfb6 49bd
00000040: 027d 993d 09a4 c0bd 3b9c b13d c875 85bd
00000050: a0b7 d13c f90f 26bc 1f2e 41be 1be0 c1bd
00000060: 304f 88be c746 083d 8b09 d73d 89e3 dc3c
00000070: b0ce 64bd aba8 a53c 75bd 18be dc3f 283d
00000080: 4462 f53d db06 2abe 46d4 0b3e ad14 5cbc
00000090: 88d6 adbd 7535 053d c081 e3bd 49fe d8bd
000000a0: 3415 24be 18f7 7a3d 00fc 83bc df43 e1bd
000000b0: c2aa 893d bbee 64be 77e6 9cbd 08d9 9fbd
000000c0: 98a2 8bb9 1891 6d3e 0c33 713e f310 a63e
000000d0: 8d1c 2e3c c0b1 f23d 628c 3cbe c647 40be
000000e0: dd3a 4f3e a72c 56bd cc10 e13c 4afb c03d
000000f0: 47ff b9bd bf68 5abe 6952 f63b 68cf f03d
00000100: 46dd d03d 8cb8 e3bd 30aa 0ebe 01c9 863d
00000110: c640 d23d 5acb 8abd 4962 07be 98bf 6b3e
00000120: 591e 47bd fb6b 5cbc 8fc7 ffbd 72b5 983c
00000130: b68d 3cbe a688 4cbd 3158 083e 4c13 ccbd
00000140: 6ff8 d33c 28c0 13bc c36b 363d d81d 753d
00000150: 6736 1e3e 6f4b 29bc 10c4 7bbe a13f 613e
00000160: 82e2 13be 43b8 3e3d 8afa c8bc eb93 e4bd
00000170: 1f58 fd3d b0e7 98bd a918 e33d 4335 0cbe
00000180: d3bf a1bd aa9c 553e 4c0a 20bc 5bca f73d
00000190: c9fe 14be 87c2 c93d 8fa3 033e 065c 9bbc
000001a0: 2cd3 2f3e 4307 51bb cafd ec3d fec8 443e
000001b0: 4c28 19be 3c14 493c d86b c93d 573f b2bc
000001c0: 552a 003e f895 1e3e d61b aebd 1097 36be
000001d0: 7407 2d3e 36b6 c8bd 7bd3 18be 64c7 09be
000001e0: eca8 d13a 6549 1ebe 90d5 013e e58a cb3d
000001f0: fe14 fe3c c0d3 4abd 7b00 9fbd d8b0 b53d
00000200: 9af9 283d c21d 653d a635 f3ba 0b09 c63d
00000210: 99e5 0cbd 462d 273e 63d9 853e 2c33 063e
00000220: 0cc7 c73d 4e6f 39be 5ddf 66be 159f 19bd
00000230: 22a0 a2bd 6c37 8dbe dff4 d7bc 0ee3 f93d
00000240: 4f88 05bd 2755 e03d 0f8d 9ebd e8b7 b03d
00000250: 64ef febc b983 e23d 1e72 01be df45 263d
00000260: 4e10 08bd fc0e b0bd ea12 4f3e c894 283d
00000270: 8729 9d3d f2bc 293d 7a1d ac3c b308 6dbc
00000280: a58b 1d3c 1832 57bd 820c 963d e00e 8abd
00000290: 25ff 6bbd 1022 1ebe eabf cfbd a6b3 8bbd
000002a0: 3fae 5dbd 2ec6 8a3c 1306 2c3d 56c2 2fbd
000002b0: 037b 9b3d 26e4 bd3c 1520 2e3d 4fb9 19be
000002c0: 7e9a 273d 0d70 f9bc 05d4 e9bc 104d 7d3b
000002d0: 13b2 5a3e 784a 573d c8b5 65bd 088a ad3d
000002e0: ee61 593d f204 433d 38c3 213d 2d5e 793d
000002f0: 5d33 22bc caa3 3ebd 4cc5 863d a0b4 12be
00000300: 0d80 3d3d 3dfc 2a3c 1d53 a6bd 0208 64bc
00000310: 1c54 e3bc b9e4 483e 0b55 07bd 717d b23d
00000320: 94fb 4bbe 4154 653b 7fb0 803e b1e2 d33c
00000330: f86a 83bd fe46 49be 6d50 60bc 2100 523d
00000340: a193 a53d 0555 eebc 2a23 ab3d d827 20bc
00000350: 05a0 003e aabb b7bd 7d09 b13d 1c6d fb3c
00000360: 0dc0 603d 5f53 00bb 5def 463d 774b fe3d
00000370: 451c 593b 97fb e33d 081b 69bc 250d 3fbe
00000380: 6add bcbd 8066 ee3d a5bc ff3b 44f7 283d
00000390: dff6 d6bd a879 013c 9232 403e 42ab 4bbd
000003a0: 8ae0 5dbb c012 95bd 05ff 1fbd eb8b 33bd
000003b0: dd0a ad3d 7973 593d 5c55 573d 3f13 063b
000003c0: 2061 4b3d e36b f7bd f68b 65be 22b2 55be
000003d0: 78c8 99bb 6b5c 623d 229d d13d 2d28 44bc
000003e0: 2862 563e 34ab 08be 5f3c 33bd f505 f33d
000003f0: 8539 b23b 958d 023e fcd4 2cbe d5c5 c03d
-0.016103547 0.05270348 0.016731242 -0.184684 0.0224909 0.0747609 0.1724308 0.10495933
-0.10028797 -0.08944379 -0.09254911 -0.018459292 0.084052235 0.04589575 0.1711912 -0.049246605
0.074945465 -0.09406287 0.08672377 -0.065166056 0.025600255 -0.010135644 -0.1886525 -0.09466573
-0.26622915 0.033270624 0.10499867 0.026963966 -0.055861175 0.020222029 -0.14916022 0.041076526
0.11981633 -0.16604178 0.13655195 -0.013432664 -0.08488184 0.032521684 -0.11108732 -0.10595376
-0.16023713 0.061270803 -0.016111374 -0.109992735 0.067220226 -0.22356693 -0.07661145 -0.07805067
-0.00026633288 0.2319988 0.23554629 0.32434806 0.010626924 0.11850309 -0.18412927 -0.1877738
0.20237298 -0.052288678 0.02747383 0.094229296 -0.090818934 -0.2132902 0.0075171483 0.117583096
0.101984546 -0.11119184 -0.13932109 0.06581307 0.10266261 -0.067770675 -0.13221087 0.23022306
-0.048612926 -0.013453479 -0.12489235 0.018641207 -0.18413433 -0.049935006 0.13314892 -0.09964618
0.025875298 -0.009017982 0.044536363 0.059842914 0.1545044 -0.010332926 -0.2458651 0.21996929
-0.14441875 0.046562444 -0.024533529 -0.111610256 0.123703234 -0.07466066 0.11088688 -0.13692193
-0.07897916 0.20860544 -0.00976808 0.12099143 -0.14550318 0.09851556 0.12855361 -0.018964779
0.171704 -0.0031895197 0.11571844 0.19217297 -0.14956778 0.012272891 0.09835023 -0.021758718
0.12516148 0.15486896 -0.08501403 -0.17831063 0.16897374 -0.09800379 -0.14924423 -0.13454968
0.0015995777 -0.15457685 0.12679124 0.099386014 0.03101587 -0.049518347 -0.077637635 0.08871621
0.041253664 0.055936582 -0.0018555417 0.096696936 -0.03439865 0.16325864 0.26142415 0.13105458
0.09754762 -0.18108866 -0.22546144 -0.037505228 -0.07940699 -0.27581346 -0.02636188 0.1220151
-0.032600697 0.109537415 -0.077417485 0.08628827 -0.03112001 0.1106028 -0.12641189 0.040593978
-0.033218674 -0.08596608 0.20222059 0.041157514 0.07673936 0.041439958 0.02101015 -0.014467406
0.009615813 -0.052538007 0.073266044 -0.067411184 -0.05761637 -0.15442681 -0.101440266 -0.068213746
-0.054121252 0.016940203 0.04199798 -0.042909943 0.07591822 0.023180079 0.042511065 -0.15012096
0.04091882 -0.030448938 -0.028543482 0.003865067 0.21356992 0.052561253 -0.056081563 0.08473593
0.05307191 0.047612138 0.039492816 0.06088083 -0.009899941 -0.04654292 0.065806 -0.14326715
0.046264697 0.010436115 -0.08121321 -0.013917925 -0.027750067 0.19618501 -0.033040088 0.08715332
-0.19920188 0.0034992846 0.25134656 0.02586493 -0.06416887 -0.19655988 -0.01369105 0.051269654
0.080847986 -0.029093275 0.083563164 -0.0097751245 0.12561043 -0.08971341 0.08644388 0.030691676
0.054870654 -0.0019580943 0.04856812 0.124167375 0.0033128422 0.11131971 -0.014227636 -0.18657358
-0.09221919 0.11640644 0.0078044706 0.041251436 -0.10496306 0.00790254 0.18769291 -0.04972387
-0.003385576 -0.07278967 -0.039061565 -0.043834608 0.08449338 0.05308864 0.05257164 0.002045825
0.049653172 -0.12081125 -0.22416672 -0.20868734 -0.004693087 0.055263918 0.10235049 -0.011972469
0.20935881 -0.13346559 -0.043758746 0.118663706 0.005438986 0.12749322 -0.16878122 0.094127335

fc2.bias f4 [50]
00000000: 30d2 0b3c 5680 d0bb 7d84 cc3a de85 283c
00000010: e1c0 05bc eb92 0c3c e1c2 ae3b 4512 a73b
00000020: 8bde 9a3b 0e80 cf3b 150c 91ba 1586 583b
00000030: 8587 18bc 2b52 f23b 2954 09bc 5a37 213c
00000040: 271b c4bb 6ec4 da3b 7f40 87bc aec6 a53b
00000050: b1bd efba 51a1 9f3b 2611 b539 4530 383c
00000060: 748d d6bb b039 20bc 9e20 e43b a0a9 47bb
00000070: 7d89 2a3b f463 303c 5ccb 5a3c 954d 48bb
00000080: e0ed e6bb d9d1 343c e34b 893b 2cd5 0a3c
00000090: 0394 9ebb 8f81 a63b 8b4b c6bb ece3 df3b
000000a0: 5e6e 1a3c 4ade 35bc 1af1 c2bc 786a 7ebc
000000b0: bbd6 4c3c 7a0a 8fbc 2d4a 7e3b d32f c8bc
000000c0: 33a3 1fbc f9da bd3b
0.008533999 -0.006362955 0.001560345 0.010285823 -0.008163662 0.00857995 0.00533329 0.0050986134
0.004726236 0.006332404 -0.0011066223 0.0033038903 -0.009309654 0.007395049 -0.008381882 0.009839857
-0.005984682 0.0066762483 -0.016510246 0.005059085 -0.0018290785 0.0048715253 0.00034535787 0.011241977
-0.0065476242 -0.009779379 0.006961896 -0.0030466095 0.002602189 0.010766018 0.013354149 -0.003056382
-0.0070474 0.01103636 0.0041899546 0.008473676 -0.0048394217 0.0050813626 -0.006051486 0.0068325903
0.009425728 -0.011100361 -0.023796607 -0.015528314 0.012502368 -0.01746105 0.0038801536 -0.024436867
-0.0097435 0.005793926

ln2.weight f4 [50]
00000000: 58f7 773f 030d 763f 8235 793f 3667 763f
00000010: a3e2 763f 1f8c 763f 780a 763f ac39 773f
00000020: d931 793f aa00 763f 6b87 793f 6602 763f
00000030: 5d43 763f 052a 793f 6b6a 7e3f 3931 763f
00000040: 9af5 753f 1d03 773f 2253 753f 0028 773f
00000050: be61 783f f52f 7e3f 05dd 763f ce32 763f
00000060: aa52 7c3f 2936 7e3f d308 783f cedc 753f
00000070: 5ed9 763f 3140 763f b00d 763f a3ec 753f
00000080: 7dc9 773f 3f65 763f b8d0 773f f0e5 763f
00000090: bfeb 753f 0b93 763f 75e1 753f b65a 783f
000000a0: 9bc1 773f 5fcd 753f 65dc 7a3f 88b5 7a3f
000000b0: 5f34 763f 7fa4 7a3f 5a3a 763f eb07 7b3f
000000c0: ee58 753f 2d37 773f
0.9686179 0.96113604 0.9734727 0.9625124 0.9643957 0.9630756 0.96109724 0.96572375
0.97341686 0.96094763 0.97472256 0.9609741 0.9619654 0.9732974 0.9938113 0.9616886
0.96077883 0.96489125 0.95829976 0.9654541 0.9702414 0.99291927 0.96431 0.9617127
0.98563635 0.9930139 0.96888465 0.96040046 0.96425426 0.961917 0.96114635 0.96064204
0.9679182 0.9624824 0.96802855 0.96444607 0.96062845 0.9631812 0.96047145 0.97013414
0.96779794 0.96016496 0.97992545 0.97933245 0.9617366 0.9790725 0.9618279 0.98058957
0.9583882 0.96568567

ln2.bias f4 [50]
00000000: 2628 1dbb 2fb9 6939 0ba7 48bb 6179 f6b8
00000010: 9a1c a3bb 53cb 723a b960 10ba f701 583b
00000020: dae7 1b3b 3aac 3cba d3e1 95b9 50b3 513a
00000030: 9c26 79ba e066 84ba 611e 68bc 6e43 26b9
00000040: 0e13 acb9 59f7 c03a 8e52 ceba 5020 5eba
00000050: f8de fdba 4f2c b5bb 143c d3ba 29fa 8f38
00000060: 78e7 f9bb 5fd9 1dbc 9a51 0c3a e8a6 0dba
00000070: 56e0 3f3a 67fa 2fba 3acf a139 6bf3 c0ba
00000080: eebb 09bb a5dd 51b9 a94d 23ba 6aa8 fd3a
00000090: 1bff 7eba 2422 4fba 1147 8bba 0254 17bb
000000a0: ed8f ca3a 7bc2 f1ba 71e8 a5bb 9b0c fcbb
000000b0: b06e 67b8 b01f ebbb adb6 edb9 a365 2ebc
000000c0: 63ac 5abb d556 cdba
-0.002398023 0.00022289598 -0.0030617143 -0.00011752803 -0.004977775 0.0009261865 -0.0005507577 0.0032960156
0.0023789317 -0.00071972946 -0.00028587747 0.0007999437 -0.00095043494 -0.001010146 -0.014167399 -0.00015856113
-0.00032820593 0.0014722153 -0.0015741156 -0.0008473443 -0.0019368818 -0.0055289636 -0.0016115927 6.865367e-05
-0.00762647 -0.009634345 0.0005352736 -0.0005403594 0.00073195004 -0.0006713033 0.0003086271 -0.0014720982
-0.0021016556 -0.00020014362 -0.0006229529 0.001935256 -0.0009727345 -0.00079015107 -0.0010626038 -0.0023090844
0.001545427 -0.00184448 -0.0050631096 -0.0076919324 -5.5177778e-05 -0.0071754083 -0.00045340267 -0.010644349
-0.003336691 -0.0015666137
