Source_combined/ckps/seizure/source/Except_S17_sort/source_C.pt (torch, 1763 bytes, 3 tensors)

fc.bias f4 [2]
000000 89 44 18 bd a8 3b 18 3d
       -0.037174735 0.037166268

fc.weight_g f4 [2, 1]
000000 90 25 df 3f 67 ce dc 3f
       1.7433338 1.7250489

fc.weight_v f4 [2, 50]
000000 ed b2 2f bd 64 ae da 3c fa e5 c9 bc 94 05 ee bd
       -0.042895246 0.026694484 -0.024645794 -0.11622158
000010 4c 4b 0f bd 84 44 1f be 35 a9 96 3c 14 5f cf bd
       -0.034983918 -0.1555348 0.018391231 -0.101255566
000020 85 ac c6 3d 4d ec b3 3c d2 1c 77 3c 1e 3e fa bd
       0.09700874 0.021963263 0.015082555 -0.12218879
000030 0e ba 2c be 72 be 08 3e 49 f7 a5 bb e4 f2 04 3e
       -0.16867849 0.13353899 -0.005064879 0.1298328
000040 df 8f 6d 3d cd 40 84 3d e7 d4 51 be f1 93 40 3e
       0.057998534 0.06457672 -0.20491372 0.18806435
000050 dc e5 29 be 97 42 b5 3d 5f 1c f4 3d 68 38 f8 bd
       -0.1659159 0.08850592 0.11919474 -0.12120134
000060 56 18 2f 3c e6 e6 0f be b3 92 35 3e 42 4d d1 3c
       0.0106869545 -0.14052925 0.17731743 0.025549535
000070 bc 5a e2 bd 21 51 97 bc c8 0a 8c bd 7e a2 e5 3d
       -0.110524625 -0.018471302 -0.06837994 0.112126336
000080 91 3d 02 bd 1a 34 bc 3d aa 7c f0 3d 1a 2c b3 3d
       -0.031796996 0.09189625 0.11742528 0.08748646
000090 5f 88 d9 bd fd 4f ac 3c 53 22 53 3d 5b ee be 3d
       -0.10621714 0.021034235 0.051546406 0.093228064
0000a0 08 ad 9d bc f6 40 0e be 07 91 09 3e 1c bc e6 bd
       -0.019247547 -0.13891968 0.1343423 -0.11266348
0000b0 aa 32 21 bd 96 97 e1 bc b1 aa b3 3d 29 25 7c 3d
       -0.039354958 -0.027538102 0.08772791 0.061558876
0000c0 bc c3 0a be f7 a9 76 be 4e 3b 33 3d 0c 2b e8 bc
       -0.13551229 -0.24088274 0.04375773 -0.028340839
0000d0 0c fb c8 3c ea 3a ec 3d 9b aa 02 3d db 06 1b 3e
       0.024533771 0.115346745 0.031900983 0.15139334
0000e0 62 76 93 bc 5a f7 ce 3d 0f 2d c0 bd e9 29 ba bc
       -0.018000785 0.10105772 -0.09383594 -0.022725062
0000f0 14 31 76 bc a0 54 f9 3d 29 3b 2b 3e 2e c4 05 be
       -0.01502635 0.12174344 0.16721787 -0.13063118
000100 99 74 86 3b 8c 6b 03 be a6 d2 6b bd 4f c9 80 bd
       0.004103255 -0.12833995 -0.057573937 -0.062883966
000110 27 9e 50 3e dd 3e 3d be 7d 50 26 3e 2c e5 b6 bd
       0.2037283 -0.18481012 0.16241641 -0.0893043
000120 78 99 f3 bd c5 65 f4 3d 47 d4 16 bc 14 7a 0d 3e
       -0.11894506 0.119334735 -0.009205884 0.138161
000130 61 ef 31 be 63 80 db bc 5c c2 dd 3d c5 04 98 3c
       -0.17376472 -0.026794618 0.10828087 0.018556962
000140 2d f8 86 3d a2 52 e2 bd 0e 95 03 3d b8 fa bb bd
       0.065903045 -0.11050917 0.03212457 -0.0917868
000150 21 9f f0 bd 61 e9 af bd ff d8 da 3d a2 fa b7 bc
       -0.117491014 -0.08589435 0.1068592 -0.022458378
000160 67 b7 50 bd c9 ba bf bd c2 97 9b 3c 36 a5 0b 3e
       -0.050956156 -0.09361798 0.018993262 0.13637242
000170 05 77 07 be c4 02 e3 3d 97 99 15 3d bf a4 d5 3c
       -0.13228996 0.11084512 0.036523428 0.026079534
000180 a3 5a b1 bd c0 3b 75 bd 9e 42 0a 3e bb 87 71 3e
       -0.08659866 -0.059871435 0.13501975 0.23586933
