Source_combined/ckps/seizure/source/S9/source_C.pt (torch, 1763 bytes, 3 tensors)

fc.bias f4 [2]
0	0x3ddeee60	0.1088531
1	0xbddeef5c	-0.10885498

fc.weight_g f4 [2, 1]
0	0x3fa53113	1.2905601
1	0x3fc71c8d	1.5555588

fc.weight_v f4 [2, 50]
0	0xbc8171e7	-0.015801383
1	0xbe06a6c6	-0.13149557
2	0x3cb20d8b	0.021734973
3	0x3bbae5f7	0.0057036835
4	0x3d11abdd	0.035564292
5	0x3d138f5c	0.03602539
6	0xbd8514c1	-0.06498099
7	0xbe5ad466	-0.21370086
8	0x3e14d0f7	0.14532839
9	0x3e9247d4	0.28570426
10	0xbbfc68ce	-0.0077029234
11	0xbb2d3560	-0.002642952
12	0x3d8a83ce	0.06763421
13	0xbbef9f87	-0.0073127183
14	0x3ba1db98	0.0049395077
15	0xbd4fc01a	-0.05072031
16	0x3d990009	0.0747071
17	0x3cfa39e3	0.03054518
18	0x3e668f5d	0.22515626
19	0x3de3414f	0.11096441
20	0xbd01a550	-0.031651795
21	0x3daa54fd	0.083169915
22	0x3e7eae7c	0.24871248
23	0xbca9dacd	-0.020734215
24	0x3e8d7894	0.27631056
25	0xbed802e9	-0.4218972
26	0xbd678378	-0.056521863
27	0x3e33df72	0.17565706
28	0x3bab31d2	0.005224445
29	0xbd771d35	-0.06033059
30	0x3d828474	0.0637292
31	0xbf077a2c	-0.52920794
32	0x3d9f6fbd	0.07784984
33	0x3dc9ef17	0.09860056
34	0x3b96c6e2	0.0046013454
35	0x3e4b44d0	0.19850469
36	0xbdc5194f	-0.09623968
37	0x3e4941a0	0.1965394
38	0x3d03d8cd	0.03218918
39	0x3e78527c	0.24250215
40	0x3cc8c77a	0.02450918
41	0xbb072305	-0.0020620239
42	0xbb77d997	-0.0037818903
43	0xbd586f14	-0.052840307
44	0x3dfd7c81	0.12377263
45	0xbc2b9ebd	-0.010474858
46	0x3e0f0855	0.13968022
47	0x3e748f68	0.2388283
48	0x3e443c6b	0.19163673
49	0xbcf35a80	-0.02970624
50	0x3dbbfabd	0.09178684
51	0x3e830af0	0.25594282
52	0x3b8f82af	0.0043795924
53	0x3d420bad	0.047374416
54	0x3d28aa15	0.041177828
55	0xbce1c66c	-0.027560435
56	0x3dae314c	0.085054964
57	0x3e8407e8	0.25787282
58	0xbe66a8e4	-0.22525364
59	0xbec17933	-0.3778778
60	0x3d2611df	0.040544387
61	0xbbf0b1c9	-0.0073454124
62	0xbe2e7ac8	-0.17039025
63	0xbd0722a7	-0.03299203
64	0xbafe8f2b	-0.001942133
65	0xbd6315ea	-0.05544082
66	0x3d4d4d97	0.050122824
67	0x3d8549d0	0.06508219
68	0xbeb3d556	-0.351237
69	0xbd2d94b8	-0.042378157
70	0x3d88b9fc	0.06676099
71	0xbd46c1a4	-0.048524514
72	0xbe8ee327	-0.27907678
73	0xbd2d1456	-0.042255722
74	0xbeaa48e4	-0.33258736
75	0x3ef2b825	0.47406116
76	0x3d75e7cc	0.06003551
77	0xbe60ed5a	-0.21965542
78	0xbdb9452b	-0.09046396
79	0x3dd5c22d	0.10437427
80	0xbddda31e	-0.10822128
81	0x3f14f2ea	0.5818316
82	0xbe28a3d9	-0.16468753
83	0xbd93fb22	-0.07225634
84	0x3cc2d28e	0.02378204
85	0xbe35cf8b	-0.17754953
86	0x3e437d3a	0.19090739
87	0xbe5b505a	-0.2141737
88	0x3c5b4d2a	0.013385097
89	0xbe43db3c	-0.191266
90	0xbd5117ea	-0.051048197
91	0x3c42dd5c	0.0118935965
92	0xbb980639	-0.0046394137
93	0x3c31e693	0.010858196
94	0xbe2f2f57	-0.17107902
95	0xbc122909	-0.008920916
96	0xbe685f42	-0.22692588
97	0xbe72ea21	-0.23722126
98	0xbdd11501	-0.10209084
99	0x3d28aebf	0.041182276
