Source_combined/ckps/seizure/source/Except_S76_sort/source_C.pt (torch, 1763 bytes, 3 tensors)

fc.bias f4 [2]
0	0xbdae628c	-0.0851489
1	0x3dae5e28	0.08514053

fc.weight_g f4 [2, 1]
0	0x3fd16198	1.6357908
1	0x3fc7bfa1	1.5605356

fc.weight_v f4 [2, 50]
0	0x3d3559bb	0.044275027
1	0xbc854985	-0.016270408
2	0x3d128f07	0.035780933
3	0xbd230c35	-0.039806563
4	0x3e49786d	0.19674845
5	0xbdb6758b	-0.08909138
6	0xbd6e8888	-0.058235675
7	0xbe454216	-0.19263491
8	0x3e05e0bc	0.1307401
9	0xbcaac2eb	-0.020844897
10	0xbe1de332	-0.154187
11	0x3d44af07	0.04801848
12	0x3d77348f	0.06035286
13	0x3dbfdef5	0.093686976
14	0x3d309a54	0.04311593
15	0x3cb10b44	0.021611817
16	0xbd7eb5ae	-0.062184982
17	0x3cdcf88a	0.026973981
18	0xbdf824a4	-0.12116364
19	0x3d0aaaa8	0.033854157
20	0x3de7ef33	0.113249205
21	0xbe436fa3	-0.19085555
22	0x3d410a47	0.047128942
23	0x3d883fd7	0.066528015
24	0x3dcdac23	0.10042598
25	0xbe7adf07	-0.2449914
26	0x3d1ad366	0.03779926
27	0x3d8ddb38	0.06926578
28	0xbdc8e2f8	-0.09808916
29	0x3c8c287c	0.017109148
30	0xbdaf4ac1	-0.0855918
31	0xbe95cea1	-0.29259208
32	0x3dabd2a1	0.08389784
33	0xbb993e45	-0.0046766126
34	0xb94782d6	-0.00019026859
35	0x3df5d1be	0.12002896
36	0xbe585f50	-0.21130109
37	0xbd991d45	-0.07476286
38	0xbd2255a1	-0.039632443
39	0xbb987bd2	-0.0046534324
40	0x3dc0a8a3	0.09407165
41	0x3cac4ff8	0.021034226
42	0x3e01afc1	0.12664701
43	0x3e018302	0.12647632
44	0xbd96d68b	-0.073651396
45	0xbd1c7281	-0.038195137
46	0xbdc9ea16	-0.098591015
47	0xbdd5832b	-0.10425409
48	0xbdb8fa42	-0.09032108
49	0xbda50c6f	-0.08059012
50	0xbd2b52b6	-0.041826926
51	0x3c8c66aa	0.017138798
52	0xbd1134eb	-0.035450857
53	0x3d2d4986	0.042306446
54	0xbe3d2218	-0.18470037
55	0x3daf424f	0.08557569
56	0x3d71a158	0.05899176
57	0x3e3bdd15	0.18346055
58	0xbe03d375	-0.12873633
59	0x3cba0e97	0.022712035
60	0x3e163442	0.14668372
61	0xbd428319	-0.047488306
62	0xbd6c7efb	-0.057738286
63	0xbdb8dcbc	-0.09026477
64	0xbd26270b	-0.040564578
65	0xbca83a92	-0.020535741
66	0x3d7acf92	0.06123311
67	0xbcb39620	-0.021922171
68	0x3df0df36	0.11761324
69	0xbd09ca6a	-0.033640303
70	0xbdd6b280	-0.10483265
71	0x3e38daa1	0.1805215
72	0xbd416185	-0.047212142
73	0xbd832690	-0.064038396
74	0xbdca6f75	-0.0988454
75	0x3e6d985c	0.23202652
76	0xbd0f7372	-0.035022207
77	0xbd8b28dc	-0.06794903
78	0x3dc760eb	0.097352825
79	0xbc8b1702	-0.016978744
80	0x3dab1593	0.08353724
81	0x3e8ddb33	0.27706298
82	0xbdaa4404	-0.08313754
83	0x3b3ee28c	0.0029126732
84	0xbaffd4c2	-0.0019518363
85	0xbde859e9	-0.11345274
86	0x3e4d4d20	0.20048952
87	0x3d8e5927	0.06950598
88	0x3d145d61	0.036221866
89	0x3b48e2f4	0.0030652853
90	0xbdbb5769	-0.091475315
91	0xbc9f7c06	-0.019468319
92	0xbdf52846	-0.11970572
93	0xbdf44811	-0.11927808
94	0x3d89fe2e	0.06737934
95	0x3d09ae69	0.033613596
96	0x3dbc9604	0.09208301
97	0x3dc5c843	0.096573375
98	0x3daf4fbb	0.08560129
99	0x3d9f6401	0.07782746
