Source_combined/ckps/seizure/source/S5/source_C.pt (torch, 1763 bytes, 3 tensors)

fc.bias f4 [2]
00000000: ffe9 83bd e0e9 833d
-0.064411156 0.064410925

fc.weight_g f4 [2, 1]
00000000: c6bc b73f e282 a53f
1.4354484 1.2930567

fc.weight_v f4 [2, 50]
00000000: 6828 1bbe f41e fdbd bfda 48bd 84e9 f53d
00000010: e8de 2dbd ce6a 683d db84 d43c 34a0 903d
00000020: fa3f 693e 138b 19be 3295 d2bd fbe6 983d
00000030: 1311 f7bc cbd7 da3c 8f89 3dbe 92f3 283c
00000040: 4cf1 8f3e 09d3 87bd 26af 3f3c 2cbb 2a3d
00000050: ded6 813d 1e03 1cbe 65b1 02bd 3340 28bb
00000060: 13b1 3f3c efb5 a03d add8 42bc 5f28 6c3e
00000070: a0ec 31be d804 a2bb 3b02 99ba 8692 48be
00000080: abc6 8dbd 86f6 eebd 4173 b1bd 8ebe 8f39
00000090: 4aa5 79bd 5e2f 82bc cf0e 55be cd41 3a3d
000000a0: b6f5 84bd d803 e3bc 4057 063d 8623 e63d
000000b0: 980d 2d3d d05b a1bd 1ed7 10be 81bc 3f3c
000000c0: 02de 353d 59d3 03bd aeed e23d d175 033e
000000d0: f657 453d 0c6a 01be 8beb c83c e1c8 67bd
000000e0: 3467 423c 5eef 8dbd 82b5 55be 97c7 143e
000000f0: a1bb d43d 8794 a5bd fbc0 2a3d a548 143c
00000100: ffc6 2c3e 9139 b9b9 43c7 89be a882 303d
00000110: 6db8 4d3c ddaa 8bbd 042e 95bd b898 f23d
00000120: 2ea2 e33c ee33 2bbc d7d1 36bc 24cf 95bd
00000130: a21b 1f3d e54c 4bbe df34 3f3e a89e 5e3c
00000140: 4a67 633a 4405 303e 7d58 103d c776 c53d
00000150: 7e7c 9d3d 6911 fb3b b580 643d 8a62 c03c
00000160: a74d 2e3e be0a 16bd 11a8 523d fd77 703d
00000170: fc66 1cbd dd3b debd 676d 32bd 9c4c c73d
00000180: cd8a 1c3e 57a1 bc3c d74f 54bd eb54 de3c
-0.15152133 -0.123594195 -0.049036738 0.1200743 -0.042448908 0.056742482 0.025942257 0.07061806
0.22778311 -0.14994459 -0.10282363 0.07465931 -0.030159509 0.026714226 -0.18509506 0.010311978
0.28113782 -0.06632049 0.0116994735 0.041682407 0.06339811 -0.15235564 -0.031907458 -0.0025673031
0.011699933 0.07847201 -0.01189248 0.23062275 -0.17375422 -0.004944425 -0.0011673638 -0.19587144
-0.069226585 -0.11668114 -0.08664561 0.0002741706 -0.060948648 -0.015891727 -0.2080643 0.04547291
-0.06492178 -0.027711794 0.03279805 0.11237244 0.042249292 -0.0787884 -0.1414456 0.011702658
0.044401176 -0.03218398 0.1108049 0.12837912 0.04817959 -0.1263811 0.024526378 -0.056588057
0.011865426 -0.06930421 -0.20870021 0.14529262 0.1038735 -0.0808497 0.041687947 0.009050523
0.16872786 -0.0003532884 -0.26909837 0.043093354 0.012556178 -0.06819699 -0.072841674 0.11845535
0.027787294 -0.010449393 -0.011158428 -0.073148996 0.038844712 -0.19853552 0.18672512 0.013587631
0.0008674754 0.17189509 0.03524064 0.096417956 0.076897606 0.0076619876 0.055786807 0.023484487
0.1702181 -0.03663134 0.051429812 0.05870818 -0.03818415 -0.10851262 -0.043561365 0.09731409
0.15287323 0.023026152 -0.051833954 0.027140101
