Source_combined/ckps/seizure/source/Except_S21_sort/source_F.pt (torch, 557199 bytes, 8 tensors)

fc1.weight f4 [100, 1332]
0	0xbcb6079f	-0.02222043
1	0xbb1178e6	-0.0022197305
2	0xbc2d9fa5	-0.010597144
3	0x3c7bda75	0.015371908
4	0x3cc56beb	0.02409931
5	0xbc8405ed	-0.016116107
6	0xbcb2639f	-0.021776019
7	0x3c98d7ca	0.018657584
8	0x3cc7a510	0.0243707
9	0xbd073370	-0.03300804
10	0x3c91c642	0.017794732
11	0xbc145a0c	-0.009054672
12	0x3c9e7990	0.019345075
13	0x3c3c7c94	0.011504311
14	0x3c08926b	0.00833569
15	0x3c4de484	0.012566689
16	0x3c341016	0.010990163
17	0xbc9862f7	-0.018601878
18	0x3cb5e4d9	0.02220385
19	0x3cb17bf1	0.021665545
20	0x3b372716	0.002794688
21	0x3ccb2e28	0.024802282
22	0xbb4ca493	-0.0031226024
23	0x3b94c8c0	0.004540533
24	0x3c7230fd	0.0147821875
25	0x3c262fbc	0.010143217
26	0xbbe51ab3	-0.006991708
27	0xbbd9a34a	-0.00664178
28	0xbca978c3	-0.020687466
29	0xbb905da3	-0.0044056936
30	0x3cafc1f3	0.021454787
31	0xbbb2f75c	-0.0054616164
32	0x3ce3fff8	0.027832016
33	0xbc96cf67	-0.018409444
34	0x3c8a76c5	0.016902337
35	0xbbea8554	-0.007157007
36	0xbbe8e20d	-0.0071070255
37	0xbc08283a	-0.008310372
38	0xbc9c212e	-0.01905879
39	0xbb2a9ed5	-0.0026034613
40	0x3c5dced2	0.013538079
41	0xbc08e83a	-0.008356148
42	0x3c86a530	0.01643619
43	0x3b3f0b30	0.0029150955
44	0xbbb011e7	-0.005373228
45	0x3c2d06a5	0.010560666
46	0x3cc3657b	0.0238521
47	0x3c18a6a1	0.009317071
48	0x3b49bb55	0.0030781825
49	0xbbb32122	-0.005466596
50	0xbb8c9593	-0.0042902916
51	0x3c9d05ca	0.0191678
52	0xbc8fb48f	-0.017542152
53	0xbc6546cc	-0.01399393
54	0xbc8dc98d	-0.017308021
55	0x3d196d95	0.03745802
56	0x3b9a97b8	0.0047177933
57	0xbc6856f4	-0.0141808875
58	0xbb6e6b24	-0.0036379779
59	0xbcf4066b	-0.029788217
60	0x3a4530be	0.0007522217
61	0x3c8ddf8a	0.017318506
62	0x3c1d4cad	0.0096008
63	0x3b9cd0fc	0.004785655
64	0x3cdaf1b7	0.026726587
65	0xbc7c058f	-0.015382185
66	0xbbec5dcc	-0.00721333
67	0x3b3c8ccf	0.0028770452
68	0xbba06c81	-0.004895747
69	0x3ca2bc45	0.019865165
70	0x3b2eba59	0.0026661365
71	0xbcad6e18	-0.02117066
72	0x3bb897c3	0.005633326
73	0xbb7ae9da	-0.003828636
74	0xbcc73b2b	-0.024320206
75	0x3b3648f4	0.002781448
76	0x3c5d389f	0.013502269
77	0xba240c96	-0.0006257979
78	0xbc9feb8b	-0.019521495
79	0xbbcab3b0	-0.006185971
80	0xbbd16bc0	-0.0063910186
81	0xbb69fdcf	-0.003570426
82	0x3c361f6f	0.011115893
83	0x3bbae97e	0.005704104
84	0x3c3f8bfb	0.011691089
85	0xbcc663de	-0.024217542
86	0x3c25af09	0.010112532
87	0xbb1bff43	-0.002380327
88	0x3c982ebd	0.018576974
89	0x3c77ff76	0.01513659
90	0xbc42560b	-0.011861335
91	0x3c95a6d7	0.018268032
92	0x3cd30a24	0.025761671
93	0x3d001dc6	0.031278394
94	0xbc8a1ce2	-0.016859476
95	0xbb30f55b	-0.0027001712
96	0xbbef2f53	-0.0072993427
97	0x3cebedef	0.028799979
98	0x3ca7d0a6	0.020485234
99	0xbbb89121	-0.005632535
100	0x3cc1d90f	0.023663072
101	0xbc08f249	-0.0083585465
102	0x3c236307	0.00997234
103	0x3b00cdf6	0.0019654012
104	0xbc9ef08e	-0.019401815
105	0xbc263c6b	-0.010146241
106	0x3ae6ab43	0.0017598647
107	0x3bebcbf3	0.0071959435
108	0xbca9f1f8	-0.020745263
109	0x3c905b65	0.017621705
110	0xbc5b6085	-0.013389711
111	0xbc8fa0c9	-0.017532723
112	0xbb82ba2f	-0.00398948
113	0x3c7f114e	0.015568091
114	0x3b96cdcd	0.00460217
115	0x3ca933c7	0.020654572
116	0xbc615b04	-0.01375461
117	0x3c1867fd	0.0093021365
118	0xba8b07fc	-0.0010607238
119	0xbc487ad9	-0.01223632
120	0xbc38b21b	-0.011272932
121	0xbcb4b5a1	-0.022059264
122	0x3c91822b	0.017762264
123	0xbaab5d38	-0.0013074046
124	0xbb96ada9	-0.0045983386
125	0xbc82d362	-0.015969936
126	0xbc2d4029	-0.010574379
127	0xbce70a35	-0.02820311
128	0x3c958c24	0.0182553
129	0x3c9dedd2	0.01927844
130	0x3ba044d9	0.00489102
131	0x3c0876b6	0.008329084
132	0xbbfd0c67	-0.0077224257
133	0x3c8ca7e0	0.017169893
134	0x3c91f183	0.017815357
135	0x3cb15f8f	0.021652011
136	0x3b833168	0.0040036924
137	0x3bd69abe	0.0065492084
138	0x3c66fcd8	0.014098369
139	0x3b8db4be	0.0043245247
140	0x3b4c2acf	0.0031153446
141	0x3c2aa69f	0.010415702
142	0xbb06078a	-0.002045127
143	0xbc8a7396	-0.016900819
144	0xbb76d374	-0.0037662657
145	0x3b69d492	0.003567968
146	0x3bfaf828	0.007658977
147	0xbc47ded7	-0.012199125
148	0xbc3b65f2	-0.01143788
149	0xbbe88154	-0.0070954952
150	0xbc0f4b92	-0.008746045
151	0xbccc8f3a	-0.02497064
152	0xbb85445e	-0.004066988
153	0xbc63dd46	-0.013907736
154	0x3c4fe787	0.012689478
155	0x3ccff88b	0.02538707
156	0xbc921688	-0.01783301
157	0xbb8f6495	-0.004376004
158	0xbc3006cb	-0.010743807
159	0xbb3b2169	-0.002855385
160	0xbbe97c50	-0.007125415
161	0xbcb3a9b6	-0.02193151
162	0x3c4f98a2	0.012670668
163	0x3b2e17cb	0.0026564475
164	0xbc9d080c	-0.019168876
165	0xbc88c4cc	-0.016695403
166	0xbc4a8dba	-0.012362892
167	0xbcb1208b	-0.021621963
168	0x3a8807e9	0.0010378334
169	0xbbd12db0	-0.00638362
170	0xbc6bf51e	-0.014401702
171	0x3bb50585	0.0055243396
172	0xbcb8d6ec	-0.02256342
173	0x3b0f5038	0.0021867882
174	0xbc70fdf8	-0.014708988
175	0xbc97f8a0	-0.01855117
176	0xbc4937f1	-0.012281404
177	0x3ccfb2b6	0.02535377
178	0xbb23c969	-0.0024991876
179	0xbbf96f1e	-0.007612123
180	0xbc7ac8e7	-0.015306688
181	0xbd03f627	-0.03221717
182	0xba2ce458	-0.0006595305
183	0x3c42004b	0.01184089
184	0xbca16dea	-0.019705731
185	0x3bc186d7	0.0059059667
186	0xbc81c4fa	-0.015840996
187	0x3b655d1f	0.0034998131
188	0xbcaa37c5	-0.020778546
189	0xbb027fc7	-0.0019912587
190	0x3c0c2ae1	0.008555145
191	0xbcca286e	-0.024677482
192	0xbbaf3d24	-0.0053478647
193	0x3bbccc43	0.0057616546
194	0xbc3b1fef	-0.011421188
195	0x3c43501c	0.011920955
196	0x3c8d4896	0.017246526
197	0x39a3bbe2	0.00031229766
198	0x3c6b4ef7	0.014362088
199	0x3ca96c8c	0.020681642
200	0xbb366613	-0.0027831837
201	0xbcbe8f88	-0.0232618
202	0xbcbee1bf	-0.023301004
203	0x3bb86d9a	0.0056283
204	0x3c814abe	0.01578271
205	0x3cc614c1	0.024179818
206	0xbcc04b74	-0.023473479
207	0xba8a5018	-0.0010552434
208	0xbbe00655	-0.0068366923
209	0xbc415ec1	-0.011802376
210	0x3c03f55d	0.008054105
211	0xbccd75bb	-0.025080552
212	0xbc22023a	-0.009888226
213	0x3ccb3e99	0.024810122
214	0xbcc77d6b	-0.024351796
215	0xbbb7a8b7	-0.005604829
216	0xbcc93030	-0.02455911
217	0xbcc4d621	-0.024027886
218	0xbbd6bcbf	-0.006553262
219	0x3c1d441a	0.009598756
220	0xbca4da1b	-0.020123532
221	0xbc9038cb	-0.017605206
222	0x3c045a55	0.008078177
223	0x3b2d08b3	0.002640289
224	0x3aee06be	0.0018159968
225	0xbc86c390	-0.016450673
226	0x3c3eb342	0.011639418
227	0x3bd7bcab	0.0065837703
228	0xbcb5d3c9	-0.022195714
229	0x3c831527	0.016001297
230	0x3ce61d8e	0.028090265
231	0x3c13347e	0.008984683
232	0x3ca4cde5	0.02011771
233	0x3cad5b0b	0.021161577
234	0xbc2f1899	-0.010687017
235	0x3b82d493	0.003992626
236	0xbbc661af	-0.0060541253
237	0xbc10f95b	-0.0088485135
238	0x3cc031d6	0.023461264
239	0xbb772ef6	-0.00377172
240	0xbb01873d	-0.0019764446
241	0x3b7742b7	0.0037728974
242	0xbcc0d85b	-0.023540666
243	0xbac3e1ff	-0.0014944671
244	0x3cb49f68	0.022048667
245	0xb9b937d3	-0.00035327542
246	0xbcc0581f	-0.02347952
247	0x3c8a9a1c	0.016919188
248	0xbccc38a1	-0.024929347
249	0xb98625cc	-0.00025586633
250	0x3cc3d31f	0.023904381
251	0x3c4d4c21	0.012530358
252	0x3c480557	0.012208304
253	0xbcccbcd5	-0.024992386
254	0x3ba8879d	0.0051431195
255	0x3c89ac73	0.016805863

fc1.bias f4 [100]
0	0x3d0af9c8	0.033929616
1	0xbbad310f	-0.0052853893
2	0xba7a27e9	-0.000954269
3	0x3c5084a9	0.012726941
4	0x3b560b74	0.0032660635
5	0xba822274	-0.0009928481
6	0x3bb83567	0.0056216004
7	0xbc1cc576	-0.009568563
8	0x3cf12758	0.029437706
9	0x3c79d833	0.0152493
10	0xbd0c881c	-0.03430949
11	0xbc58838d	-0.013214958
12	0x3cea5d26	0.02860887
13	0xbcab5f22	-0.020919386
14	0xbc245bab	-0.010031621
15	0x3b3ba3cb	0.0028631564
16	0xbcacb462	-0.021082107
17	0xbd19887a	-0.03748367
18	0x3b358739	0.0027699007
19	0xbd100b0f	-0.035166796
20	0x3c9bba52	0.019009743
21	0x3a932ca5	0.0011228515
22	0xbc6ed971	-0.014578209
23	0x3b3c6d19	0.002875155
24	0xbd2bdd2f	-0.041958984
25	0xbce3288b	-0.027729293
26	0xbd13eeb0	-0.036116302
27	0x3cdbaa54	0.026814617
28	0x3c7831f3	0.015148628
29	0xbd6b81c9	-0.05749682
30	0xbbd64aa2	-0.0065396586
31	0xbb9d5db3	-0.0048024296
32	0xbaabe43c	-0.0013114284
33	0x3cbad9bc	0.022808902
34	0xbce1c23c	-0.027558438
35	0x3ce964af	0.028490392
36	0x3b2ac747	0.002605872
37	0x3b568545	0.0032733243
38	0xbce1f23d	-0.027581329
39	0xbc054074	-0.008133043
40	0x3d3024f9	0.04300401
41	0xbca98003	-0.020690924
42	0xbc895ec1	-0.016768815
43	0xbb75499c	-0.0037427908
44	0xbc7ea97c	-0.015543338
45	0xbb650d0e	-0.0034950408
46	0x3c76a9a9	0.015055099
47	0xbc5727cc	-0.013132047
48	0xbb344907	-0.0027509348
49	0xbc840581	-0.016115906
50	0x3cb9546a	0.02262326
51	0x3bdd0e24	0.0067460705
52	0x3be5a8d8	0.007008653
53	0xbca3f28d	-0.020013118
54	0xba6cc35a	-0.0009031795
55	0xbb21648c	-0.002462658
56	0xbcdb21ce	-0.026749518
57	0x3c7b776f	0.015348299
58	0x3d1ef19c	0.038804635
59	0xbbe75085	-0.007059159
60	0x3d063dde	0.032773845
61	0x3d3043f2	0.043033548
62	0x3cf14a1f	0.029454289
63	0xbc61bf3f	-0.013778507
64	0x3cf6b4c4	0.030115493
65	0xbd4b15c4	-0.049581304
66	0x3be27ffa	0.0069122287
67	0x3c1cac44	0.009562556
68	0x3d0d00fd	0.03442477
69	0xbca201f1	-0.019776316
70	0x3c618b7f	0.013766169
71	0xbd6579c1	-0.056024317
72	0xbc576988	-0.013147719
73	0xbc8f52b8	-0.017495498
74	0xbc80fb58	-0.01574485
75	0xbc6b88ed	-0.014375907
76	0xbd291d9d	-0.041288007
77	0xbc1329ea	-0.008982161
78	0x3cf5e3e9	0.030015903
79	0x3c6d3a17	0.014479182
80	0x3c2599c1	0.010107459
81	0xbbe5fe46	-0.007018837
82	0x3ca143b4	0.019685604
83	0xbc19e11a	-0.009392047
84	0x3be54990	0.0069972947
85	0x3c5bc340	0.01341325
86	0xbc0c0efe	-0.008548496
87	0x3c63256d	0.0138639035
88	0x3b9fc040	0.004875213
89	0xbb68973d	-0.0035490536
90	0x3d1f8074	0.03894086
91	0xbd120e73	-0.03565831
92	0xbcf88f69	-0.03034182
93	0x3b86780d	0.0041036666
94	0x3cb76971	0.022389146
95	0xbcb9fbbd	-0.022703046
96	0x3c55d785	0.013051872
97	0xbc077c79	-0.008269423
98	0xbd02b4e0	-0.031910777
99	0x3beb5b83	0.00718254

ln1.weight f4 [100]
0	0x3f6c4ef9	0.92308
1	0x3f6c485f	0.9229793
2	0x3f6bab23	0.9205801
3	0x3f6c82fa	0.92387354
4	0x3f6de74b	0.9293105
5	0x3f6ccb8f	0.92498106
6	0x3f6ead91	0.9323359
7	0x3f6ebc02	0.9325563
8	0x3f702fe5	0.9382308
9	0x3f6bc26c	0.9209354
10	0x3f6c657f	0.9234237
11	0x3f6c2914	0.9225018
12	0x3f6bf42d	0.9216946
13	0x3f6c509d	0.92310506
14	0x3f6caa6b	0.9244754
15	0x3f6f4e04	0.9347842
16	0x3f6e7f21	0.93162733
17	0x3f695c8e	0.9115685
18	0x3f6c7721	0.92369276
19	0x3f6efecb	0.93357533
20	0x3f6a2d4e	0.9147538
21	0x3f6bcf2c	0.92112994
22	0x3f6e2fbc	0.93041587
23	0x3f6cc22c	0.9248378
24	0x3f6c8a7e	0.9239882
25	0x3f6fee2a	0.93722785
26	0x3f6cd770	0.9251623
27	0x3f6c78ec	0.9237201
28	0x3f6ca2bb	0.92435807
29	0x3f6a7b76	0.91594636
30	0x3f6cf355	0.92558795
31	0x3f6c95fe	0.9241637
32	0x3f6e1f5a	0.9301659
33	0x3f6d4619	0.92685086
34	0x3f6a2e99	0.9147735
35	0x3f6db060	0.9284725
36	0x3f6d6907	0.92738384
37	0x3f6c1507	0.92219585
38	0x3f6b5084	0.9191973
39	0x3f6da97b	0.9283673
40	0x3f6c86d5	0.9239324
41	0x3f6c966b	0.9241702
42	0x3f6e5809	0.9310308
43	0x3f6d63f9	0.9273067
44	0x3f6afcec	0.9179218
45	0x3f6ba518	0.9204879
46	0x3f69880a	0.91223204
47	0x3f6de4d7	0.92927307
48	0x3f6b98b5	0.9202989
49	0x3f6e7352	0.93144715
50	0x3f6bf47d	0.92169935
51	0x3f6b1142	0.9182321
52	0x3f6cf713	0.92564505
53	0x3f6ac61f	0.9170856
54	0x3f6b399f	0.918848
55	0x3f6c34ca	0.9226805
56	0x3f6d9c10	0.9281626
57	0x3f6d0298	0.9258208
58	0x3f6d2252	0.92630494
59	0x3f6ff03a	0.9372593
60	0x3f6b5000	0.91918945
61	0x3f6d3209	0.9265447
62	0x3f6a5624	0.9153769
63	0x3f6df3df	0.9295024
64	0x3f6b6dc3	0.9196436
65	0x3f6e680e	0.93127525
66	0x3f6e96c4	0.931988
67	0x3f6ad2ff	0.91728204
68	0x3f6b4fac	0.91918445
69	0x3f694a74	0.9112923
70	0x3f6d8c1c	0.92791915
71	0x3f6b350a	0.91877806
72	0x3f6d49ea	0.9269091
73	0x3f6e16ae	0.93003356
74	0x3f6c49a1	0.9229985
75	0x3f6cf24a	0.92557204
76	0x3f6a467b	0.91513795
77	0x3f6c6169	0.92336136
78	0x3f6d86b9	0.92783695
79	0x3f68cb12	0.9093486
80	0x3f6b71e2	0.91970646
81	0x3f6cf90c	0.92567515
82	0x3f6c5fa9	0.92333466
83	0x3f6d4227	0.92679065
84	0x3f6d0a82	0.9259416
85	0x3f6d7e36	0.9277071
86	0x3f6fe8ba	0.9371449
87	0x3f6d6697	0.92734665
88	0x3f6ee5cf	0.9331941
89	0x3f6c8fe3	0.92407054
90	0x3f6ec30e	0.9326638
91	0x3f6e0a7f	0.92984766
92	0x3f6b9e67	0.9203858
93	0x3f6a2192	0.91457474
94	0x3f6c978f	0.9241876
95	0x3f6e6228	0.93118525
96	0x3f6f4da2	0.93477833
97	0x3f6c5573	0.92317885
98	0x3f6b44a5	0.9190162
99	0x3f6bc959	0.9210411

ln1.bias f4 [100]
0	0xbba8b923	-0.005149023
1	0xbc8cf30c	-0.017205738
2	0xbbdc8e42	-0.0067308256
3	0xba98c39f	-0.0011654979
4	0xbc01dfda	-0.0079269055
5	0xbc048823	-0.008089098
6	0xbbedd9a2	-0.00725861
7	0xbc060423	-0.008179697
8	0xbc1fcb0e	-0.009753002
9	0xbbb43f04	-0.005500676
10	0xbcaa2f6d	-0.020774567
11	0xbc027ff7	-0.0079650795
12	0xbc1765f4	-0.009240616
13	0xbc99bb58	-0.01876609
14	0xbb88b9e5	-0.004172551
15	0xbbb31c7b	-0.0054660416
16	0xbc1e26a0	-0.009652764
17	0xbc8cd131	-0.017189594
18	0xbc1c5798	-0.009542368
19	0xbc1520ff	-0.009102105
20	0xbc4cd8f5	-0.012502898
21	0xbbf12c2e	-0.007360003
22	0xbbaafc8f	-0.0052180956
23	0xbc51cf80	-0.0128058195
24	0xbd2f5d7a	-0.042813756
25	0xbbbb32be	-0.005712836
26	0xbc921ebf	-0.017836927
27	0xbbc1687b	-0.0059023476
28	0xbbfa5a2e	-0.007640145
29	0xbce0ab95	-0.027425567
30	0xbc553756	-0.013013681
31	0xbb07f629	-0.0020746088
32	0xbbd1cb14	-0.0064023826
33	0xbc111256	-0.008854469
34	0xbcdce541	-0.026964786
35	0xba836db2	-0.0010027199
36	0xbb35a3da	-0.0027716071
37	0xbc4dcc7e	-0.012560962
38	0xbc979b9a	-0.018506814
39	0xbbadf577	-0.0053088027
40	0xba6ed192	-0.0009110208
41	0xbc65a3e6	-0.014016127
42	0xbb95d2d5	-0.0045722523
43	0x3b3409ab	0.0027471583
44	0xbc5803d2	-0.013184505
45	0xbc2acc73	-0.010424721
46	0xbcc61cd9	-0.024183678
47	0xbc001199	-0.007816696
48	0xbc39cec5	-0.011340802
49	0xbc286891	-0.010278837
50	0xbc3ae9cd	-0.0114082815
51	0xbc8d84a7	-0.017275168
52	0x36e5350e	6.830908e-06
53	0xbc8d0f4e	-0.017219212
54	0xbc69296a	-0.014231065
55	0xbc6e0b3c	-0.014529046
56	0xbc9770d0	-0.01848641
57	0xbbe82547	-0.007084522
58	0xbc5c4a5c	-0.013445463
59	0xbc091122	-0.008365901
60	0xbc5c20e2	-0.013435574
61	0x3b0f961c	0.002190954
62	0xbceb1632	-0.028697107
63	0xbb9cba80	-0.0047829747
64	0xbc869eb7	-0.016433103
65	0xbc6c59c2	-0.014425697
66	0x3a0252e5	0.00049714587
67	0xbcbb7fc6	-0.022888076
68	0xbbe699df	-0.007037386
69	0xbcbe0bb4	-0.02319894
70	0xbb9f6168	-0.0048639067
71	0xbc928a45	-0.017888198
72	0xbc42a69a	-0.011880541
73	0xbbf7d9fc	-0.0075638276
74	0xbbfcd8fd	-0.0077162967
75	0xbbfb3fc3	-0.007667513
76	0xbca1fc09	-0.0197735
77	0xbbd0326d	-0.0063536675
78	0xbc1b2ee1	-0.009471626
79	0xbc4fbfa2	-0.012679966
80	0xbcb9f68f	-0.022700576
81	0xbc4b72be	-0.012417493
82	0xbb8d5447	-0.004313025
83	0xbc82d71e	-0.015971716
84	0xbc4783d6	-0.012177428
85	0xbb8f28a0	-0.0043688565
86	0xbc48d027	-0.012256659
87	0xbc3a86fe	-0.011384724
88	0xbc24e5ec	-0.010064583
89	0xbbc070bd	-0.0058728145
90	0x3a080d20	0.0005189944
91	0xbc46c08b	-0.012130867
92	0xbc6a2e85	-0.014293318
93	0xbc9c6700	-0.019092083
94	0xbc4d42d9	-0.012528145
95	0xbbc78a7c	-0.0060895067
96	0xbbf96929	-0.007611413
97	0xbbe74ec4	-0.00705895
98	0xbc7070d8	-0.014675342
99	0xbc26b0d4	-0.010173995

fc2.weight f4 [50, 100]
0	0xbe565ab7	-0.20933042
1	0x3d5d4d47	0.054028776
2	0x3c6b8c4a	0.014376709
3	0xbd26843e	-0.04065346
4	0x3d1c271b	0.03812323
5	0x3ead27c2	0.33819395
6	0x3d573d1e	0.05254852
7	0xbdc7e983	-0.09761336
8	0xbde02c77	-0.10945981
9	0xbb89be2a	-0.0042035775
10	0xbd7e7e85	-0.062132377
11	0xbd5d346e	-0.05400508
12	0x3dfaafaa	0.122405365
13	0x3e0384cf	0.12843631
14	0x3d4bfaff	0.049799915
15	0xbe18a66c	-0.14907235
16	0xbd810a7d	-0.063008286
17	0x3de512ed	0.111852504
18	0x3cc8bf28	0.024505213
19	0xbdbbbecc	-0.09167251
20	0x3cf133c1	0.029443623
21	0x3d9023f6	0.07038109
22	0x3d95dece	0.07317887
23	0xbb420733	-0.0029606342
24	0x3c22987a	0.009924049
25	0x3d728802	0.05921174
26	0x3de214cf	0.11039125
27	0xbcd6eccd	-0.026235962
28	0xbdbd082d	-0.09230075
29	0x3e4266dd	0.18984552
30	0x3d30f77b	0.043204766
31	0x3e39de8b	0.181513
32	0x3da368b5	0.07978956
33	0x3e62653a	0.22108927
34	0x3cc3e1a6	0.023911308
35	0xbe8647ee	-0.26226753
36	0xbcf4533e	-0.02982485
37	0xbd80f88c	-0.062974066
38	0x3ebc617d	0.36793128
39	0x3d17a3bc	0.037021384
40	0xbd740c21	-0.05958188
41	0x3da6e5cb	0.08149298
42	0x3ddf61a4	0.10907295
43	0x3d6322f1	0.055453245
44	0x3da054d8	0.07828683
45	0xbac6061f	-0.0015108025
46	0xbcaafc8e	-0.02087238
47	0xbd5e8f10	-0.054335654
48	0x3dc51161	0.096224554
49	0x3dbd265f	0.09235834
50	0x3d91adfb	0.07113262
51	0xbdff8ebe	-0.12478398
52	0xbd87609f	-0.06610226
53	0x3c3eb827	0.011640585
54	0x3cb48096	0.02203397
55	0x3d7732e7	0.06035128
56	0xbc231fdb	-0.009956325
57	0xbbab1b44	-0.005221756
58	0xbdb6393a	-0.08897634
59	0xbe09972e	-0.13436577
60	0x3c12f0e7	0.008968568
61	0x3e1f3d65	0.15550764
62	0xbdc98db8	-0.09841484
63	0xbc56e756	-0.013116678
64	0x3d993490	0.074807286
65	0xbbaf6fcf	-0.005353905
66	0xbe677018	-0.22601354
67	0x39495442	0.00019200242
68	0xbe4be3b1	-0.19911076
69	0x3d8d90e2	0.069124
70	0x3e176a7c	0.14786714
71	0x3d9c3f7f	0.076292984
72	0xbda69b3f	-0.081350796
73	0xbc4595ff	-0.012059688
74	0x3d03b22f	0.03215235
75	0xbda1f207	-0.07907491
76	0x3dc6283b	0.09675642
77	0xbd457864	-0.048210517
78	0x3d71a20f	0.05899244
79	0xbdde4905	-0.10853771
80	0xbdbddbdc	-0.092704505
81	0xbc9d4092	-0.019195829
82	0xbe1f3274	-0.1554659
83	0x3e1923c8	0.14955056
84	0xbe1d1a54	-0.15342075
85	0xbe282063	-0.16418605
86	0xbe0aced8	-0.13555467
87	0x3e2f787f	0.1713581
88	0xbc9c2cec	-0.01906439
89	0xbdebd509	-0.115152426
90	0xbe1a5cce	-0.15074465
91	0x3de42728	0.11140281
92	0xbc0247b4	-0.007951666
93	0xbe70a756	-0.23501334
94	0x3e09c544	0.13454157
95	0x3d9f80be	0.077882275
96	0xbdfa24ab	-0.12214025
97	0x3d6ca959	0.05777869
98	0x3d8e185e	0.069382414
99	0x3e311aa9	0.17295326
100	0xbd5379aa	-0.0516297
101	0xbd3fecb1	-0.046856586
102	0xbde43bec	-0.11144242
103	0xbcf6281e	-0.030048426
104	0xbe407d78	-0.18797863
105	0x3cafc4c6	0.021456134
106	0xbd198267	-0.037477877
107	0xbd740246	-0.05957248
108	0xbd663167	-0.056199457
109	0xbd6d3819	-0.057914827
110	0x3d52b8ac	0.051445648
111	0x3db3bba3	0.08776023
112	0x3cca98e7	0.024731113
113	0x3ce1b713	0.027553117
114	0xbd75731b	-0.059924226
115	0x3e07463b	0.13210385
116	0x3d939553	0.07206216
117	0x3d768a74	0.060190633
118	0xbda81c59	-0.08208532
119	0x3e8f410e	0.2797932
120	0x3e1109c1	0.14163877
121	0xbd8e3c94	-0.06945148
122	0x3e1e9d81	0.1548977
123	0x3bb30028	0.005462665
124	0xbdcaec82	-0.099083915
125	0x3d1e94fb	0.038716298
126	0xbd82a518	-0.063791454
127	0x3dfbede5	0.12301234
128	0xbc868977	-0.01642297
129	0x3d563188	0.05229333
130	0x3dd8d356	0.10587184
131	0xbd600fa7	-0.054702427
132	0x3d03f950	0.032220185
133	0xbd55cb72	-0.052195974
134	0x3d8e1872	0.06938256
135	0x3d56b934	0.052422717
136	0x3dac2733	0.08405914
137	0x3e08ea84	0.1337071
138	0x3e93ecae	0.2889151
139	0x3d7645f6	0.060125314
140	0x3d0bbd23	0.03411592
141	0x3d8afeb9	0.06786866
142	0xbc15be44	-0.009139601
143	0xbdd02752	-0.1016375
144	0x3d04ef52	0.032454796
145	0xbd7724eb	-0.060337942
146	0x3d8831cc	0.06650123
147	0x3d5af180	0.05345297
148	0x3d3b0069	0.045654688
149	0xbdb73e2d	-0.08947406
150	0x3d9e96b5	0.07743589
151	0xbd544767	-0.051825907
152	0x3d40fe12	0.0471173
153	0xbd8b12c7	-0.06790691
154	0x3e6b1e80	0.22960854
155	0xbce4603e	-0.027877923
156	0x3e0e4fc3	0.13897614
157	0x3c29521b	0.010334517
158	0x3cd165e9	0.02556129
159	0xbe2c3b15	-0.16819413
160	0xbd833fc6	-0.06408648
161	0x3b93595f	0.004496738
162	0xbd8dd112	-0.069246426
163	0x3de09985	0.109667815
164	0xbd64b708	-0.055838615
165	0xbc854eca	-0.016272921
166	0x3d78a973	0.060708474
167	0x3cf6e270	0.03013727
168	0xbd1449ad	-0.036203075
169	0xbd8bf726	-0.06834249
170	0x3dcdce32	0.10049094
171	0x3d2de0d1	0.04245073
172	0x3e595f57	0.21227776
173	0x3db7d2e0	0.08975768
174	0x3e18668d	0.1488287
175	0x3c841853	0.01612488
176	0x3d23e337	0.04001161
177	0x3e87d64c	0.26530683
178	0x3d65ea2a	0.05613152
179	0x3e30c81c	0.17263836
180	0x3e366d97	0.17815243
181	0xbd16114b	-0.036637586
182	0xbe0db6e1	-0.13839294
183	0xbe1780ac	-0.14795178
184	0xbdaa9467	-0.08329087
185	0xbd8733eb	-0.066016994
186	0xbaf8342b	-0.0018936446
187	0xbe811020	-0.25207615
188	0x3dc74822	0.09730555
189	0xbe32eb0b	-0.17472474
190	0x3dbe18b8	0.092820585
191	0x3de8c94a	0.11366518
192	0x3c89a103	0.01680041
193	0x3e2957f0	0.16537452
194	0xbe329ca7	-0.1744257
195	0xbdb666a2	-0.089062944
196	0x3c38a296	0.011269232
197	0xbd76f02c	-0.06028764
198	0xbce1d956	-0.027569454
199	0x3d4ef395	0.050525267
200	0xbca4cb41	-0.02011645
201	0x3d4eecd3	0.050518822
202	0xbdcba98c	-0.09944448
203	0xbd8055c0	-0.062663555
204	0x3dce2d54	0.100672394
205	0xbd4e1b4f	-0.050319012
206	0x3dcd2d55	0.10018412
207	0x3ccf164f	0.025279192
208	0x3e612433	0.21986465
209	0xbe2efc78	-0.17088497
210	0x3cdb26e3	0.026751941
211	0x3d217bb3	0.03942461
212	0xbe2ef575	-0.17085822
213	0xbd860c9a	-0.06545372
214	0xbcb440bb	-0.022003522
215	0x3e26db56	0.16294608
216	0x3dacc4cd	0.08435974
217	0xbd05d190	-0.032670557
218	0x3d55f957	0.052239742
219	0x3e4ec8e4	0.20193821
220	0x3c1eb438	0.009686522
221	0x3d7f1d07	0.062283542
222	0x3d180497	0.037113752
223	0xbd8b26d3	-0.067945145
224	0x3c866b2c	0.016408525
225	0xbce37179	-0.027764069
226	0x3e1f050c	0.15529269
227	0xbe1a2e25	-0.15056665
228	0x3db82a51	0.08992446
229	0xbe007fbb	-0.12548725
230	0xbe3b27b4	-0.18276864
231	0x3e686336	0.22694096
232	0x3d29ae96	0.041426264
233	0xbc748785	-0.0149248885
234	0x3da21ae5	0.07915286
235	0xbcac9dfc	-0.021071427
236	0x3b9a246c	0.004704049
237	0x3da32eae	0.07967888
238	0x3da9fe3d	0.08300445
239	0x3d4ef95b	0.050530773
240	0xbe61caa3	-0.22049956
241	0x3e44689e	0.19180533
242	0x3ddd4778	0.10804647
243	0xbe2c8ba5	-0.16850145
244	0xbd9efd9c	-0.07763216
245	0xbd4a05a9	-0.049321804
246	0xbda7c898	-0.08192557
247	0xbc4357ed	-0.011922819
248	0x3e3cb62a	0.18428865
249	0xbe1743b0	-0.14771914
250	0xbda4914e	-0.08035527
251	0xbe263c23	-0.16233878
252	0xbc9a5ba8	-0.018842533
253	0x3e078a5a	0.1323637
254	0x3dccc5c0	0.09998655
255	0xbcd9ae77	-0.02657245

fc2.bias f4 [50]
0	0xbc3c802d	-0.011505169
1	0xbccba18d	-0.024857307
2	0x3b696ad8	0.0035616662
3	0xbca2832f	-0.019837944
4	0xbc08a560	-0.00834021
5	0xbc11591e	-0.008871345
6	0x3c59fa1d	0.013304261
7	0xbb90c73d	-0.0044182823
8	0xbb42ae43	-0.002970592
9	0x3b782048	0.0037861038
10	0x3ba0f8d6	0.004912476
11	0x3cf2c387	0.02963425
12	0x3c95a605	0.01826764
13	0x3c4de1ad	0.012566012
14	0x3c05d224	0.008167777
15	0xbb0a4fa1	-0.0021104591
16	0xbcb11e59	-0.021620916
17	0x3b96f15a	0.004606408
18	0x3cb3ea8a	0.021962423
19	0xbbda5d94	-0.0066639874
20	0xbc089cee	-0.008338196
21	0xbcc4d2cc	-0.024026297
22	0x3c0dd734	0.008657265
23	0xbb76946f	-0.0037625094
24	0x3c563da6	0.013076222
25	0xbc213453	-0.009839135
26	0xbb83650e	-0.0040098494
27	0xbb6e54e4	-0.0036366517
28	0x3c72466a	0.014787296
29	0x3c0a69fe	0.008448122
30	0x3c9dbf0d	0.01925614
31	0xb9cbb568	-0.00038854335
32	0xbc83da7e	-0.016095396
33	0x3c2ab770	0.0104197115
34	0xbbd489bf	-0.006486147
35	0xbbc9aea2	-0.006154851
36	0xbbecb170	-0.0072233006
37	0xbc768f4f	-0.015048816
38	0xbc9cfdb1	-0.019163938
39	0x3cb52ed5	0.022117058
40	0xbbdcbd92	-0.0067364657
41	0xbbf95112	-0.0076085413
42	0x3c61bbcd	0.013777685
43	0xbc1b2a89	-0.00947059
44	0x3b8b8243	0.0042574718
45	0x3ca8fe71	0.02062914
46	0x3bea1c2e	0.0071444726
47	0xbb25c879	-0.0025296493
48	0xbcc815c7	-0.024424447
49	0x3cbac6c4	0.022799857

ln2.weight f4 [50]
0	0x3f723625	0.9461387
1	0x3f6aa57f	0.91658777
2	0x3f6ddd2d	0.9291561
3	0x3f6ac3d8	0.91705084
4	0x3f6c0e2b	0.9220912
5	0x3f7d0737	0.98839134
6	0x3f7059c0	0.9388695
7	0x3f6c0d8e	0.9220818
8	0x3f71c775	0.9444497
9	0x3f6c845a	0.9238945
10	0x3f6c7ab5	0.92374736
11	0x3f6cb640	0.9246559
12	0x3f6da0bc	0.92823386
13	0x3f6f4037	0.9345736
14	0x3f6e4c4a	0.9308516
15	0x3f720ca8	0.9455056
16	0x3f6e1fc4	0.9301722
17	0x3f71b0e8	0.9441056
18	0x3f6cb86d	0.9246891
19	0x3f6fe97f	0.9371566
20	0x3f7247df	0.94640917
21	0x3f70d7f0	0.94079494
22	0x3f6c9ee1	0.9242993
23	0x3f6c8eca	0.9240538
24	0x3f6c77fd	0.9237059
25	0x3f73d031	0.9523955
26	0x3f6c3da5	0.9228156
27	0x3f76b1a3	0.963648
28	0x3f6cc4b8	0.9248767
29	0x3f6e3f3f	0.93065256
30	0x3f6ce744	0.92540383
31	0x3f700fcb	0.937741
32	0x3f6bb9f4	0.92080617
33	0x3f6d36da	0.9266182
34	0x3f74c0fc	0.9560697
35	0x3f6c8922	0.9239675
36	0x3f6df751	0.929555
37	0x3f758f2c	0.9592159
38	0x3f6ec184	0.9326403
39	0x3f6cbed5	0.92478687
40	0x3f6ce4cd	0.9253662
41	0x3f6e44d9	0.93073803
42	0x3f6caa90	0.9244776
43	0x3f7d49ab	0.98940533
44	0x3f702aae	0.93815124
45	0x3f6d548f	0.9270715
46	0x3f6db844	0.9285929
47	0x3f6c9f29	0.9243036
48	0x3f7a061c	0.9766557
49	0x3f6cd9ac	0.9251964

ln2.bias f4 [50]
0	0xbc29d194	-0.010364909
1	0xbbab1626	-0.005221146
2	0xbb3b8361	-0.0028612243
3	0xbbccc683	-0.0062492504
4	0xbb2b0f73	-0.0026101738
5	0xbc61dd3b	-0.013785656
6	0xbb9cfdb1	-0.0047909846
7	0xbbbe02e0	-0.0057986826
8	0xbc16e860	-0.009210676
9	0xba99774d	-0.0011708528
10	0xbaeb9f5c	-0.001797657
11	0x39fb31fc	0.00047911692
12	0xbb1c5a65	-0.002385759
13	0xbae6f796	-0.0017621394
14	0xbb8de1f4	-0.004329914
15	0xbbf1fa80	-0.0073845983
16	0xbc374ca2	-0.011187704
17	0xbae01681	-0.001709655
18	0x39893e66	0.00026177167
19	0xba6200fc	-0.00086213625
20	0xbc569078	-0.0130959675
21	0xbc02aa33	-0.007975149
22	0xb90fa10a	-0.00013697534
23	0x396d90d8	0.0002265604
24	0xba6449cb	-0.0008708506
25	0xbc9417e3	-0.018077796
26	0xba9d9953	-0.0012023844
27	0xbbcc54d7	-0.0062356996
28	0xb9a10b1f	-0.000307166
29	0xbabe115f	-0.0014501027
30	0x38604cd9	5.347733e-05
31	0xbb0150ec	-0.001973207
32	0xbb4cb481	-0.0031235518
33	0x3928e104	0.00016105553
34	0xbc566891	-0.013086454
35	0xbb9250b5	-0.0044651874
36	0xbac0bf25	-0.0014705403
37	0xbc6be923	-0.014398846
38	0xbb8007ca	-0.0039071785
39	0xb956ed51	-0.00020497038
40	0xbb97d042	-0.0046329806
41	0xbbdd5a9a	-0.0067551853
42	0xba6c36f1	-0.00090108725
43	0xbc9e3e9e	-0.019316968
44	0xbb64e304	-0.003492535
45	0x3b29bc05	0.0025899422
46	0xbb29328d	-0.0025817484
47	0xbb541539	-0.0032361283
48	0xbca3fc24	-0.020017691
49	0x3a76eb32	0.0009419202
