Source_combined/ckps/seizure/source/S31/source_C.pt (torch, 1763 bytes, 3 tensors)

fc.bias f4 [2]
0	0x3e594f05	0.2122155
1	0xbe594f9b	-0.21221773

fc.weight_g f4 [2, 1]
0	0xc02953ff	-2.6457517
1	0x3f90fe0a	1.1327527

fc.weight_v f4 [2, 50]
0	0x3d347047	0.04405239
1	0xbd2760f3	-0.040863942
2	0xbe800164	-0.2500106
3	0x3c292f12	0.010326164
4	0xbe39888f	-0.18118499
5	0x3f8da0b8	1.1064672
6	0x3f2ae37b	0.6675336
7	0x3e1fb315	0.15595658
8	0x3e055344	0.13020045
9	0xbe27997f	-0.16367148
10	0xbc462e4f	-0.012096002
11	0xbe151a31	-0.14560772
12	0xbe10cea3	-0.14141326
13	0xbdca4a3b	-0.098774396
14	0xbf3e188c	-0.74256206
15	0xbdc350d8	-0.09536904
16	0x3e9801cf	0.2968888
17	0xbec35937	-0.38154003
18	0xbf486116	-0.7827314
19	0x3e00b843	0.1257029
20	0xbf1492d7	-0.5803656
21	0x3e296ebd	0.1654615
22	0x3edbddf5	0.42942777
23	0xbe99188c	-0.2990154
24	0x3f38f343	0.7224619
25	0x3e6f4b67	0.23368607
26	0x3cf47542	0.02984107
27	0xbe313dfb	-0.173088
28	0xbf89960a	-1.0748913
29	0xbea23416	-0.31680363
30	0x3cea8d11	0.028631719
31	0xbe53b7db	-0.20675604
32	0xbf061b0f	-0.5238504
33	0xbf827eb8	-1.0194921
34	0xbeb3cc1d	-0.35116664
35	0xbf12bb2e	-0.57316864
36	0xbd67377b	-0.056449395
37	0xbede7741	-0.4345036
38	0xbf02310a	-0.5085608
39	0x3c603d0e	0.013686432
40	0x3f128c29	0.5724512
41	0xbf2a6db1	-0.66573626
42	0x3e2021ea	0.15637937
43	0xbe77526a	-0.24152532
44	0x3f13da13	0.5775463
45	0xbe9c8400	-0.30569458
46	0x3df28db1	0.11843432
47	0xbe938483	-0.28812036
48	0xbea573ee	-0.3231501
49	0xbd3bca8b	-0.045847457
50	0xbed3ff84	-0.4140588
51	0xbe958bc0	-0.29208183
52	0xbd810ff6	-0.063018724
53	0x3f5b4892	0.8565761
54	0x3dd89c0d	0.10576639
55	0x3dc2468e	0.094861135
56	0x3ebddc64	0.37082207
57	0xbe8b254c	-0.27176893
58	0xbcb0e158	-0.021591827
59	0x3f7731d0	0.9656038
60	0xbf034733	-0.51280516
61	0x3f52e809	0.8238531
62	0x3cf40a87	0.029790176
63	0xbe8bdd71	-0.27317384
64	0x3e9a3e6b	0.30125746
65	0x3e83b532	0.2572418
66	0x3cd5d8ff	0.026104448
67	0xbd12b266	-0.035814665
68	0xbef84eea	-0.48497707
69	0x3ef2c241	0.4741383
70	0xbf03eef8	-0.5153651
71	0x3e1f126a	0.15534368
72	0x3e1907fc	0.14944452
73	0xbed3c93a	-0.4136446
74	0x3e68b79e	0.22726294
75	0x3d16cd74	0.03681703
76	0x3dff8113	0.12475791
77	0x3e0361d5	0.12830289
78	0x3e8a8942	0.27057844
79	0xbecfb754	-0.40569556
80	0xbdac72a3	-0.08420303
81	0x3d77d483	0.0605054
82	0xbe0dc472	-0.13844469
83	0x3f0277fa	0.5096432
84	0xbe4944fa	-0.19655219
85	0x3ec16344	0.37771046
86	0x3e4e611d	0.20154233
87	0xbe03d1a2	-0.12872937
88	0x3ee3ae23	0.44468793
89	0x3e862b02	0.26204687
90	0x3e064fbd	0.13116355
91	0x3f168bac	0.5880687
92	0xbe4d786f	-0.20065473
93	0x3eb080c3	0.34473237
94	0x3e84525a	0.2584408
95	0xbf118661	-0.5684567
96	0xbd111993	-0.03542478
97	0xbe97b9de	-0.29633993
98	0xbe8e79b8	-0.2782724
99	0xbece556a	-0.4029954
