Source_combined/ckps/seizure/source/S31/source_F.pt (torch, 557199 bytes, 8 tensors)

fc1.weight f4 [100, 1332]
0.0022019444 -0.0084012365 -0.016895467 0.01921874 -0.0070311106 0.028003028 -0.008146967 -0.0061691105
-0.010162975 0.020962246 -0.00041018598 0.01079054 0.012985456 -0.017228888 -0.014830098 -0.019307068
0.020351658 -0.0068071056 0.0140377665 -0.013129769 0.013651855 0.00626413 0.005296982 -0.01922632
0.019881736 -0.008414615 -0.015476538 0.0041970257 -0.006211176 -0.01741063 0.00017787928 0.016054004
0.00043194392 0.0046045436 -0.008584837 -0.0038475213 0.0017109022 0.018907502 -0.024045281 -0.024527803
0.016325818 0.023276558 -0.0063990033 -0.007842447 -0.019453999 0.001553974 0.0056511164 0.0023489727
0.01963614 0.022378854 0.011484996 -0.0278397 0.010109065 -0.022726879 -0.0025077125 0.012187154
0.02210495 0.019768955 -0.0022255424 0.022452025 0.014396966 -0.028060665 -0.030521763 -0.017978568
-0.00058183394 -0.020252882 -0.025439296 0.011070165 -0.006757494 0.020379161 -0.022584658 0.027030269
0.0013012154 -0.006201648 -0.017763153 -0.015702782 0.017087659 0.010556945 -0.025910627 0.011396704
-0.015654009 0.014320946 0.02681877 0.030362504 -0.0030387263 -0.008562557 0.01944427 -0.007746497
0.02076987 0.009643719 0.023157716 0.019264527 -0.008560182 -0.011866842 -0.02830348 0.0019977184
-0.018149886 -0.0022146082 0.020071447 0.023796363 0.021398276 -0.025792593 0.0106246015 0.019737028
0.01897742 -0.010550227 0.014289279 0.015362771 0.024735712 0.006672992 0.013351908 0.0068799313
0.009794312 0.017984157 0.024316475 -0.023594355 -0.022149177 -0.027629552 -0.025834085 0.019861512
0.014666581 -0.019295473 -0.0036743844 0.0031163811 -0.0255287 0.016333755 0.0068009356 -0.024448633
0.0045231166 0.025838405 0.021537585 -0.020917516 0.002150233 -0.014916497 0.0056147343 -0.018549308
-0.0015460228 0.019690713 0.011538979 0.020507146 0.00903716 -0.0036355967 -0.0055029104 0.020803196
-0.011023538 -0.0035409303 0.017222594 0.0025789095 -0.023467595 0.021328341 0.007827056 -0.014859174
-0.0052052797 0.0054575885 -0.010328734 0.018594304 -0.006557469 0.01738446 -0.017758403 -0.004662822
-0.01098898 -0.014515996 -0.015663218 -0.02392715 -0.012869628 -0.0009532646 0.019571291 -0.00037437328
-0.014092894 -0.010980294 -0.01035994 -0.00247876 -0.014335641 0.020851953 0.011222002 -0.008934482
0.01580404 -0.00032909543 -0.008945926 0.01958849 0.009207865 -0.013604835 0.02238308 0.0089492565
0.019728225 0.008499296 -0.026194043 -0.015992431 -0.009960936 -0.0036614842 0.007536747 0.01952907
0.018469252 -0.00222851 -0.006170381 0.024751214 0.009436995 0.0031403766 0.0030952266 -0.009666183
0.0019519343 0.026325753 0.015666528 0.016795931 0.017087447 0.015677644 0.027051602 0.022112116
0.005723366 0.022701064 0.023016911 -0.024061413 -0.0031604855 -0.014956664 0.0056718737 -0.013313955
0.024783026 0.012045169 0.0060605537 0.013093761 -0.01566637 0.0025003182 -0.0023784281 -0.018650908
0.021094086 0.0057894844 -0.027139 -0.02532437 0.019842507 -0.022798155 -0.009772469 -0.022681693
0.030043349 -0.014248968 0.004916928 0.025513448 0.008696787 0.015928969 0.00924898 -0.020895524
0.018760597 0.009150417 -0.0068611363 -0.026286753 -0.002175855 0.006610279 -0.017635878 -0.023678714
0.0067347717 0.008350159 -0.021912415 0.004884151 0.017042475 0.015012544 0.021798052 -0.006636458
00000000: 7f4e 103b 57a5 09bc 5d68 8abc 9e70 9d3c
00000010: 3b65 e6bb 9b66 e53c db7a 05bc 4026 cabb
00000020: 9b82 26bc 04b9 ab3c 3b0e d7b9 ceca 303c
00000030: f3c0 543c 9923 8dbc f0f9 72bc db29 9ebc
00000040: 85b8 a63c 240e dfbb a9fe 653c 3e1e 57bc
00000050: 08ac 5f3c 5543 cd3b 4e92 ad3b 8480 9dbc
00000060: 06df a23c 74dd 09bc 4e91 7dbc 3487 893b
00000070: 1f87 cbbb bda0 8ebc 1b85 3a39 b083 833c
00000080: 8876 e239 b6e1 963b 6ba7 0cbc b226 7cbb
00000090: 5a40 e03a e8e3 9a3c 9cfa c4bc 88ee c8bc
000000a0: b9bd 853c 7bae be3c bbae d1bb 9b7d 00bc
000000b0: fe5d 9fbc b7ae cb3a 002d b93b 39f1 193b
000000c0: f8db a03c dc53 b73c 912b 3c3c 1510 e4bc
000000d0: 7ea0 253c b82d babc 6f58 24bb a1ac 473c
000000e0: 7115 b53c 81f2 a13c 68da 11bb 4fed b73c
000000f0: 41e1 6b3c 7bdf e5bc c708 fabc ca47 93bc
00000100: 3786 18ba 5fe9 a5bc 1266 d0bc a35f 353c
00000110: f86d ddbb 33f2 a63c 7603 b9bc 956e dd3c
00000120: 8b8d aa3a 3237 cbbb 0884 91bc 1fa3 80bc
00000130: 6bfb 8b3c 09f7 2c3c 8642 d4bc 3eb9 3a3c
00000140: d63c 80bc 67a2 6a3c 0ab3 db3c c9ba f83c
00000150: 5e25 47bb f849 0cbc 9749 9f3c 54d6 fdbb
00000160: 9325 aa3c b000 1e3c 40b5 bd3c a4d0 9d3c
00000170: 0140 0cbc 256d 42bc b3dc e7bc 27ec 023b
00000180: 12af 94bc f622 11bb e06c a43c 97f0 c23c
00000190: 704b af3c fd4a d3bc cf12 2e3c 8caf a13c
000001a0: 8976 9b3c dcda 2cbc 941d 6a3c 22b4 7b3c
000001b0: 8ca2 ca3c 1da9 da3b f6c1 5a3c 0c71 e13b
000001c0: 5278 203c 8353 933c 5833 c73c f348 c1bc
000001d0: 3172 b5bc 5f57 e2bc 01a2 d3bc 9cb4 a23c
000001e0: 194c 703c 8a11 9ebc f1cd 70bb 333c 4c3b
000001f0: 9021 d1bc 5ece 853c 62da de3b 8048 c8bc
00000200: a736 943b 10ab d33c 976f b03c 365b abbc
00000210: ecea 0c3b 5364 74bc cefb b73b b8f4 97bc
00000220: eba3 caba 6b4e a13c fc0d 3d3c 9afe a73c
00000230: 9910 143c 3143 6ebb c251 b4bb 776b aa3c
00000240: 129c 34bc f40e 68bb 6616 8d3c ec02 293b
00000250: 1d3f c0bc c6b8 ae3c 0d3d 003c e573 73bc
00000260: 0d91 aabb 92d5 b23b da39 29bc 1553 983c
00000270: 09e0 d6bb db69 8e3c 127a 91bc 96ca 98bb
00000280: 1f0b 34bc 80d4 6dbc 2650 80bc df02 c4bc
00000290: 22db 52bc 81e4 79ba f953 a03c 8847 c4b9
000002a0: e2e5 66bc b1e6 33bc bdbc 29bc b172 22bb
000002b0: 09e0 6abc b7d1 aa3c 7ddc 373c ef61 12bc
000002c0: 7977 813c 718a acb9 ef91 12bc 0a78 a03c
000002d0: 96dc 163c d0e6 5ebc b95c b73c e79f 123c
000002e0: 169d a13c a240 0b3c e494 d6bc 8f02 83bc
000002f0: 3233 23bc 83f5 6fbb d1f6 f63b 6efb 9f3c
00000300: d44c 973c 320c 12bb e830 cabb 0fc3 ca3c
00000310: a09d 1a3c c7ce 4d3b 49d9 4a3b e95e 1ebc
00000320: 0cd8 ff3a 1ba9 d73c 1757 803c 9f97 893c
00000330: f9fa 8b3c 676e 803c 529b dd3c 7824 b53c
00000340: 138b bb3b 95f7 b93c f68d bc3c 711c c5bc
00000350: 2620 4fbb cc0c 75bc 20db b93b c622 5abc
00000360: c605 cb3c 1a59 453c 9c97 c63b 3787 563c
00000370: c256 80bc 61dc 233b 67df 1bbb cac9 98bc
00000380: 81cd ac3c b7b5 bd3b 9c52 debc 0e75 cfbc
00000390: c18c a23c 32c3 babc b51c 20bc f5ce b9bc
000003a0: 781d f63c 8174 69bc 2e1e a13b 9401 d13c
000003b0: f87c 0e3c 787d 823c 0989 173c 172d abbc
000003c0: d3af 993c a1eb 153c 62d3 e0bb 5157 d7bc
000003d0: ca98 0ebb 0a9b d83b 1e79 90bc ddf9 c1bc
000003e0: 5caf dc3b 1bcf 083c aa81 b3bc 3a0b a03b
000003f0: a99c 8b3c 2cf7 753c d491 b23c a576 d9bb

fc1.bias f4 [100]
0.008321292 -0.016813982 0.025072983 0.013966065 -0.003200996 0.02056102 0.0013663966 -0.040748615
-0.0019033578 -0.0139330905 0.026606815 -0.026424924 0.009794886 -0.037383083 -0.03143708 -0.014928537
-0.003847456 -0.0055341143 -0.010441095 0.006183069 -0.01011407 -0.055534836 -0.030973243 0.009797388
0.045470875 0.009545293 -0.0026918345 -0.028378455 -0.014502954 0.01805388 -0.0021568178 0.0077604614
-0.008164077 0.03317161 -0.027717961 -0.019520044 -0.0030366413 -0.009603086 0.021197272 0.052439693
0.019554436 -0.032775495 0.010915634 0.022868454 0.042565722 0.029702423 0.037844773 -0.03139507
-0.018771017 -0.021341013 -0.011462632 0.025647433 0.009660672 0.017649645 0.029954461 -0.007918266
0.007459653 -0.014910947 0.012270407 -0.03371565 -0.018539188 0.0045853034 -0.004086014 -0.01468685
-0.01854302 -0.009244343 0.024732027 0.0018900852 0.008720834 0.045098502 -0.009032942 -0.044104155
-0.022638263 0.016314683 -0.0041017006 -0.03719217 -0.017259458 0.010107056 -0.0017231101 -0.07375291
0.0017363116 0.050667174 0.033361763 0.018322967 -0.0010816717 0.012701689 -0.023067787 -0.007221336
0.027137745 0.019070765 0.008711012 -0.017063139 0.06158932 -0.0052075963 -0.036524784 0.019220233
0.017595889 -0.011862705 -0.005945416 -0.018557811
00000000: 0756 083c 7abd 89bc db65 cd3c ecd1 643c
00000010: cdc7 51bb 966f a83c a918 b33a 05e8 26bd
00000020: 177a f9ba 9e47 64bc 89f6 d93c 1579 d8bc
00000030: bb7a 203c 011f 19bd 2bc4 00bd d396 74bc
00000040: 9a25 7cbb 8457 b5bb 2011 2bbc 589b ca3b
00000050: 7cb5 25bc 7f78 63bd 99bb fdbc 3985 203c
00000060: ab3f 3a3d dc63 1c3c 7d69 30bb ef79 e8bc
00000070: cc9d 6dbc bbe5 933c 6659 0dbb 784b fe3b
00000080: 9fc2 05bc f4de 073d c710 e3bc 80e8 9fbc
00000090: 6302 47bb 4356 1dbc e7a5 ad3c 01cb 563d
000000a0: a030 a03c 993f 06bd 7dd7 323c a056 bb3c
000000b0: 6559 2e3d 7f52 f33c 1f03 1b3d 1e98 00bd
000000c0: adc5 99bc 59d3 aebc c3cd 3bbc 911a d23c
000000d0: cc47 1e3c fd95 903c 0f63 f53c 9dbb 01bc
000000e0: 1b70 f43b 0b4d 74bc d109 493c 6c19 0abd
000000f0: 7fdf 97bc 5040 963b f8e3 85bb 1da1 70bc
00000100: 88e7 97bc 9675 17bc d29a ca3c bcbc f73a
00000110: d4e1 0e3c 35b9 383d e8fe 13bc 8fa6 34bd
00000120: e173 b9bc 5fa6 853c 8f67 86bb d156 18bd
00000130: b563 8dbc 1198 253c fbd9 e1ba c40b 97bd
00000140: f394 e33a 6288 4f3d 58a6 083d 0c1a 963c
00000150: e1c6 8dba bf1a 503c a8f8 bcbc f5a0 ecbb
00000160: fa4f de3c 4b3a 9c3c a2b8 0e3c ffc7 8bbc
00000170: 1545 7c3d 7ca4 aabb 039b 15bd c073 9d3c
00000180: 4125 903c cb5b 42bc c4d1 c2bb 8d06 98bc

ln1.weight f4 [100]
0.9882599 0.9891876 1.0127044 0.9937175 0.9885973 0.98795074 0.9855579 0.95996875
0.9866726 0.9909167 0.983856 0.9734928 0.9782066 0.98804855 1.0046355 0.9804924
0.97887695 0.97580904 1.0179625 0.98512715 0.9835357 0.97960013 0.9826078 1.003357
0.9740477 0.9737592 0.9854223 0.9726447 0.9887244 0.9845902 0.9816809 0.9896221
0.9927407 0.99695796 0.98145777 0.99032176 0.9828895 0.9876761 0.98979676 1.0219936
1.0009739 0.9932344 0.9855863 0.9858436 0.98963356 0.9967522 0.9960642 0.98604
0.98910886 0.98813885 0.9590555 0.98947734 0.9724978 0.9904387 0.9266737 0.9891909
0.9752483 0.98277456 1.0023422 0.98120266 0.9860923 0.9850083 0.99187756 0.9894609
0.99191207 0.9926662 0.9952629 0.9972529 0.95283633 1.0196007 0.9873236 0.9781031
0.9883125 1.0017936 0.98924965 0.9755003 0.9908412 0.95219666 0.9913823 0.9906633
0.98876435 1.0004394 0.9909034 0.9972317 0.9799192 0.96990055 0.9880409 0.98840636
1.0072736 0.9902188 0.9938257 0.99049485 1.0261406 0.967355 0.9823965 0.99776894
0.9804812 0.9810599 0.9900064 0.98560816
00000000: 9afe 7c3f 663b 7d3f 4ca0 813f 4564 7e3f
00000010: b614 7d3f 57ea 7c3f 864d 7c3f 83c0 753f
00000020: 9396 7c3f b8ac 7d3f fddd 7b3f d336 793f
00000030: bf6b 7a3f c0f0 7c3f e597 803f 8d01 7b3f
00000040: ae97 7a3f 9fce 793f 984c 823f 4b31 7c3f
00000050: ffc8 7b3f 13c7 7a3f 2f8c 7b3f 016e 803f
00000060: 315b 793f 4848 793f a344 7c3f 3eff 783f
00000070: 0b1d 7d3f 1a0e 7c3f 714f 7b3f e057 7d3f
00000080: 4124 7e3f a338 7f3f d140 7b3f ba85 7d3f
00000090: a59e 7b3f 57d8 7c3f 5263 7d3f b0d0 823f
000000a0: ea1f 803f 9c44 7e3f 624f 7c3f 3f60 7c3f
000000b0: a058 7d3f 272b 7f3f 10fe 7e3f 1e6d 7c3f
000000c0: 3d36 7d3f abf6 7c3f a984 753f 634e 7d3f
000000d0: 9ef5 783f 648d 7d3f 7d3a 6d3f 9d3b 7d3f
000000e0: dfa9 793f 1d97 7b3f c04c 803f 1930 7b3f
000000f0: 8c70 7c3f 8129 7c3f b0eb 7d3f 4f4d 7d3f
00000100: f3ed 7d3f 5f1f 7e3f 8dc9 7e3f f74b 7f3f
00000110: 15ed 733f 4782 823f 3dc1 7c3f f764 7a3f
00000120: 0c02 7d3f c63a 803f 773f 7d3f 63ba 793f
00000130: c5a7 7d3f 29c3 733f 3bcb 7d3f 1c9c 7d3f
00000140: a91f 7d3f 660e 803f d8ab 7d3f 944a 7f3f
00000150: fcdb 7a3f 674b 783f 40f0 7c3f 3308 7d3f
00000160: 57ee 803f fb7e 7d3f 5c6b 7e3f 1291 7d3f
00000170: 9358 833f 94a4 773f 567e 7b3f c96d 7f3f
00000180: d100 7b3f be26 7b3f 0f71 7d3f d150 7c3f

ln1.bias f4 [100]
-0.002452908 0.0014850958 0.002029036 0.0069376463 0.006376893 0.0012391945 -0.0043414505 -0.020228524
-0.0041156355 -0.0036719881 -0.00011960424 -0.016908037 -0.004814614 -0.009074949 -0.012230905 -0.014682278
-0.012494464 -0.007837726 -0.0049572503 -0.0021046025 -0.005659686 -0.022860566 -0.013473738 -0.00077457284
-0.018975243 -0.008419065 -0.0039835502 -0.009771359 0.004875765 -0.0075948588 -0.0035182892 0.0021848336
0.0024607917 0.007305604 -0.007770589 -0.005281792 -0.008197468 0.0011504857 0.0033655819 0.012656792
0.0073093357 -0.008931018 -0.0061534904 -0.0050473097 -0.0119226845 0.009465192 0.0066190693 -0.0063502872
0.0034553867 0.001358707 -0.023431951 0.002559976 -0.015119009 -0.00919412 -0.021853248 0.0011258266
-0.0075053466 -0.013141167 0.027171506 -0.009660009 0.00027511828 -0.01279682 0.020214144 -0.0025714135
0.0034321183 0.001683816 0.009095461 0.00056453486 -0.0132749295 0.004094493 -0.0045496137 -0.018265335
0.003847621 0.001989412 -0.0060504456 -0.008204396 0.009794593 -0.021912832 0.00477832 -0.020346917
-0.007284446 0.0019562668 0.008455396 0.010125983 -0.0014820506 -0.015498525 0.0044939327 -0.014639091
0.0056893104 0.0047351276 0.014434908 -0.0055081565 0.0030313616 -0.01130733 -0.014146239 0.01974008
-0.007291608 -0.015824512 0.00067957136 -0.00019697881
00000000: f8c0 20bb 8ca7 c23a 93f9 043b 3255 e33b
00000010: 41f5 d03b 786c a23a ba42 8ebb 4ab6 a5bc
00000020: 74dc 86bb bda5 70bb 0ad4 fab8 b982 8abc
00000030: e9c3 9dbb 18af 14bc 2264 48bc f08d 70bc
00000040: 95b5 4cbc ce69 00bc 6e70 a2bb 5fed 09bb
00000050: e374 b9bb 1546 bbbc f4c0 5cbc b40c 4bba
00000060: f871 9bbc 1ef0 09bc 7188 82bb 0d18 20bc
00000070: e2c4 9f3b 4bde f8bb 1993 66bb 6d2f 0f3b
00000080: 3c45 213b d963 ef3b 6da0 febb e212 adbb
00000090: ac4e 06bc e5cb 963a 1891 5c3b 6f5e 4f3c
000000a0: 2783 ef3b 6853 12bc 38a3 c9bb e763 a5bb
000000b0: 5d57 43bc e513 1b3c c7e4 d83b 1216 d0bb
000000c0: c573 623b a416 b23a 5df4 bfbc 45c5 273b
000000d0: b8b5 77bc efa2 16bc 9505 b3bc 7990 933a
000000e0: 69ef f5bb 0d4e 57bc c796 de3c 0445 1ebc
000000f0: c03d 9039 c1a9 51bc 2298 a53c 2985 28bb
00000100: 64ed 603b 7db3 dc3a 2105 153c 4bfd 133a
00000110: 177f 59bc 192b 863b ed14 95bb 2fa1 95bc
00000120: 5e28 7c3b cb60 023b d142 c6bb bb6b 06bc
00000130: 8079 203c 8a82 b3bc 7493 9c3b 94ae a6bc
00000140: 5db2 eebb b634 003b 8088 0a3c 73e7 253c
00000150: 5e41 c2ba 87ed 7dbc d741 933b ccd8 6fbc
00000160: 656d ba3b 2129 9b3b 6480 6c3c c47d b4bb
00000170: cfa9 463b 6142 39bc a0c5 67bc f3b5 a13c
00000180: 71ee eebb 68a2 81bc 4325 323a 198c 4eb9

fc2.weight f4 [50, 100]
0.11109956 -0.0017575182 0.16257043 -0.017852861 -0.004182788 -0.0479494 0.048042204 0.040153693
0.14574552 0.19258069 0.065750495 0.07733232 -0.115073234 -0.05958452 0.06453369 0.13497302
0.07644777 0.04368447 0.16127576 0.0012754336 0.05826241 0.056894504 -0.13274887 -0.13981405
-0.21201491 0.14608213 -0.0018831082 -0.015170924 0.070627645 0.03325715 -0.06618827 -0.039844897
-0.0045460565 -0.1470887 0.10838529 -0.14882885 0.14484619 -0.0651393 -0.05980795 0.2251836
0.22844091 -0.1260773 -0.081039056 -0.058381375 -0.017936638 -0.00021979866 0.016228883 -0.127052
-0.16735974 0.19326213 -0.127475 0.04097274 0.07028454 -0.030460333 -0.023324624 -0.11048398
-0.29519606 -0.078775786 -0.01174908 -0.09146328 -0.10424176 0.09742523 -0.015062371 -0.1509885
-0.10939272 -0.039115142 0.10449135 -0.114268 0.12122335 0.082395084 0.15197766 0.06717992
0.022678262 0.14756143 -0.04946478 0.2171736 0.15029062 0.10254264 0.09959043 -0.07090402
0.08954333 -0.00047803728 0.04482651 -0.20707615 0.0028454904 0.16983265 -0.16288927 0.11451544
0.15013859 0.046696614 -0.122240864 0.077555075 0.13837378 -0.022820545 0.08099164 0.012279627
-0.06781978 0.05465335 0.0650435 -0.043697625 -0.0732068 0.027933564 0.028957924 0.12330385
-0.043442357 -0.12697785 -0.10793016 0.0025058982 -0.008389747 0.027155172 0.08156451 -0.10389302
-0.0073503978 -0.01931474 0.0029061346 -0.08825582 -0.09035498 -0.14401294 -0.07640567 -0.11313494
0.017257966 0.03064317 0.16944796 0.008614946 0.004192692 0.12623471 0.02674796 -0.25544024
0.19607206 -0.032821525 -0.18763126 0.11318422 -0.14390057 -0.11552076 0.0136022 -0.11212018
0.062980495 0.06443327 -0.018557198 -0.004419332 -0.05100708 0.12917654 0.1120891 -0.06838773
0.054158736 -0.006233165 0.23532519 -0.043088958 -0.085473105 0.058509868 -0.09434765 -0.049007848
0.051641338 -0.029245177 -0.06024137 -0.05803308 0.072740644 -0.18066682 -0.019240044 0.016312439
-0.016514504 0.13569665 -0.07583957 -0.15872245 0.1811737 0.21065472 -0.06735815 0.014158203
0.022157928 0.17733909 0.19159764 0.1960725 0.09889958 0.10536217 0.022253051 -0.19698314
0.03713322 0.026515625 -0.054312512 -0.1419637 0.035775717 -0.0055866935 -0.01858738 0.10068348
-0.019781966 -0.061929524 -0.0031940902 -0.14837095 0.05172564 -0.010058604 0.08705274 0.124562584
0.085376985 0.07495557 -0.06298423 -0.115354024 -0.22157052 0.18507451 -0.11732377 -0.17273073
-0.1102895 0.0941832 -0.16812357 0.0020082726 0.03915308 -0.046064556 -0.11011977 -0.0174795
-0.17089085 0.01331411 0.12702323 0.09292935 0.2795167 0.14900397 -0.022858076 -0.2195167
0.0221923 -0.09514011 0.11779769 -0.020495519 -0.089418665 -0.10687579 -0.023265343 -0.055196542
-0.06439302 -0.10486264 -0.119441666 0.03502683 0.21393006 -0.057381496 0.046654526 0.16742507
-0.01427941 0.10133897 0.07485893 -0.14092903 0.077634215 -0.027496716 -0.027410837 0.05652817
-0.002077273 -0.03320301 0.14062718 0.07831235 0.1193349 -0.09442671 0.22187714 -0.036657896
-0.028755603 -0.057175245 -0.11769285 -0.026500585 0.026926965 0.03346274 0.004730992 -0.02215668
00000000: 2b88 e33d 865c e6ba dd78 263e 2a40 92bc
00000010: c50f 89bb 9766 44bd e7c7 443d 3378 243d
00000020: 503e 153e df33 453e 32a8 863d 6860 9e3d
00000030: 84ab ebbd e60e 74bd 3d2a 843d 5e36 0a3e
00000040: a690 9c3d 7dee 323d 7925 253e 732c a73a
00000050: 91a4 6e3d 360a 693d 52ef 07be 6a2b 0fbe
00000060: 701a 59be 8e96 153e a0d2 f6ba 788f 78bc
00000070: 3aa5 903d a638 083d b78d 87bd 6734 23bd
00000080: 16f7 94bb 6c9e 16be 1bf9 dd3d 9766 18be
00000090: 8f52 143e c167 85bd 2ef9 74bd 8896 663e
000000a0: 6aec 693e 681a 01be cef7 a5bd 4f21 6fbd
000000b0: dbef 92bc c179 66b9 6ff2 843c eb19 02be
000000c0: 5a60 2bbe 82e6 453e ce88 02be 08d3 273d
000000d0: 57f1 8f3d f387 f9bc 4813 bfbc 6d45 e2bd
000000e0: f023 97be 3355 a1bd 377f 40bc 1a51 bbbd
000000f0: b47c d5bd e186 c73d 2ac8 76bc bb9c 1abe
00000100: 4a09 e0bd 3337 20bd 90ff d53d 5705 eabd
00000110: f343 f83d c1be a83d 08a0 1b3e a095 893d
00000120: c3c7 b93c 581a 173e 959b 4abd c262 5e3e
00000130: c9e5 193e e001 d23d 11f6 cb3d 2036 91bd
00000140: 7e62 b73d 14a1 fab9 019c 373d c50b 54be
00000150: 687b 3a3b 9ce8 2d3e 72cc 26be 1287 ea3d
00000160: eebd 193e f344 3f3d 6b59 fabd 32d5 9e3d
00000170: dbb1 0d3e 27f2 babc f2de a53d 7d30 493c
00000180: 19e5 8abd 31dc 5f3d 8735 853d 48fc 32bd
00000190: 72ed 95bd eed4 e43c 2b39 ed3c bb86 fc3d
000001a0: 9df0 31bd 7b06 02be 7d0a ddbd ff39 243b
000001b0: 2675 09bc 8674 de3c 4b0b a73d ddc5 d4bd
000001c0: 9bdb f0bb f239 9ebc d974 3e3b 78bf b4bd
000001d0: 080c b9bd 2178 13be 937a 9cbd 4bb3 e7bd
000001e0: 9460 8d3c 6307 fb3c c483 2d3e b425 0d3c
000001f0: da62 893b ac43 013e 8a1e db3c 10c9 82be
00000200: 1dc7 483e dd6f 06bd 6922 40be 21cd e73d
00000210: ac5a 13be 2696 ecbd c3db 5e3c 449f e5bd
00000220: ebfb 803d 97f5 833d 4405 98bc 0bd0 90bb
00000230: cdec 50bd db46 043e f88e e53d de0e 8cbd
00000240: 8dd5 5d3d 943f ccbb 16f9 703e 0c7e 30bd
00000250: 860c afbd 0ba8 6f3d 5739 c1bd 74bc 48bd
00000260: de85 533d 9593 efbc a8bf 76bd 18b4 6dbd
00000270: 0cf9 943d b900 39be 4c9d 9dbc aaa1 853c
00000280: 6d49 87bc 10f4 0a3e c751 9bbd 2388 22be
00000290: 9985 393e dfb5 573e 12f3 89bd cff7 673c
000002a0: 8b84 b53c 6198 353e 2c32 443e 3bc7 483e
000002b0: dd8b ca3d 1fc8 d73d 084c b63c f3b5 49be
000002c0: 0119 183d 4c37 d93c cc76 5ebd ef5e 11be
000002d0: 8f89 123d 9510 b7bb 9044 98bc 2433 ce3d
000002e0: ca0d a2bc d0a9 7dbd f153 51bb 8eee 17be
000002f0: 44de 533d d8cc 24bc b548 b23d ab1a ff3d
00000300: 21da ae3d 4e82 993d e0fd 80bd bb3e ecbd
00000310: 62e3 62be 2c84 3d3e 7247 f0bd 53e0 30be
00000320: 76df e1bd 1fe3 c03d 9628 2cbe 399d 033b
00000330: fb5e 203d 30ae 3cbd 7986 e1bd 2b31 8fbc
00000340: 03fe 2ebe 6d23 5a3c 6112 023e be51 be3d
00000350: d01c 8f3e 7f94 183e dc40 bbbc fcc8 60be
00000360: a0cc b53c d1d8 c2bd ea3f f13d 38e6 a7bc
00000370: 2221 b7bd b2e1 dabd f696 bebc c515 62bd
00000380: 7de0 83bd 39c2 d6bd d59d f4bd 4b78 0f3d
00000390: 7b10 5b3e dc08 6bbd d118 3f3d 7a71 2b3e
000003a0: 30f4 69bc ce8a cf3d a44f 993d b34f 10be
000003b0: b0fe 9e3d cb40 e1bc b18c e0bc 158a 673d
000003c0: dc22 08bb e1ff 07bd 9200 103e 3a62 a03d
000003d0: db65 f43d ca62 c1bd c333 633e 9726 16bd
000003e0: df90 ebbc 9730 6abd f308 f1bd c117 d9bc
000003f0: f095 dc3c 3a10 093d 7006 9b3b ed81 b5bc

fc2.bias f4 [50]
-0.0035335515 -0.00024297168 0.0020480824 -0.030243762 -5.691063e-05 0.004400283 0.01132958 -0.005709246
0.008215005 -0.008899621 0.0036036582 -0.020056238 -0.014023941 0.011848996 0.007273932 -0.0076946593
0.0038226827 0.013527772 0.00028128253 -0.0081542265 0.024058247 0.00067582575 -0.016042434 0.018982884
-0.0088148955 -0.00048910436 -0.001845155 0.0017530015 0.030569933 0.014272984 0.0042123497 -0.009560031
0.004324268 -0.007421047 0.00066920335 -0.01653528 -0.0063603404 0.0007090639 -0.0010497373 -0.017581688
-0.0058530504 -0.0029543308 0.0028937068 -0.016541606 0.004207751 0.021909466 -0.0058581163 0.0030549706
0.012619595 0.004257496
00000000: 2893 67bb 37c6 7eb9 1f39 063b c4c1 f7bc
00000010: 53b3 6eb8 4030 903b b49f 393c a014 bbbb
00000020: 3a98 063c b7cf 11bc 5a2b 6c3b fb4c a4bc
00000030: acc4 65bc 4b22 423c 2a5a ee3b 7b23 fcbb
00000040: f985 7a3b 97a3 5d3c 1a79 9339 4e99 05bc
00000050: cd15 c53c e629 313a 6c6b 83bc fe81 9b3c
00000060: 5a6c 10bc 3d37 00ba 21d9 f1ba f8c4 e53a
00000070: cc6d fa3c 3cd9 693c c007 8a3b ada1 1cbc
00000080: 97b2 8d3b 412c f3bb 7a6d 2f3a ff74 87bc
00000090: 676a d0bb 79e0 393a 5797 89ba 7907 90bc
000000a0: f2ca bfbb 729d 41bb 58a4 3d3b 4382 87bc
000000b0: 2ce1 893b 7b7b b33c 71f5 bfbb e735 483b
000000c0: 6bc2 4e3c 7782 8b3b

ln2.weight f4 [50]
0.98343426 0.98704576 0.9904514 0.9577163 0.98505026 1.0548544 1.022835 0.9863527
0.9860226 0.96189904 0.99174696 0.93024486 0.95845544 0.9904079 0.9907694 0.9794528
0.99185705 0.9833856 1.0379684 0.96496457 1.0209247 0.9836438 0.9879581 1.000423
1.0187632 0.9883532 0.9855369 0.97761595 0.96387035 1.0025227 0.98718005 0.97841805
0.97944635 0.9929898 0.99641234 0.9691646 0.98169047 0.9872448 0.9761801 0.9613044
1.0082462 0.98526335 0.98589486 0.9668616 1.0102863 1.0091765 0.9858366 0.99737144
0.9993621 0.9904443
00000000: 59c2 7b3f 08af 7c3f 398e 7d3f e52c 753f
00000010: 412c 7c3f 7805 873f 42ec 823f 9c81 7c3f
00000020: fa6b 7c3f 043f 763f 21e3 7d3f 8724 6e3f
00000030: 565d 753f 5f8b 7d3f 10a3 7d3f 6bbd 7a3f
00000040: 58ea 7d3f 29bf 7b3f 26dc 843f eb07 773f
00000050: a9ad 823f 14d0 7b3f d2ea 7c3f dc0d 803f
00000060: d566 823f b704 7d3f 254c 7c3f 0a45 7a3f
00000070: 35c0 763f aa52 803f d5b7 7c3f 9b79 7a3f
00000080: ffbc 7a3f 9434 7e3f e114 7f3f 2c1b 783f
00000090: 1150 7b3f 13bc 7c3f f0e6 793f 0c18 763f
000000a0: 360e 813f 383a 7c3f 9b63 7c3f 3e84 773f
000000b0: 1051 813f b22c 813f ca5f 7c3f bc53 7f3f
000000c0: 32d6 7f3f c28d 7d3f

ln2.bias f4 [50]
0.0015438577 -0.0006624698 -0.0032661855 -0.030277282 -0.0033164846 0.015951484 0.020701619 -0.008304593
0.0064140693 -0.019374724 0.0047165947 -0.03238328 -0.015579973 0.0056000757 0.0009523958 -0.012259609
0.0043900963 0.003763873 -0.009711367 -0.016890947 0.014095566 -0.0023744905 -0.010521607 0.015785087
0.0021425078 0.0028370074 -0.0046261083 -0.0056003816 0.020998942 0.009776479 0.00015207735 -0.017203538
-0.0044419365 -0.022839032 0.0008965975 -0.030980822 -0.006867334 -0.011959929 -0.0096072415 -0.018268274
0.004829968 -0.012070786 -0.0071663666 -0.023995899 0.009662344 0.016145961 -0.002434338 -0.0023967703
0.010104821 -0.0017057419
00000000: 455b ca3a 99a9 2dba 800d 56bb 1008 f8bc
00000010: 6159 59bb b0ac 823c 7196 a93c fd0f 08bc
00000020: 1d2d d23b beb7 9ebc aa8d 9a3b 55a4 04bd
00000030: 2543 7fbc d780 b73b 33aa 793a 87dc 48bc
00000040: ccda 8f3b 4fab 763b 6d1c 1fbc e25e 8abc
00000050: 17f1 663c 579d 1bbb d162 2cbc ba4f 813c
00000060: 5169 0c3b 16ed 393b 9c96 97bb 6883 b7bb
00000070: f905 ac3c 862d 203c f476 1f39 6fee 8cbc
00000080: aa8d 91bb ec18 bbbc a409 6b3a 7ecb fdbc
00000090: 5f07 e1bb 94f3 43bc b167 1dbc 59a7 95bc
000000a0: b544 9e3b 8cc4 45bc d7d3 eabb 0c93 c4bc
000000b0: cf4e 1e3c 8944 843c 6a89 1fbb 2213 1dbb
000000c0: b18e 253c 3393 dfba
