Source_combined/ckps/seizure/source/Except_S73/source_F.pt (torch, 557199 bytes, 8 tensors)

fc1.weight f4 [100, 1332]
000000 1f 5c 55 3c 72 f9 a5 3b c3 ae 99 3b b5 fd 73 bc
       0.013022452 0.0050651366 0.0046900227 -0.014892031
000010 48 0b 4b 3a 82 b0 8d 3a af 96 4b 3b 65 26 72 3c
       0.00077455165 0.001081005 0.0031065156 0.014779662
000020 82 98 57 3b 5c a9 b3 3c 99 cd 67 3a 34 4a e5 bb
       0.0032897298 0.021931343 0.0008842587 -0.006997371
000030 10 d3 c2 bc e1 cd a3 bc b7 3d 15 3c 6d ca 85 bc
       -0.023782283 -0.019995632 0.009108952 -0.016331876
000040 5b c0 5a bc 73 a0 25 3b 58 fa 03 bc 0b b9 07 3c
       -0.013351525 0.0025272637 -0.008055292 0.008283864
000050 d5 5a 61 3b 96 59 02 3c 9a c1 49 bb b1 89 0a bc
       0.0034386416 0.007955929 -0.0030785562 -0.00845568
000060 61 d3 4e 3b e0 46 b0 3c 0f 8c 00 3a 1c 81 36 3b
       0.0031559097 0.02151817 0.0004903683 0.0027847951
000070 eb de 5a ba a2 1b 87 3c 4f 36 b1 bc 46 ef 3c bc
       -0.00083492574 0.016492669 -0.021632342 -0.011531657
000080 7a 52 92 bc d2 c9 30 3c 7b 9c c9 bc 23 f9 a3 bc
       -0.017861594 0.010790305 -0.024610749 -0.020016259
000090 af b0 5e bb 45 19 bb bc 99 18 30 bb 17 02 67 3c
       -0.0033979823 -0.022839198 -0.002687013 0.014099619
0000a0 bf bd b9 ba 82 d8 c8 bb 80 15 bb bc 51 9e b2 bc
       -0.0014170929 -0.0061293254 -0.0228374 -0.021804007
0000b0 9c a1 99 3c e5 b5 88 3c f0 bd 0b 3c 6d d8 b0 3b
       0.01875382 0.016688297 0.008529171 0.0053968937
0000c0 a5 78 a2 3c d3 6c 12 3c 9e 20 c2 bc f0 56 91 3c
       0.019832918 0.0089370785 -0.023697194 0.01774165
0000d0 f3 0a 8e bc 22 2e 86 3c ba 72 36 bc ed 69 be 3b
       -0.017339205 0.01637942 -0.011135751 0.005810967
0000e0 82 9a 59 bc 9a 46 88 3b 9f de 89 bc d0 f1 4e bc
       -0.013281466 0.004158807 -0.016829787 -0.012630895
0000f0 ed 1b d3 bc 10 42 8f 3c 9f 2a 6d 3c 49 83 24 3b
       -0.025770152 0.017487556 0.014475494 0.0025102666
000100 44 7d 99 bc 84 8e 57 3c 63 c7 70 bc d8 85 d1 3c
       -0.01873649 0.013156537 -0.014695975 0.025576517
000110 b2 d5 d9 3c 91 b3 83 3c a9 22 bb b9 12 e6 8e bc
       0.026591156 0.016076835 -0.00035693243 -0.01744369
000120 46 54 2c 3c ce 29 6a 3c ee 48 c1 bc 48 4a f4 3a
       0.010518139 0.014292194 -0.023594346 0.001863786
000130 f6 74 86 bc b8 1a 78 ba f4 95 ca 3b 1a f1 96 3b
       -0.016413193 -0.00094644306 0.0061824266 0.0046063783
000140 f8 c8 8b 3c 9b eb 7f 3c 3f 89 4e 3c 9c 75 38 bc
       0.017063603 0.015620138 0.012605964 -0.011258509
000150 3f 1a 06 bd 9b e7 cb bb 1f c1 90 b9 4a 64 ff 3b
       -0.032739874 -0.006222678 -0.00027609707 0.007793938
000160 50 34 a9 3c 53 da fe b8 a0 f9 69 bc 07 d1 79 3b
       0.020654827 -0.0001215233 -0.014280707 0.0038118975
000170 0c 8b 9d bb b4 c8 41 bc dc ff a1 3c 66 5d 56 3c
       -0.0048078354 -0.0118276365 0.019775324 0.013083791
000180 84 83 40 bc e6 7d 48 bc 4c f3 3e 3c a6 31 74 bc
       -0.011750106 -0.012237048 0.011654686 -0.014904415
000190 e5 be 0d bb bc 75 1c 3b 3d 3e 02 bc 2c 5c 44 3c
       -0.0021628675 0.0023873886 -0.007949409 0.011984866
0001a0 79 da c4 bc bb 00 1c 3c 24 0c 01 bc d0 75 f0 3c
       -0.024029957 0.0095216585 -0.00787643 0.029353052
0001b0 9e ab aa 3c ca 37 81 bc 11 39 39 bb 5c 78 a5 bb
       0.020833787 -0.015773673 -0.0028262774 -0.0050497483
0001c0 71 b1 82 3c 0b 71 a5 3c ea da 03 bc 74 32 95 3c
       0.015953751 0.020195505 -0.008047799 0.018212534
0001d0 1f fe 8d 3c 56 a1 b9 3c 0c 50 06 bd 41 9a c5 bc
       0.017333088 0.022659939 -0.032791182 -0.024121406
0001e0 99 ea ba 3a 63 b5 28 3b 41 c1 60 3b 2e 04 d5 bc
       0.0014260589 0.002574288 0.0034294876 -0.02600297
0001f0 15 8d 30 bc 04 ea af 3c c4 5b b8 bc 60 49 b2 3a
       -0.010775824 0.021473892 -0.022504695 0.001360219
000200 08 90 74 3c 8d 15 92 3c 3a f0 08 3b 83 71 e5 bb
       0.014926918 0.017832542 0.002089514 -0.007002057
000210 4b cf ae 3c 1f ab 8f bb 9a 09 6f 3c b7 28 b6 3c
       0.02133908 -0.004384413 0.014589692 0.022236211
000220 47 d6 9c ba 31 8e 71 bc 37 98 d3 bc aa 93 a8 3c
       -0.0011965715 -0.014743374 -0.025829418 0.020578224
000230 c8 bc 66 bb 09 27 12 3c 93 4c 17 3c c3 d0 64 3c
       -0.0035207737 0.0089204395 0.009234565 0.013965788
000240 9e b7 eb b8 2a 2f 50 bc 2f 1f 3c 3c c7 90 c4 3c
       -0.000112398746 -0.012706557 0.011482044 0.023994816
000250 6e 95 b9 bc 48 f8 c6 3c 26 48 c7 3c 02 a4 d9 3c
       -0.022654261 0.024288312 0.024326395 0.026567463
000260 3a 37 4b 3b bc 8f b6 bc 8d 84 93 3c e2 4e 4f 3c
       0.003100826 -0.022285335 0.018007541 0.0126530845
000270 5c 14 9b b9 25 3e 90 3c d3 54 d5 bb 36 2a 62 3c
       -0.00029579073 0.017607758 -0.006510356 0.013804009
000280 3e 4a bf bc 2e fb 18 3c fd 3a 80 bb ec 8d a5 3c
       -0.023350831 0.00933723 -0.003913282 0.020209275
000290 63 e7 30 bc 71 a9 dd bb e6 4a df bc 6c c0 19 bc
       -0.010797354 -0.0067645838 -0.027257394 -0.009384256
0002a0 b4 4c 2d 3b 2a 92 35 3a d2 64 93 bc 80 37 31 39
       0.0026443424 0.0006926382 -0.01799241 0.00016900711
0002b0 c3 64 1c 3c 40 1a 39 bb 86 64 df bc 90 43 c9 3b
       0.009545508 -0.0028244406 -0.027269613 0.0061420873
0002c0 bd a4 ef 3b 43 36 b0 3c bf fc ce 3b 20 95 6b 3b
       0.0073133395 0.021510249 0.006316751 0.003594704
0002d0 10 0d 47 3c 93 ff 33 3b b1 58 57 bc bf 5a 91 bc
       0.01214911 0.0027465567 -0.013143704 -0.017743466
0002e0 7e 1c 0a 3c 93 35 99 3c b3 fa cc 3c a9 3b dd bc
       0.008429645 0.018702304 0.025021886 -0.027005987
0002f0 dd 79 ea 3b e7 fb 71 3c 90 ab a0 bc 2e c5 8c bc
       0.0071556405 0.014769531 -0.019613057 -0.017183866
000300 de e4 89 bc f7 89 e9 bb b7 3a 43 3b 13 3b 93 3c
       -0.016832765 -0.0071270424 0.0029789635 0.017972505
000310 85 42 82 3c fc f2 26 3b 01 e6 22 3d 5b ce 10 3c
       0.01590086 0.002547442 0.03977013 0.0088382615
000320 b4 01 e0 3c 20 81 ad bb 98 76 a3 bc 37 2c c3 bc
       0.027344562 -0.005294934 -0.01995401 -0.023824794
000330 8f 4d 35 bc 53 6c 2e bc bf 98 4b 3c 87 3c 19 3c
       -0.011065855 -0.010645944 0.012426554 0.00935281
000340 d4 93 43 bc a5 bd cf bc c5 f8 ca 3b 2d 72 84 bc
       -0.0119371 -0.025358984 0.0061942064 -0.016167725
000350 7d e7 1a 3c 4a 97 60 bb 17 1e 0d 3c 9a 07 b7 3b
       0.009454605 -0.0034269863 0.008613131 0.005585623
000360 88 84 6b ba 5d 03 3a bc 31 d6 de bc cb bc f4 3c
       -0.0008984287 -0.011353341 -0.027201744 0.02987518
000370 37 d2 89 bb 51 c4 a2 3b ec 85 a5 3c 5c fb d6 bc
       -0.0042059678 0.0049672504 0.02020546 -0.026242904
000380 4a 71 27 bc 4b 4a f9 bb 7e d6 52 bc 03 b0 5d bc
       -0.010219881 -0.0076077334 -0.012868522 -0.013530734
000390 51 da 6c bc d3 93 d9 39 be bf 25 bc d9 a3 17 3c
       -0.014456348 0.00041499603 -0.010116516 0.009255373
0003a0 74 c1 b0 3c a2 c8 10 bd d7 5e c1 bb 4c ba 78 bc
       0.02157662 -0.03534759 -0.0059011984 -0.015181135
0003b0 48 b1 70 bc 12 40 8a 3b ac e3 8a 3c 3e 70 f7 3b
       -0.014690705 0.0042190636 0.016954266 0.007551222
0003c0 c8 69 00 bb f4 f7 89 bc 5f eb 8c bc 46 85 bf 3c
       -0.00195943 -0.016841866 -0.017202077 0.02337898
0003d0 6b e3 22 bb 67 ca 0f bc 9a 66 df 3b c0 1b 2a 3c
       -0.002485479 -0.008776284 0.006817651 0.010382593
0003e0 b3 6e 05 bc 61 99 c0 3a d0 d5 ad bb e1 86 38 3c
       -0.0081440685 0.0014694148 -0.0053050295 0.011262626
0003f0 aa e2 85 3b cc 9e 17 3c 29 4f 16 3c 9a 5d 4b 3c
       0.0040858584 0.009254169 0.009174147 0.012412453

fc1.bias f4 [100]
000000 9a ad 2c 3c 53 e4 7e bc a0 62 70 3c 95 16 c4 bc
       0.010539437 -0.015557366 0.0146719515 -0.02393655
000010 09 cd c3 3c 1e 38 52 3c 07 92 85 3c 36 8c ba bb
       0.02390148 0.012830762 0.016304983 -0.005692984
000020 29 e1 28 3c 26 cb 07 3b f4 6f 7f 3c 21 ed 30 3c
       0.010307589 0.002072045 0.015590657 0.010798723
000030 68 6e 79 3b cd 91 99 3b 54 88 00 3c f3 d4 32 3c
       0.0038060192 0.0046865703 0.007845003 0.010915029
000040 f4 e1 4c 3c 8b 14 23 bd 17 8c 89 bc 35 cb 24 3c
       0.012505043 -0.039814513 -0.016790433 0.010058214
000050 89 e5 bb 3b 83 74 b2 3b de 3e 47 bb f4 8d 81 bc
       0.00573415 0.005446018 -0.0030402462 -0.015814759
000060 b1 86 88 3b 0c 4d c4 3c cd 04 7d 3b f2 77 1d 3c
       0.004166447 0.02396252 0.0038607598 0.009611117
000070 93 3a 7d 3b b3 bd 21 bc 92 94 cf bb 74 ce d4 3b
       0.003863965 -0.009871888 -0.0063348496 0.0064943377
000080 b1 15 c8 3c aa c4 20 bd ea 1d fb bb 16 7d e3 3c
       0.024424406 -0.039250053 -0.007663478 0.027769607
000090 5e ca 79 3c d7 64 66 bc e0 19 08 bc a9 34 8c 3c
       0.015246002 -0.014062128 -0.00830695 0.017114954
0000a0 9f 57 e0 bb b1 e9 47 3c 8e b6 8c bc 68 0c 45 3c
       -0.0068463827 0.0122017125 -0.017176893 0.012026884
0000b0 b2 11 36 bb 32 c6 0f bb eb ab da 3c c5 cf 3f bc
       -0.0027781543 -0.0021938202 0.026693305 -0.011707251
0000c0 a2 e3 0a 3c c3 6c b3 bc d9 ef 7f 3c eb 6c 56 3c
       0.008477123 -0.021902448 0.015621149 0.0130874915
0000d0 b5 a9 0c bd 1f d1 f4 3c 96 62 9a bc 2b 27 fd bc
       -0.034341533 0.029884873 -0.018845838 -0.030902466
0000e0 24 c1 9e 3c cd 06 5c 3c 02 bc c3 ba 93 d4 81 3c
       0.019379206 0.013429356 -0.001493335 0.015848434
0000f0 ad 71 1b 3c b7 f8 a5 bb 0d ee f4 bb 7b 95 b5 bb
       0.009487552 -0.0050650495 -0.007474667 -0.005541501
000100 9b 24 11 3d 45 7e c0 bc 23 d1 cd 3b 04 2d a1 bc
       0.0354353 -0.02349771 0.0062810346 -0.019674785
000110 75 be 67 bc 7b f2 1e bc cf 5c 26 3d 22 10 06 bc
       -0.01414453 -0.009701367 0.040615853 -0.008182557
000120 c8 d5 32 bd bc 87 08 bb 7a b8 32 3c de 3c f3 3c
       -0.04366091 -0.0020832857 0.01090824 0.02969211
000130 04 e7 4e 3b 5b c6 64 3c 75 14 8f 3c 70 ef d5 3c
       0.0031570802 0.013963307 0.01746581 0.02611515
000140 6f c1 42 bb 16 12 c8 bc 13 55 00 bd b9 21 d5 3a
       -0.0029717346 -0.024422687 -0.031331133 0.001626066
000150 85 c9 04 bc aa 48 92 b9 5f 11 c3 3c 38 bd 2c 3b
       -0.008104687 -0.0002790143 0.023811994 0.00263579
000160 e3 0c b8 bb 6c 0b b7 bc 60 85 5f 3c e3 85 bb bc
       -0.0056167706 -0.022344314 0.013642639 -0.02289099
000170 8f e3 a4 ba f1 d9 c0 3c 72 ac 90 3c b0 fe 94 bc
       -0.0012580025 0.023541423 0.017660353 -0.01818785
000180 2c 7f 95 3b 9d 06 06 3d fd b9 1d 3c 92 33 98 3c
       0.004562279 0.03272115 0.009626863 0.018579278

ln1.weight f4 [100]
000000 d5 56 76 3f 85 ee 75 3f c3 04 75 3f 2f 03 77 3f
       0.96226245 0.96067077 0.9571039 0.9648923
000010 e5 b9 75 3f a7 3b 75 3f b8 d0 75 3f 0e 69 75 3f
       0.9598678 0.9579415 0.96021605 0.95863426
000020 d4 f7 75 3f b5 00 74 3f 53 92 76 3f 12 67 77 3f
       0.9608128 0.9531358 0.96317023 0.9664165
000030 0f eb 74 3f 8c 26 77 3f 5f 94 75 3f b6 4f 75 3f
       0.9567117 0.9654319 0.9592952 0.95824754
000040 f4 43 75 3f 04 ad 77 3f aa dc 77 3f 86 58 75 3f
       0.95806813 0.96748376 0.9682108 0.958382
000050 91 65 75 3f e8 0a 76 3f c8 11 75 3f 01 dd 76 3f
       0.95858103 0.9611039 0.9573026 0.96430975
000060 46 75 76 3f 89 16 77 3f 8e 5e 75 3f e7 89 76 3f
       0.96272695 0.9651876 0.95847404 0.9630417
000070 c3 90 77 3f a4 4d 75 3f f5 c6 75 3f ff 10 75 3f
       0.96705264 0.95821595 0.9600671 0.9572906
000080 ca 7d 76 3f 8c 48 76 3f 8a b8 78 3f 87 a7 74 3f
       0.9628569 0.9620445 0.97156584 0.95568126
000090 c1 9b 75 3f c4 e3 75 3f aa 09 76 3f ac 4d 76 3f
       0.95940787 0.9605067 0.96108496 0.9621227
0000a0 14 90 75 3f 6b 79 76 3f 55 cb 75 3f 17 58 75 3f
       0.9592297 0.9627902 0.96013385 0.9583754
0000b0 27 e6 75 3f 5a 7a 77 3f 56 84 76 3f 55 8e 77 3f
       0.9605431 0.9667107 0.9629568 0.96701556
0000c0 74 29 76 3f db cb 76 3f c1 ed 75 3f 6c 1e 75 3f
       0.96157 0.9640481 0.9606591 0.95749545
0000d0 ef 89 76 3f 53 39 76 3f 04 38 76 3f 42 91 77 3f
       0.9630422 0.9618122 0.96179223 0.9670602
0000e0 3b 04 77 3f 82 86 74 3f af 79 76 3f 4c 3d 76 3f
       0.9649083 0.9551774 0.96279424 0.9618728
0000f0 90 53 73 3f 5a 11 76 3f 15 d5 75 3f 59 6a 75 3f
       0.9504938 0.96120226 0.9602826 0.958654
000100 2d 4a 74 3f 31 51 74 3f 4b c2 75 3f bc 39 77 3f
       0.95425683 0.9543639 0.9599959 0.9657247
000110 0c 31 75 3f 1a 65 76 3f 77 ed 74 3f d4 ba 76 3f
       0.95777965 0.9624802 0.9567484 0.9637883
000120 2a 90 76 3f d0 01 76 3f 71 ea 75 3f 6d 66 76 3f
       0.96313727 0.96096516 0.96060854 0.9625004
000130 f6 ad 77 3f 10 4c 77 3f 2b b4 76 3f d0 ec 76 3f
       0.9674982 0.9660044 0.96368665 0.964551
000140 b1 b9 75 3f 41 e7 76 3f cd fa 75 3f e2 cf 76 3f
       0.9598647 0.96446615 0.96085817 0.96410954
000150 4a fe 74 3f 46 ac 77 3f 74 5b 73 3f de 38 74 3f
       0.95700514 0.96747243 0.9506142 0.9539927
000160 53 32 76 3f 7f 9c 75 3f 7f 1c 76 3f 28 d7 74 3f
       0.9617054 0.9594192 0.9613723 0.956408
000170 b2 75 75 3f 52 63 75 3f 48 27 75 3f 49 1d 74 3f
       0.95882714 0.95854676 0.95763063 0.95357186
000180 ac cb 78 3f 0e 17 76 3f ff 89 75 3f 3b 6a 75 3f
       0.9718578 0.9612893 0.9591369 0.9586522

ln1.bias f4 [100]
000000 4d 72 74 bb 24 31 11 bc 7f ef fb bb e0 e0 c9 ba
       -0.0037299574 -0.008861814 -0.0076884623 -0.0015402101
000010 63 08 f2 ba d6 0c 23 bc a4 d9 1f bb 72 85 ea bb
       -0.0018465634 -0.009951791 -0.0024391199 -0.007157021
000020 f4 91 18 bc d0 02 ec bb 30 10 14 3a 79 46 d4 3b
       -0.009312142 -0.0072024837 0.0005648164 0.0064781276
000030 6e 77 49 bc 86 5a 32 ba 11 1b bc bb 74 c9 d7 bb
       -0.012296541 -0.000680365 -0.0057405313 -0.0065852944
000040 2c 3f ff bb 4e d7 c6 bb 13 03 e2 bb e8 7d 0f bc
       -0.007789513 -0.006068147 -0.006897339 -0.008758046
000050 14 46 1d bc b9 a1 8f bb a9 c0 84 bb 7c 3e 96 b9
       -0.009599227 -0.0043832925 -0.004051287 -0.00028656784
000060 7a 8f 58 ba 34 0e 07 bc 4f 27 dd b9 6a 39 97 ba
       -0.0008261126 -0.008243132 -0.00042181692 -0.0011537496
000070 98 16 c8 ba 30 06 c9 bb 04 cf bf bb 17 c8 bd bb
       -0.0015265523 -0.006134771 -0.0058535356 -0.005791675
000080 5a ba 85 bb 7f 6d 9f bb b5 3e 14 b9 7d a5 77 bc
       -0.0040810527 -0.004865348 -0.0001413774 -0.015115139
000090 fe 10 7a bb 23 a8 44 bc 3c 5e b2 ba 93 ff b8 3a
       -0.00381571 -0.012002978 -0.0013608406 0.0014114253
0000a0 bd 3c d6 bb 3d 6f e1 bb ce 56 23 bc c2 f8 2f bc
       -0.0065380023 -0.0068797157 -0.009969426 -0.010740461
0000b0 c8 36 bd ba 5f cc 8d bb e1 80 f4 3a e0 c1 e7 ba
       -0.0014435882 -0.0043273414 0.0018654132 -0.0017681681
0000c0 87 a9 0b bb 28 c6 c6 bb f6 40 56 bb ce 3e ca bb
       -0.0021310763 -0.0060661025 -0.0032692528 -0.0061720377
0000d0 0a d3 51 bb c7 42 4c 38 49 22 86 bb be 0d 80 bb
       -0.0032016658 4.869958e-05 -0.0040934426 -0.003907888
0000e0 78 0a 4b 39 66 b5 18 bc fa 8a dc ba 0e 98 81 bb
       0.00019363489 -0.0093205925 -0.0016826086 -0.003954894
0000f0 88 d1 8f bc 60 b5 5f bb 3e 33 2b bb 11 7b f8 bb
       -0.017555967 -0.0034135208 -0.0026123072 -0.00758303
000100 e2 54 95 bb a0 ad 2f bc f5 7b cf bb 23 ce 0f 3a
       -0.004557238 -0.010722548 -0.0063319155 0.0005485734
000110 dd 77 af bb 02 8a 3f bb 20 34 81 bb d3 4d e9 3a
       -0.005354865 -0.0029226546 -0.0039429814 0.0017799683
000120 46 3e a3 bb f6 07 1d bc 75 b2 2a bc b4 16 e2 bb
       -0.004981789 -0.009584418 -0.010418524 -0.006899679
000130 30 66 21 3b b6 98 4f 39 b8 65 9e bb 36 37 e2 39
       0.002462756 0.00019797948 -0.004833903 0.00043147214
000140 b0 45 95 bb 2a ad 47 bb 20 19 53 bc fb 1c 49 b9
       -0.0045554265 -0.0030468204 -0.012884408 -0.0001917965
000150 20 81 16 bc e1 cc f3 3a 48 ac d8 bc 64 a5 49 bc
       -0.009186059 0.0018600487 -0.026449338 -0.012307499
000160 5d fb a7 bc f4 7d 05 bc 58 a2 8f bb 4d d7 1c bc
       -0.020505602 -0.008147705 -0.0043833666 -0.009572816
000170 51 cf 98 bb 27 0c bf bb be d3 8c bb 98 86 a9 bc
       -0.004663386 -0.005830306 -0.0042977026 -0.020694062
000180 a0 3f ae ba 53 02 33 b8 4f 0b 10 bc 52 cd b1 b9
       -0.0013294108 -4.267909e-05 -0.008791759 -0.00033913046

fc2.weight f4 [50, 100]
000000 8a f9 20 3d aa 8a 96 bc 6c 12 a0 3c bb ad 33 bd
       0.03930048 -0.018376667 0.019540034 -0.043866854
000010 92 fa af bd 40 fc 2f bd 8a 2f 3f 3d 7a 45 38 be
       -0.08592714 -0.042965174 0.046676196 -0.17995253
000020 9e 75 f4 bc 28 e1 f4 3d be 72 5d bd 6f ab 9d bd
       -0.02984124 0.11957008 -0.054064505 -0.07698714
000030 95 27 2a 3e d5 08 1c be 99 f6 1a 3d 27 89 78 bd
       0.16616662 -0.15237744 0.03783283 -0.060677674
000040 2a 8d 1d be 63 e0 ef 3d 9b ba 4b 3b e9 6f 01 be
       -0.15385881 0.1171272 0.0031086567 -0.12640347
000050 12 3e 3a bd a7 d3 c9 bd 09 f2 b3 bd f9 74 91 be
       -0.04546935 -0.098548226 -0.08786399 -0.28409556
000060 83 09 61 be f7 1c 1b bd d4 45 20 be 46 a5 a8 bd
       -0.21976285 -0.03786942 -0.15651637 -0.082346484
000070 77 e8 98 bd 83 cf 90 3d f5 ac 93 be e4 66 ec 3c
       -0.07466214 0.0707083 -0.28842893 0.028857656
000080 f1 82 de bc 65 91 6a 3e 84 94 2b be dc b5 16 be
       -0.027162047 0.22907026 -0.16755873 -0.14717811
000090 61 a0 82 3e 50 e1 22 bd 27 30 88 bd 24 ea 1a 3e
       0.25512984 -0.039765656 -0.06649809 0.1512838
0000a0 bb e5 8e 3e ee 1b 20 be b8 1c 3b bd 92 6f 28 3e
       0.27909645 -0.15635654 -0.045681685 0.1644881
0000b0 a5 18 47 bd 8d be 21 3d 29 40 e1 bd a2 bd 0a be
       -0.048607487 0.039488364 -0.10998566 -0.13548902
0000c0 35 47 7b be ed 08 bc bc e7 88 c6 3d 97 0a 95 3e
       -0.24538882 -0.022953475 0.09694081 0.29109642
0000d0 95 a2 29 bd 06 81 93 3b c8 c1 4e bd fa b4 a3 3d
       -0.041414816 0.004501465 -0.050477773 0.07993503
0000e0 53 7f c9 bc dd d9 12 3d f5 e7 14 3c f6 60 f8 3d
       -0.024596846 0.035852302 0.009088506 0.12127869
0000f0 bc 09 16 3e 72 91 14 be cd 1c 70 be c7 98 68 3e
       0.14652151 -0.14508608 -0.23448487 0.2271453
000100 0c 94 3b 3e 19 16 28 3e b7 1c 45 3d ed c6 50 3e
       0.18318194 0.1641468 0.048123088 0.20388384
000110 34 06 b0 3d df bb 88 3d 6b 22 0b be da 7c 40 3d
       0.08594933 0.066764586 -0.13587348 0.046994068
000120 04 24 5a be 60 51 6a 3c 01 4a 29 3e e0 bf 70 bd
       -0.21302801 0.014301628 0.16532136 -0.058776736
000130 7f 93 7a 3c 2e a7 10 be d6 6f 9d 3d 32 86 c8 bd
       0.015293955 -0.14126274 0.07687347 -0.09791221
000140 f4 e6 96 3d d1 aa 39 3e a3 67 5f 3b 50 86 90 3e
       0.073682696 0.18131568 0.0034088872 0.28227472
000150 52 97 8d 3b 16 39 f8 3c ca c9 49 be 11 49 7f 3d
       0.0043210173 0.030300658 -0.19705883 0.06232554
000160 22 88 43 3e 72 85 08 3e c5 06 43 3e 37 79 2d 3d
       0.190949 0.13332155 0.19045551 0.042351928
000170 8e 75 35 3e 72 d3 c4 bd a7 2d f7 bd ea 7e 92 3e
       0.17720625 -0.096106425 -0.12069254 0.28612453
000180 ca ab 75 3d 01 a1 5f bd 03 d2 3e bd c6 9e e2 3d
       0.059978284 -0.054596905 -0.046587 0.1106544
000190 e3 cf 10 3d 2d 7f 67 3e 79 54 9d bd 7d d9 8b 3d
       0.035354506 0.22607107 -0.076821275 0.06828592
0001a0 ec 87 78 3c a1 39 1f 3e 62 5a ad bd 9f be a4 bc
       0.015169125 0.15549327 -0.08464505 -0.020110426
0001b0 e3 4b 14 bd 4a 68 89 bd 5b 56 41 3c ca 4c 22 3e
       -0.036205184 -0.06709345 0.011800374 0.15849605
0001c0 50 9e f0 3d 5a ab f3 3d 2f 5e 1a b9 1b 22 be bc
       0.11748946 0.11897917 -0.0001472167 -0.023209622
0001d0 5a 78 2d 3d 40 0f 2a be f9 a5 42 3d 65 99 07 be
       0.042351104 -0.1660738 0.047521565 -0.13242109
0001e0 7f e5 64 bd af fd 10 bd f5 59 02 3d 5a 20 72 bc
       -0.055882927 -0.03539818 0.03182407 -0.014778221
0001f0 27 1a 06 be b4 bf 67 3e cd fa 43 bd 57 17 c7 bd
       -0.13095914 0.22631723 -0.047846604 -0.097212486
000200 2c 97 74 3d 44 6b d7 ba 0b 1d 0f 3e c2 ec 75 3d
       0.05971448 -0.0016435166 0.13975923 0.060040243
000210 0c 51 03 bc ac 9b 63 bc 50 e2 60 be 7c 72 f3 bd
       -0.008014929 -0.013892096 -0.21961331 -0.118870705
000220 15 5c 3d be 23 43 0d bc 95 06 7e 3e 21 c8 3d 3e
       -0.18492158 -0.008621964 0.24807198 0.18533374
000230 4b e2 f3 3d b2 49 bf bc 62 18 e7 3d 92 cc 76 3d
       0.11908396 -0.02335057 0.112839475 0.060253687
000240 c0 cf a0 bd ea a0 34 bc 68 58 30 be 48 8a 95 bc
       -0.07852125 -0.011024693 -0.17221224 -0.018254414
000250 ab 38 31 3d 57 9e 07 bd a1 6b f7 bd 9d 43 24 3d
       0.043266933 -0.03310999 -0.120810755 0.040103544
000260 fe 20 5b 3c 30 5a a1 3c f6 81 3e 3e 47 0d 33 3e
       0.013374565 0.019696325 0.18604264 0.17485534
000270 64 a0 b0 3d 42 74 61 3d 48 c5 38 be 84 9c 8e 3c
       0.08624342 0.055042513 -0.18044007 0.017408617
000280 0f 29 27 3c a3 7b 23 3d 63 54 4d be d2 74 24 3c
       0.01020266 0.03991283 -0.20051722 0.010037618
000290 ff e1 4c be d2 bc 28 be 8f ac 45 bd c3 ae 41 bd
       -0.20008086 -0.16478279 -0.048260268 -0.047285806
0002a0 45 c3 15 3b 9e de be 3b 60 56 44 3e 84 f9 12 3e
       0.0022851985 0.005824878 0.19173574 0.14352995
0002b0 b5 ba e1 3a 57 dd 26 3e 95 91 ac b9 a7 a5 8a bd
       0.0017221781 0.16295372 -0.00032914864 -0.06769877
0002c0 a2 34 d6 3d 78 aa 64 3c fc be 26 be 5c 55 65 be
       0.10459258 0.013956659 -0.16283792 -0.22395843
0002d0 90 34 82 3d 20 54 15 3e 7e 40 8d 3d a2 4c 11 3d
       0.06357682 0.14582872 0.068970665 0.035473473
0002e0 f8 d7 c7 bd ad e2 53 bb 31 16 af 3d f9 b4 f7 3d
       -0.0975799 -0.0032331154 0.085491545 0.12095065
0002f0 d1 80 dc 3c 22 fb 27 3e 2b 96 95 bd b2 f1 4a 3d
       0.026916893 0.16404393 -0.07304033 0.049546905
000300 ed 2e 5d bd f0 32 3e be bc 7c 10 be ce d9 56 3a
       -0.05399983 -0.18574119 -0.14110082 0.00081959076
000310 34 d2 d6 bd 53 e1 fe bd d3 1a ac bd e7 d0 36 be
       -0.10489312 -0.12445321 -0.08403554 -0.17853127
000320 1a a7 cd 3d a2 31 3f be 01 da 39 3e 2c 37 f4 3d
       0.10041638 -0.18671277 0.18149568 0.11924586
000330 d4 29 b1 bd 21 18 1d be 59 d4 d1 bd e1 5f ff 3c
       -0.08650556 -0.15341236 -0.1024558 0.031173648
000340 1c 07 b0 3d 19 63 76 3e 55 b1 82 bd e5 6a 6d 3d
       0.08595106 0.2406124 -0.0638148 0.05796327
000350 72 71 23 be 1a 56 46 bd 0a 28 9b 3b da 05 8c bc
       -0.15961245 -0.048421957 0.0047349976 -0.017092634
000360 65 eb 29 3e a2 7f 9c bd 3e 80 8b 3d 3e 93 fb 3d
       0.16593702 -0.076415315 0.0681157 0.122839436
000370 65 f8 fb ba 6d 44 94 3b 10 a1 6a bd 45 e0 62 bd
       -0.0019223808 0.0045247586 -0.057282507 -0.05538966
000380 28 1d 7d bd ac 5b b1 bd d0 b3 f4 bd 4b c0 b2 3d
       -0.061795384 -0.08660063 -0.11948359 0.08728083
000390 47 3b 7a bb 06 f0 25 be e2 4d d7 3c 66 fd e8 3d
       -0.0038182305 -0.16204843 0.026282255 0.11376457
0003a0 b2 ce c2 bc 69 d7 b2 be 48 68 2e bd ef 49 0f 3e
       -0.0237802 -0.3492997 -0.04257992 0.13993047
0003b0 e7 be 59 bd 56 74 e1 3b 15 51 b3 3d ce 37 22 3c
       -0.053160574 0.0068803234 0.087556995 0.009901
0003c0 ea 8c 27 bd 46 12 d5 3d 45 82 e3 3d f6 0b b2 3d
       -0.04090587 0.10403876 0.11108831 0.086936876
0003d0 58 59 09 3e 08 1f 2b be 4f 48 46 3d 9c 2b aa bd
       0.13412988 -0.16711056 0.048408803 -0.08309099
0003e0 7f ea 12 be 3c 16 a4 3c a1 f7 33 be 8e 0b 26 be
       -0.14347266 0.020030133 -0.17574932 -0.16215345
0003f0 7a 64 23 3d 9d 2a 13 be 84 6b 13 bd da 05 87 bc
       0.039890744 -0.14371724 -0.035991207 -0.016482282

fc2.bias f4 [50]
000000 df 93 0a bc 28 2d c8 3b 5c 1f cf 3b d3 73 f4 3b
       -0.008458107 0.0061088987 0.006320877 0.0074600964
000010 43 d1 8a bb e7 49 2c 3b ee 65 fc bb 82 28 3f 3c
       -0.0042363717 0.0026289166 -0.0077025807 0.011667373
000020 2a 50 1d 3a 7d 0d 23 3c 12 6e 25 3a 25 0a 09 3c
       0.000600102 0.009951946 0.0006310652 0.008364235
000030 de 45 b5 ba 8b eb 61 3b bb 88 da 38 ac 9b 30 3c
       -0.0013830026 0.003447267 0.00010420518 0.010779303
000040 1b ec 76 bb c8 98 5c bc c8 ed 73 bc 3f c9 f7 3a
       -0.003767735 -0.01346416 -0.014888234 0.001890458
000050 ca 1f 02 bb ff ac 21 bc bc 4b 0c bc 55 91 08 bc
       -0.0019855374 -0.009867906 -0.008562978 -0.008335431
000060 7a d3 9b 3c c7 72 8f 3c a1 54 32 bc 40 9c 5c 3c
       0.019021738 0.017510785 -0.010884435 0.013464987
000070 b1 a4 55 3c 35 de 84 3b df 81 3d 3c 89 79 9b 3b
       0.013039754 0.0040548095 0.011566608 0.0047447127
000080 9b 1b 9a bc 90 8e 2e 3b 73 a5 84 ba 90 28 55 ba
       -0.018811991 0.0026635267 -0.0010120108 -0.00081313495
000090 1a 8d 0a bc 3e da 64 38 95 93 0c ba df 8f 70 bb
       -0.008456493 5.456269e-05 -0.00053625676 -0.0036706848
0000a0 49 8e 5c bc 90 df 71 bb 06 5c 25 bb a8 24 e3 bb
       -0.013461658 -0.0036906935 -0.0025231852 -0.00693186
0000b0 b6 be 45 bc 06 5a 1f 3c 8a c2 6a bc 12 0a 8d 3b
       -0.012069395 0.009726053 -0.014328608 0.004304179
0000c0 c5 24 4b 3b f6 77 d9 3b
       0.0030997258 0.006636615

ln2.weight f4 [50]
000000 66 b2 7b 3f 77 7c 77 3f b5 dd 76 3f 99 a0 79 3f
       0.9831909 0.96674293 0.9643205 0.9751068
000010 ea 7d 78 3f d8 6b 78 3f e6 6f 75 3f fc 04 7a 3f
       0.9706713 0.97039557 0.9587387 0.97663856
000020 8c 4e 77 3f d7 4b 76 3f eb 96 77 3f ca b3 7c 3f
       0.9660423 0.9620947 0.9671466 0.98711836
000030 d2 51 79 3f a0 c4 76 3f 9a 74 78 3f ec f6 75 3f
       0.9739047 0.96393776 0.9705292 0.960799
000040 11 eb 76 3f 3b d8 75 3f 97 f6 75 3f 39 bd 78 3f
       0.9645243 0.96033067 0.9607939 0.9716373
000050 2b 05 79 3f a5 07 7a 3f 12 07 78 3f 82 c5 79 3f
       0.9727351 0.97667915 0.9688579 0.97567
000060 12 02 76 3f 26 13 76 3f 4b 39 76 3f 44 56 76 3f
       0.9609691 0.9612297 0.9618117 0.9622538
000070 07 bc 79 3f 29 41 79 3f 52 6d 76 3f 35 50 76 3f
       0.9755253 0.9736505 0.9626056 0.96216136
000080 ae 8c 79 3f 73 03 78 3f 2d d3 75 3f 9a 3b 76 3f
       0.97480285 0.96880263 0.96025354 0.96184695
000090 3e db 75 3f 2f f2 76 3f cd 30 76 3f 50 f6 78 3f
       0.9603766 0.9646329 0.96168214 0.97250843
0000a0 78 a5 7f 3f 3c 03 7a 3f 44 a1 75 3f c3 d1 79 3f
       0.9986186 0.97661185 0.95949197 0.97585696
0000b0 2a d1 7a 3f 7e 30 76 3f 72 e4 7e 3f 4d 61 78 3f
       0.9797541 0.96167743 0.9956733 0.9702347
0000c0 8d 29 7b 3f 17 f8 75 3f
       0.98110276 0.9608168

ln2.bias f4 [50]
000000 b5 23 df ba bf 25 46 39 19 5c ba 3a 29 49 85 ba
       -0.0017024191 0.00018896813 0.0014218121 -0.0010168898
000010 ef 6f 6e 3b fa e3 05 ba 72 ad 07 bb 91 96 2c ba
       0.0036382636 -0.00051075185 -0.0020702747 -0.00065837154
000020 35 08 3f bb 81 7a 89 ba a7 6d 4a bb 98 73 3b 3b
       -0.002914918 -0.001048878 -0.0030888112 0.0028602835
000030 0f 7e 95 3a 0a ce 63 b9 16 b7 8f bb 80 e9 da b9
       0.0011405366 -0.00021725163 -0.004385839 -0.0004175417
000040 c4 bf 81 b9 ac ad 09 bb c6 a2 17 bb 1f 53 26 bb
       -0.00024747674 -0.0021008058 -0.0023137792 -0.0025379134
000050 75 3c 28 ba 59 d1 94 bb 24 29 f9 3a 29 c0 07 bc
       -0.00064177 -0.0045415577 0.0019009453 -0.008285561
000060 08 cc 98 b7 eb 3e 0f 3a 16 ef 89 bb 6d 90 de 3a
       -1.8214821e-05 0.00054643926 -0.0042094095 0.0016980298
000070 9b a5 b8 3b a6 7c b8 ba e4 92 bd 37 68 0f 26 3a
       0.005634976 -0.0014075234 2.2598957e-05 0.0006334693
000080 b4 22 92 bb d1 ff 5a 3b de 74 9d ba df ee db ba
       -0.0044597033 0.0033416639 -0.0012012979 -0.0016779563
000090 31 21 57 ba e1 f6 4f 3a df dd 97 3a 8b fe 82 bb
       -0.0008206545 0.0007933211 0.0011586508 -0.003997629
0000a0 2f 47 f9 bb 47 ec 92 bb 96 2d b2 ba 88 ad 95 bb
       -0.0076073627 -0.004483733 -0.0013593908 -0.0045678057
0000b0 27 96 52 bb c3 af a5 b9 df a9 f6 bb 56 bd d2 ba
       -0.0032132955 -0.00031602205 -0.0075275744 -0.0016078155
0000c0 34 dc 91 3b ab b3 27 ba
       0.004451299 -0.0006397317
