Source_combined/ckps/seizure/source/Except_S5/source_C.pt (torch, 1763 bytes, 3 tensors)

fc.bias f4 [2]
0.022238133 -0.022239551
00000000: bf2c b63c b82f b6bc

fc.weight_g f4 [2, 1]
0.7188388 0.7971146
00000000: d205 383f b40f 4c3f

fc.weight_v f4 [2, 50]
-0.015734121 -0.16329001 -0.15280603 0.07480969 -0.04952172 -0.052522756 0.06547144 0.108461544
-0.044948004 -0.15642247 0.083973005 0.076678805 0.084493205 -0.23774685 0.1781634 -0.12125833
0.22274905 -0.020055436 0.11915053 0.0042384034 0.056570068 0.01825353 0.051590897 0.08322374
-0.036668535 0.03653023 -0.06455343 0.026205225 -0.027542293 0.17129606 -0.20309043 -0.11647509
0.014849004 -0.008832622 -0.06267186 0.02864627 0.009026466 -0.17664924 0.075295605 0.070190534
-0.12217611 -0.11246225 -0.05412967 0.031037629 -0.024167776 0.09227328 0.08502201 0.11398161
0.12561278 -0.18834198 -0.121981494 0.024859957 0.23395196 -0.14790426 0.027881674 -0.04395511
0.06303079 -0.0421668 0.1377806 0.21190777 0.08180955 -0.08900455 -0.1336567 0.22449084
-0.043590184 0.048090365 -0.22815965 0.09840324 -0.20211455 0.09711228 -0.114968285 -0.04130624
-0.0016522561 -0.06313451 -0.02565474 -0.16539383 0.07125031 -0.013810364 -0.07128692 -0.15937766
0.053089708 0.16063493 0.039439972 0.060431406 -0.037103266 0.009688615 -0.009120125 0.18805853
-0.022910012 0.025732446 0.042443823 0.13178869 0.043067977 -0.083659954 -0.09577472 0.03941443
-0.20885809 0.010578483 -0.013958541 0.15800688
00000000: d8e4 80bc 7f35 27be 2f79 1cbe d335 993d
00000010: 49d7 4abd 1a22 57bd e415 863d 1621 de3d
00000020: 661b 38bd 362d 20be 0afa ab3d c709 9d3d
00000030: c60a ad3d e973 73be 7770 363e 4a56 f8bd
00000040: 5418 643e 4c4b a4bc 3105 f43d 4ee2 8a3b
00000050: 04b6 673d 6d88 953c fa50 533d 3571 aa3d
00000060: bf31 16bd b9a0 153d 9734 84bd 57ac d63c
00000070: 60a0 e1bc 3c68 2f3e f0f6 4fbe 7e8a eebd
00000080: 3d49 733c b4b6 10bc 1b5a 80bd 95ab ea3c
00000090: bee3 133c 8ae3 34be 9534 9a3d 0ec0 8f3d
000000a0: 7837 fabd 9c52 e6bd 13b7 5dbd a042 fe3c
000000b0: 80fb c5bc c6f9 bc3d 0520 ae3d 316f e93d
000000c0: a3a0 003e b8dc 40be 6fd1 f9bd 1ca7 cb3c
000000d0: 1a91 6f3e 3774 17be 1c68 e43c 460a 34bd
000000e0: 4916 813d 18b7 2cbd 5c16 0d3e 5afe 583e
000000f0: c48b a73d 0448 b6bd 4ddd 08be ede0 653e
00000100: 9f8b 32bd 67fa 443d afa2 69be a387 c93d
00000110: 1ef7 4ebe cee2 c63d 7e74 ebbd bb30 29bd
00000120: 8490 d8ba aa4c 81bd e429 d2bc 005d 29be
00000130: afeb 913d dd44 62bc e0fe 91bd e633 23be
00000140: 9874 593d 7c7d 243e cf8b 213d ec86 773d
00000150: 98f9 17bd ffbc 1e3c 946c 15bc 6a92 403e
00000160: c7ad bbbc dacc d23c 93d9 2d3d 9df3 063e
00000170: 0c68 303d e955 abbd 8925 c4bd 0671 213d
00000180: e5de 55be 6051 2d3c 5db2 64bc 8ecc 213e
