Source_combined/ckps/seizure/source/S39/source_C.pt (torch, 1763 bytes, 3 tensors)

fc.bias f4 [2]
0	0xbd8e875b	-0.06959411
1	0x3d8e8662	0.06959225

fc.weight_g f4 [2, 1]
0	0x3fc6c3d0	1.5528507
1	0x3fbca65f	1.4738272

fc.weight_v f4 [2, 50]
0	0xbe876ce1	-0.26450256
1	0x3ce95ee6	0.028487634
2	0x3c339652	0.010961132
3	0xbd214305	-0.039370555
4	0xbda91150	-0.08255255
5	0xbcc73483	-0.024317032
6	0x3e85bf8d	0.26122704
7	0x3cf1588a	0.029461164
8	0xbc97fd80	-0.018553495
9	0x3d98a995	0.0745422
10	0xbcdef9f6	-0.0272188
11	0xbd3e2ba5	-0.04642834
12	0xbdf32c96	-0.118737385
13	0x3c4c3e03	0.012465957
14	0xbd7e5340	-0.062091112
15	0x3dc2213e	0.09478997
16	0xbd5fe70b	-0.0546637
17	0x3ee17324	0.44033158
18	0x3d31b29b	0.043383222
19	0x3e2e1677	0.17000757
20	0xbe5c42d6	-0.21509871
21	0x3df4c7b0	0.1195215
22	0x3e2b71c7	0.16742621
23	0x3cb2c1ba	0.021820892
24	0xbd82707a	-0.063691095
25	0xbdba986a	-0.09111102
26	0x3e365c15	0.17808564
27	0xbc993ba8	-0.018705204
28	0x3e746e99	0.23870315
29	0xbe0a8687	-0.1352788
30	0xbda75d7a	-0.08172126
31	0x3e32fefa	0.17480078
32	0xbdbf3dbf	-0.09337949
33	0x3d3170f1	0.0433206
34	0xbe489f75	-0.19592078
35	0xbe724820	-0.23660326
36	0x3e0c2021	0.13684131
37	0xbcad2af4	-0.021138646
38	0xbe12a0ba	-0.14319125
39	0xbe514162	-0.20435098
40	0xb93073cf	-0.0001682781
41	0x3c9228b1	0.017841669
42	0xbc8b5eec	-0.017013036
43	0xbdfe8c23	-0.12429073
44	0xbde1aa03	-0.11018755
45	0xbeb14a42	-0.34626967
46	0x3d9cb979	0.076525636
47	0xbdd3c12d	-0.1033958
48	0x3d43df22	0.047820218
49	0xbd09318a	-0.03349451
50	0x3e80cb3c	0.25155056
51	0xbced9fb4	-0.029006816
52	0xbcf94ea6	-0.03043301
53	0xbbe52ed7	-0.006994109
54	0x3e02d737	0.1277741
55	0xbcbe3766	-0.023219775
56	0xbe5136d3	-0.2043107
57	0x3c535ffd	0.012901303
58	0x3b9af404	0.004728796
59	0xbdd39295	-0.10330693
60	0xbb817fc5	-0.003951999
61	0x3d888695	0.066662945
62	0x3d9ef8f7	0.0776233
63	0x3c0888d9	0.008333408
64	0x3a8b8d93	0.0010647051
65	0xbd8b75f1	-0.06809605
66	0x3d23a4c2	0.039952047
67	0xbecfe731	-0.40606073
68	0x3ca4cf53	0.020118391
69	0xbe0a8aa0	-0.13529444
70	0x3e54a41c	0.20765728
71	0xbe248c5a	-0.16069165
72	0xbe0f8824	-0.14016777
73	0x3d0a48ef	0.03376096
74	0x3da30575	0.07960025
75	0x3dd4a0e8	0.10382253
76	0xbe17c525	-0.14821298
77	0x3d68c73a	0.056830622
78	0xbe651f65	-0.22375257
79	0x3e0b0f74	0.13580114
80	0x3da8e4ec	0.082467884
81	0xbdf8f0d6	-0.12155311
82	0x3da38ebb	0.07986208
83	0xbdb0c572	-0.0863141
84	0x3e1f5427	0.15559445
85	0x3e846dd4	0.25865042
86	0xbe38cd4f	-0.18047069
87	0xbbeec81c	-0.0072870385
88	0x3e0124c1	0.12611677
89	0x3e2fe063	0.1717544
90	0x3c83cd3f	0.01608908
91	0x3cd9b415	0.026575128
92	0x3d8fbb36	0.070181295
93	0x3dcfc790	0.101454854
94	0x3e12c0f8	0.14331424
95	0x3eb19a25	0.34687915
96	0xbcaf9799	-0.021434592
97	0x3dcfce0a	0.10146721
98	0xbb0848bb	-0.0020795304
99	0x3ce1ac8e	0.0275481
